cache/ckpts/chipLogSoftmax-genius_NormalNN-genius_trialNo2.pt (torch, 8347 bytes, 5 tensors)

alpha_params f4 [64, 9]
00000000: af5c 7f3f 5fb8 11bb f10c 18bb 8b91 14bb
00000010: b9bc 0abb 4ccc 09bb 9d35 66ba 53c2 05bb
00000020: 1aa2 1abb 585c 7f3f 68c2 0dbb 8225 0dbb
00000030: d862 12bb 45b8 06bb 3486 11bb 1410 e9ba
00000040: 0bc9 0fbb 9adc ffba e05b 7f3f 1e01 1a3b
00000050: 02ae 0b3b fc77 183b b1ca ae3a 571c 153b
00000060: 83df b63a c8d4 0b3b 3954 e93a 975c 7f3f
00000070: 5591 8eba 720a 82ba 4c53 92ba 752c 6cba
00000080: 3b59 01bb 7ba3 59ba 7be3 03bb aa15 59ba
00000090: 4e5c 7f3f efbf 1c3b 11a0 1d3b 6abd 163b
000000a0: 8e63 003b 50fc 063b adb1 013b a2c8 0d3a
000000b0: ef57 0a3b 5b5c 7f3f 4887 f3ba 9feb 01bb
000000c0: 4f0c 07bb 7283 02bb 7f43 0cbb 95d9 02bb
000000d0: e4ee d0ba 9199 06bb 9f5c 7f3f c9d0 17bb
000000e0: 64ae 1bbb 212c 12bb c384 06bb fd9e e7ba
000000f0: d7f8 fdba 4dab c7ba 9aba 10bb 725c 7f3f
00000100: 6429 7eba 9f94 87ba 640f 80ba 872c 8bba
00000110: d854 5bba abcf 8bba 8d1e 86ba 4d53 80ba
00000120: d15c 7f3f 4f39 08bb 4b57 0ebb 47a9 08bb
00000130: bc6c 11bb 3a4a f5ba 730f 14bb 5c1a c7ba
00000140: 1843 12bb 8c5c 7f3f d09c 15bb 7780 18bb
00000150: 0487 12bb fba4 18bb 8587 0bbb a93f 0dbb
00000160: 55ff 04bb 0205 1abb 635c 7f3f 3789 1b3b
00000170: 2349 1e3b b810 133b cb42 6a3a 0a52 ea3a
00000180: 7f1c 953a 229c c33a c42b 193b 4a5c 7f3f
00000190: dc3e 173b 055e 1d3b 7c38 123b a403 e53a
000001a0: 6318 093b 2b74 f23a d792 083b 04b9 0e3b
000001b0: 0c5d 7f3f 5e14 1cbb 21c6 15bb 8e0b 1abb
000001c0: 0220 08bb 50fe abba 2a82 07bb 6bb1 143a
000001d0: 7b21 0fbb a15c 7f3f a853 02bb 6e1b 08bb
000001e0: e55f 02bb 259d 08bb 00be bdba e8e5 04bb
000001f0: df48 e83a 0ea3 03bb aa5c 7f3f 1f81 14bb
00000200: b6ee 12bb ae90 12bb 4798 10bb be16 13bb
00000210: 3383 0fbb 94d4 07bb e5be 13bb 325c 7f3f
00000220: 8f1c 183b afc5 0f3b fe4e 153b 1439 f63a
00000230: fb81 083b cb5c f43a 06c5 003b 763b 0d3b
00000240: ba5c 7f3f bb63 c3ba 3266 e1ba 6553 d5ba
00000250: 9603 f2ba 31ba e9ba e231 f4ba f3bb f5ba
00000260: b4ed eeba 525c 7f3f b3b8 1e3b d9c7 1d3b
00000270: dbd5 163b b12c e33a 7668 013b 1e1f fa3a
00000280: cb7c ea3a 2d61 0b3b 1b5c 7f3f 19a7 1c3b
00000290: 81a5 163b cc3a 193b 01b1 023b c503 3b3a
000002a0: 3d64 033b f291 8438 568b 0b3b 525c 7f3f
000002b0: 18a3 1c3b 0eb3 1b3b 4d8a 163b e459 f13a
000002c0: 35fd 4f3a 1bff f33a 136f 9f39 0eab 0c3b
000002d0: 545c 7f3f 2082 16bb 88af 1ebb d499 16bb
000002e0: 2f18 e4ba 6130 0cbb dc4b eeba 796a dfba
000002f0: 37bf 12bb 5c5c 7f3f 8c3c 15bb 3f5c 15bb
00000300: 417a 18bb 1d31 0ebb 928a 0ebb f217 01bb
00000310: baeb feba 5635 07bb b15c 7f3f f890 12bb
00000320: 8f8c 0dbb cb0e 1abb c88a 09bb 087c 0bba
00000330: a6c9 05bb 6170 5a3a cb55 05bb ee5b 7f3f
00000340: be9e 153b 727b 143b 4e28 0d3b d8f0 143b
00000350: ef0e 39ba 491f 163b fbfd a2b9 6fa6 173b
00000360: ab5c 7f3f abd1 f7ba c5fb e2ba 4aa5 f9ba
00000370: 1467 d8ba da0b e9ba b669 a9ba fb7f e6ba
00000380: bc4d d4ba b75c 7f3f 5b94 103b a8bf 1e3b
00000390: 3d5c cb3a c782 113b b2ec 883a 03fd 153b
000003a0: 55c6 4cb9 32db ca3a 995c 7f3f 9458 f8ba
000003b0: ddcf e9ba 043e feba 7eb2 ddba 2522 04bb
000003c0: 6202 d9ba 0584 f8b9 95ee deba 035c 7f3f
000003d0: 92eb 143b d08f 0d3b ffef 163b 38fa 033b
000003e0: a3dc 003b 91bd f53a 3e7a 06ba 5718 053b
000003f0: 3b5c 7f3f 1582 213b c0cc 1f3b 35eb 223b
0.997508 -0.0022235138 -0.0023201073 -0.0022669758 -0.0021169616 -0.0021026311 -0.0008781793 -0.0020410016
-0.0023595155 0.9975028 -0.0021630768 -0.002153725 -0.0022336747 -0.002055661 -0.0022205235 -0.0017781281
-0.00219399 -0.00195207 0.99749565 0.00234992 0.0021313434 0.0023264876 0.0013335553 0.0022752488
0.001395211 0.0021336544 0.001780159 0.99750656 -0.0010877053 -0.0009921326 -0.001116374 -0.000900931
-0.0019737023 -0.00083022536 -0.0020124603 -0.0008281121 0.9975022 0.0023918112 0.0024051706 0.0023001083
0.001959059 0.0020597167 0.001978974 0.000540862 0.0021109541 0.997503 -0.0018579746 -0.001982428
-0.0020606702 -0.0019914773 -0.0021402535 -0.0019966115 -0.0015940336 -0.002053831 0.99750704 -0.0023165217
-0.0023755068 -0.0022304135 -0.002052591 -0.0017671284 -0.0019376528 -0.0015233547 -0.002208388 0.99750435
-0.0009695499 -0.0010343975 -0.0009770212 -0.0010618129 -0.000836683 -0.0010666748 -0.0010232494 -0.000979045
0.99751 -0.0020786112 -0.002171951 -0.002085285 -0.0022190055 -0.0018714138 -0.0022592216 -0.0015190351
-0.0022317823 0.9975059 -0.0022829063 -0.002326993 -0.0022358308 -0.0023291695 -0.0021290493 -0.0021552837
-0.0020293791 -0.002350152 0.99750346 0.002373291 0.002415248 0.0022440385 0.00089363445 0.0017877233
0.001137629 0.001492385 0.0023372034 0.99750197 0.0023078239 0.0024012339 0.00223115 0.0017472398
0.0020919077 0.0018497756 0.0020839476 0.0021777758 0.99751353 -0.002381585 -0.002285369 -0.0023505422
-0.0020771031 -0.0013122056 -0.002067695 0.0005672189 -0.0021840024 0.99750715 -0.0019886289 -0.0020768302
-0.0019893583 -0.0020845619 -0.001447618 -0.0020278636 0.0017721913 -0.0020086202 0.9975077 -0.002265997
-0.0022420115 -0.0022364068 -0.002206342 -0.0022443975 -0.002189827 -0.0020726072 -0.0022544202 0.99750054
0.0023210382 0.0021937897 0.0022782679 0.0018785321 0.0020829428 0.0018643377 0.0019648685 0.0021550334
0.99750865 -0.0014907041 -0.0017196594 -0.0016275464 -0.0018464203 -0.0017831979 -0.0018630589 -0.001874803
-0.00182288 0.99750245 0.0024218976 0.0024075417 0.0023015651 0.0017332045 0.0019746101 0.001908276
0.0017889974 0.0021267638 0.99749917 0.002390331 0.0022986832 0.0023380993 0.0019941928 0.00071340456
0.002004876 6.321435e-05 0.0021292767 0.99750245 0.0023900922 0.0023757848 0.0022970617 0.001841363
0.0007934154 0.0018615456 0.000304096 0.0021464261 0.99750257 -0.0022965744 -0.0024213511 -0.0022979872
-0.0017402227 -0.002139114 -0.0018180567 -0.0017045281 -0.0022391805 0.99750304 -0.0022771684 -0.0022790579
-0.0023266228 -0.0021696754 -0.0021750075 -0.001969811 -0.0019448914 -0.0020631156 0.9975081 -0.002236424
-0.0021598672 -0.0023507352 -0.002098726 -0.00053209113 -0.0020414381 0.0008332786 -0.0020345326 0.9974965
0.0022830213 0.0022656587 0.0021538916 0.0022726562 -0.0007059415 0.002290683 -0.00031088278 0.0023139974
0.99750775 -0.001890709 -0.0017317465 -0.0019046452 -0.0016510212 -0.0017780021 -0.0012925181 -0.0017585749
-0.0016197483 0.99750847 0.0022061083 0.0024223123 0.001551516 0.0022203194 0.0010446517 0.0022886402
-0.0001952884 0.0015476702 0.9975067 -0.0018947297 -0.0017838437 -0.0019397144 -0.0016914157 -0.0020161953
-0.0016556496 -0.00047400608 -0.0017008359 0.99749774 0.0022723419 0.0021600612 0.0023031232 0.0020138156
0.001966276 0.0018748512 -0.000512991 0.0020308697 0.9975011 0.0024644185 0.0024383515 0.0024859433

fcs.0.weight f4 [64, 12]
00000000: 81f2 14be 0ee4 14bc 35b5 513d 7328 373e
00000010: 830d 2d3c 150a fa3d 9734 83bd 8ee7 97bd
00000020: 1bc6 57bc d9aa 2ebd 9289 2cbe 4e05 8c3d
00000030: 602f 86bb 46e4 eabb b9f8 273e 1fb3 01bc
00000040: 8528 27be fd1f c6bc 3db4 e1bc 53d5 013e
00000050: d9b1 b7bc 1c57 3bbe ef0a 313e 16a6 0ebe
00000060: e7aa 3e3e 3bf6 cdbd 8d10 91bc c09c 693d
00000070: c210 283e 9c51 603c 2f8c cebb 59be 7d3d
00000080: a057 473b 93e6 e33d 14c3 71ba 2fd0 1cbe
00000090: fa3c 29bd b396 833c 4afd e8bd ed5e 0ebc
000000a0: 1a3b 313c 6cf2 8a3d 9506 8ebd 889e 3ebe
000000b0: 2e33 a63d f828 25bd af4e c93c cbad d03c
000000c0: efb2 ae3d c6c6 103e 0ab2 283e a7ba c4bd
000000d0: d66d c9bc 50f9 d03c 9417 eebb 08fd 28be
000000e0: 6f3a 2e3c 801d 81bd 4673 52bc 9916 3b3e
000000f0: 7497 c0bc 68f1 44bd 6d7f 3f3e 6207 ab3d
00000100: 5bbc 57bd c4b0 253e 3a81 673d 7f51 fdbb
00000110: 5945 88bd 13b2 f1bd 5fab 733d e9ee 153e
00000120: ba0d de3d 8dbd be3b a2f0 273e 7833 ad3c
00000130: 05e8 1f3e 8d71 bebc 319d 28bd b826 3dba
00000140: 9f00 cfbd 5506 ad3c f9ce b33d 1064 40be
00000150: 4f34 4dbc 950d d1bd 2153 b13c 9e18 0dbe
00000160: 365a a8bd 728c 3abd ed05 2abe a52d f6bd
00000170: c693 963c 9f2b db3c 81e5 acbd 9799 0a3e
00000180: 4dc3 b93c 0247 3fbd 15f7 debd 660e c93d
00000190: e886 cb3c 2f59 943d a889 8b3b 4317 153d
000001a0: c9e5 8cbc c2f8 053e f84a 7ebd a028 c83c
000001b0: 9d8c d4bd 2e42 b4bd 7384 a43c 1ec2 b0bd
000001c0: 527d bbbd 477f b53d 6e00 cd3d ec27 39be
000001d0: afe6 0ebc d6bf 0c3e 79da c03c 2a47 793d
000001e0: 0771 043d 77ae 41be f94c 0e3e d083 10bc
000001f0: e80d 3ebe 23d2 06bc 90ff 323e 73f2 1ebe
00000200: 19bc d8bc f36a 1e3e dbb5 b23c 8c7a 0abd
00000210: 1959 053e 51ab 9bbb 5cb7 ac3c fc41 173e
00000220: bbe0 0b3e 99a5 9e3d 408c d0bc 0197 183d
00000230: 36ff e73d 3093 d4bd 60f5 853c becb 763d
00000240: 54bf 4dbc b43f 2e3e 9957 3cbe 64ab e4bd
00000250: 17fd 40be 172c 333d 5047 a53a 178f b8bd
00000260: aee1 d93b e516 693c 0f08 913b 0486 13be
00000270: de41 c13d e71d 353e 3882 903c 298b 6f3c
00000280: 78c2 983c 64d8 c1bd b835 683c 07c4 ce3b
00000290: ed08 b83d 48bc 3e3c bb67 21be 616c 3bbe
000002a0: 2175 203e bea1 00be 7f43 e6bd b9b3 ef3b
000002b0: 5645 d9bd c141 413e aa8c ac3c 602a babd
000002c0: d30e 2d3e db0b babc c6cd e73d 1642 df3d
000002d0: 5e39 133b a447 c43c 5c26 673c 8256 d03c
000002e0: 36ff e03d 6bfc b9bd 23d6 7b3d d4da 823c
000002f0: d7c1 9ebd d2d0 30be 18a6 193e e914 a63c
00000300: 712a f53a 7d3c 49bd 660e 16bd 99bd 073e
00000310: 01e2 983b d81d 603d e96a bebd 37d3 f9bb
00000320: 12e3 c43c 82c4 32be 704d 16ba dab9 ac3d
00000330: 0002 0c3e 576f d03c a1bb 34be d5f7 31bc
00000340: e5f9 a43d af14 47bd be8a 233e 2a97 e2bc
00000350: 50b8 e7bb fcb9 76bb 4db8 193d e47e 8f3d
00000360: 89c2 9c3d 954f cdbc aeba 063e 65cb 8d3d
00000370: 30ab 2cbc c760 c5bc 14b0 693d 70da ef3d
00000380: 29b9 d03c e401 823d 0cc2 163e 4b1a 5a3c
00000390: eaa3 d3bc 0477 50bc d82a 99bb 6b71 ad3c
000003a0: d22e 1d3e bfc9 6abb cc3e ab3c d9c1 b7bc
000003b0: 9ba7 1cbe f5cf a2ba ac69 e4bd e4f1 f7bd
000003c0: ca3e cbbc 82c7 0f3c 07fc b23c 40af 3b3e
000003d0: a39a a5bc 24f2 63bd 9d15 3dbe bb2c 25be
000003e0: 49ee 06be 94f6 d0bc 4ed7 0fbe a921 bd3b
000003f0: 7100 b43d f717 3e3d 237a 7e3c 27b4 253e
-0.14545633 -0.009087576 0.051198203 0.17886524 0.0105623035 0.12208954 -0.06406515 -0.074172124
-0.013169791 -0.0426434 -0.16849354 0.06836949 -0.004095003 -0.0071683256 0.16403474 -0.007916241
-0.1632405 -0.024185175 -0.027551765 0.12679033 -0.022423672 -0.18294948 0.17289327 -0.13930544
0.18619882 -0.1005673 -0.017708087 0.057034254 0.16412643 0.013691332 -0.0063033323 0.061949108
0.0030417219 0.11127963 -0.00092224893 -0.1531379 -0.041317917 0.01606307 -0.11376436 -0.008689624
0.010817314 0.067845196 -0.06934849 -0.18615162 0.081152305 -0.040322274 0.024573652 0.025473496
0.085302226 0.14138326 0.16474167 -0.096059136 -0.024588507 0.025509506 -0.0072659943 -0.16502774
0.010634049 -0.06304455 -0.012844866 0.18270339 -0.023509718 -0.048081785 0.18700953 0.083510175
-0.052669864 0.16180712 0.056519724 -0.0077306624 -0.06653852 -0.11801543 0.059489604 0.14641918
0.10842462 0.005820936 0.16400388 0.021142706 0.15615852 -0.023247505 -0.041165534 -0.00072155474
-0.1010754 0.021121183 0.08779711 -0.18788171 -0.012524678 -0.10207669 0.021646084 -0.13778922
-0.08220331 -0.045544095 -0.16603823 -0.12020425 0.01838101 0.026754199 -0.08442212 0.13535152
0.022676134 -0.046698578 -0.10886971 0.098171994 0.024844602 0.07243573 0.0042583533 0.036399137
-0.017199414 0.13083175 -0.062083215 0.024433434 -0.10378382 -0.08801685 0.020082688 -0.08630775
-0.09154762 0.08862167 0.100098476 -0.18081635 -0.008721991 0.13745055 0.023541676 0.060858883
0.032334354 -0.1891421 0.1389655 -0.008820489 -0.18559992 -0.008228811 0.17480302 -0.15522175
-0.02645688 0.15470485 0.021815231 -0.033808276 0.1302227 -0.004750647 0.021083526 0.14771265
0.13659947 0.07746429 -0.025457501 0.037253384 0.113279745 -0.10379636 0.016352355 0.060252897
-0.012557823 0.17016488 -0.18392791 -0.11165503 -0.18846546 0.04374322 0.0012609754 -0.09011667
0.0066492176 0.01422665 0.0044260095 -0.14406592 0.09436391 0.17687188 0.017640218 0.014620581
0.018647417 -0.09465101 0.014172964 0.0063099894 0.089860775 0.011641569 -0.15762226 -0.18303062
0.15669681 -0.125617 -0.112433426 0.007315126 -0.10608928 0.1887274 0.021063168 -0.09090114
0.16900186 -0.022710731 0.11318545 0.10901277 0.0022464613 0.023959942 0.014108267 0.025431875
0.109861776 -0.09081348 0.061483514 0.015973486 -0.07751816 -0.17267159 0.15004766 0.020273643
0.0018704665 -0.04912995 -0.036634825 0.1325592 0.0046656136 0.05471596 -0.09297735 -0.0076240557
0.024034057 -0.17457774 -0.0005733585 0.08433886 0.13672638 0.025443716 -0.176497 -0.01086231
0.08055476 -0.04860371 0.15970895 -0.027659971 -0.0070715323 -0.0037647476 0.03752928 0.07006624
0.07654292 -0.025062362 0.1315715 0.0692356 -0.010538861 -0.024093999 0.057052687 0.117115855
0.025478916 0.06348017 0.1472246 0.013311933 -0.025834996 -0.012723688 -0.004674297 0.021172246
0.15349892 -0.0035825816 0.020903967 -0.022431301 -0.15298311 -0.0012421595 -0.11152968 -0.12106684
-0.024810214 0.008775594 0.021848692 0.18328571 -0.020215338 -0.055650845 -0.18465276 -0.16130345
-0.13176836 -0.025508203 -0.14046976 0.005771835 0.08789147 0.046409573 0.015532049 0.16182004

fcs.0.bias f4 [64]
00000000: 42df 993d 07ad 74ba 1991 e43d 53e2 883b
00000010: 37b4 4abc 56fc 6bba db7f e3bd 71d1 103e
00000020: 2e62 81bd 1223 3d3c 7fb6 3e3d d43d 413e
00000030: 3e97 2c3d ebb1 83bd ef8d 5d3d 3609 fd3b
00000040: c72f aebc 876a 173e 35e9 d03c eee2 3fbe
00000050: b4b8 c63c 8862 ba3d a0ce a6bc 5731 1a3e
00000060: c20e 0cbb 372b 043e 0b13 8abd 77f8 a2bd
00000070: 397e a6bc 4f80 dcbb a026 963d a301 9bbb
00000080: b018 97bc d463 dc3b df97 24bd 33e4 9a3c
00000090: bde7 a7bc f48b e2bd ae8e d4bd 2f92 f93d
000000a0: c23d e1bb 5495 fd3d f961 f63d 42d9 323e
000000b0: 4b13 fd3d 07c4 70bd f859 01bc f5ad 3fbd
000000c0: 8fab b73c ce68 d0bc 2b4d 2fbd c7e7 97bd
000000d0: 299a 693d 0141 1abc 38e5 f7bd f438 323e
000000e0: 0fac 6d3b 12d3 c93d cdbd 283e f93c 12be
000000f0: f80a f3bd d0e5 a3bd eb5a 00bc 4b59 8e39
0.07513286 -0.00093336444 0.11160488 0.0041773706 -0.012372068 -0.00090021396 -0.11108371 0.14142396
-0.063175544 0.011544006 0.04656076 0.18871242 0.042136423 -0.064304195 0.054090437 0.0077220453
-0.021263016 0.1478673 0.025501827 -0.1873891 0.024257995 0.091008246 -0.020362198 0.15057884
-0.00213711 0.1290711 -0.067419134 -0.07957547 -0.02032386 -0.0067291628 0.07331586 -0.0047304197
-0.01844439 0.0067257676 -0.040183898 0.018907642 -0.020496244 -0.1106185 -0.103787765 0.121860854
-0.006873817 0.12381998 0.120304056 0.1746569 0.123571955 -0.058780696 -0.007894985 -0.046796758
0.022420673 -0.0254406 -0.042798202 -0.07417255 0.057031784 -0.009414912 -0.12104267 0.17404538
0.0036265885 0.098547116 0.16478653 -0.14281072 -0.118673265 -0.08002818 -0.0078341765 0.0002715088

fcs.1.weight f4 [2, 64]
00000000: 7aba bcbc 53ae 31bb 8e01 7f3c 6602 9c3c
00000010: 434d 6abc b2b9 1f3c e91b 27bc 0409 0b3d
00000020: d11b f73c 0b9d d83c f738 003d 3745 3f3c
00000030: 1717 21bc 2363 c23b 8a47 80bc 72fa 73bb
00000040: 1ee3 bd3c a50d f73c b036 2c3c f8bc bd3b
00000050: c71c 93bc e8e4 85bc 6d8e 21bc 8e7c f53b
00000060: d8b6 b23c 1db1 2c3d 563d ea3c 7df6 a9bb
00000070: 25ee bf3c c457 123d df30 503c 98b2 173c
00000080: 2a11 063b a830 04bc 0f77 45bb 7599 9c3c
00000090: df7d 53bc 9e25 82bc cca4 ec3c 8cd9 133d
000000a0: f271 72bc 159b 9f3c ebbb 56bc ae3e 703b
000000b0: 3cf2 a13c 7674 083d cb8a 463b 498b 153d
000000c0: 131f b9bc b57c 133c 7607 97bc 0f3e 063c
000000d0: e7c3 113d 2013 ea3c 09c7 61bc 2968 863c
000000e0: 35e6 ad3c 71b1 c33c 31cb 0ebc d7bf 823b
000000f0: 0a0d 6e3a 9fe8 fe3b bacb e33c 0439 87bc
00000100: 9df0 89bc 3026 a5bb 38cf 8a3c e8ba 0bbd
00000110: 0e79 05bd 7c00 c53b fca0 e03c 07dc f8bb
00000120: d8ab 79bc fd45 cf3c 74b7 b23b 977f db3b
00000130: b634 d93b c555 18bc 386d c3bc 5aa2 8b3c
00000140: 1040 2ebc aa12 2e3c 750b a73a 8ea4 dcbc
00000150: bb84 68bc bfde 8abc bb45 c3bb f50e ebbb
00000160: 75f9 2dbc d7d6 82ba b45d 86bc e824 383c
00000170: fbf4 ecbc 7baf a6bc 4c0b 103c c4d6 603c
00000180: 8f7b 9cbc 1957 3dbc 70e0 94bc 97e7 283b
00000190: 4007 00bc 24f6 0abd a6a9 b23b 03d1 2e3c
000001a0: 3fda f2bc e727 ee3b a79a 733c de17 f3bc
000001b0: 618e d3bc 8ab1 5a3b 8871 86bb 7d36 233c
000001c0: 1dfc a2bc 306b c53b 0c9d 4abb afe5 f7bc
000001d0: c045 b0ba 5bb2 26bc 1e41 7cbc 926d adbc
000001e0: c69a c239 9bd1 04bd 0256 6e3c 3981 bcbc
000001f0: d07a 943b 7b3d 6dbc ea11 68bb 972e b3bc
-0.023038138 -0.0027111962 0.0155643355 0.019044112 -0.014300647 0.009748863 -0.010199525 0.033944145
0.030164631 0.026442071 0.031304326 0.011674217 -0.009832165 0.005932228 -0.015659112 -0.0037228134
0.023179587 0.030157873 0.010511085 0.005790349 -0.017958058 -0.016344503 -0.009860617 0.0074916547
0.021815702 0.042161096 0.0285937 -0.0051868544 0.023428986 0.03572823 0.012706964 0.009258889
0.0020457008 -0.008068241 -0.003013078 0.019116143 -0.012908428 -0.015887078 0.028887175 0.03609614
-0.0147976745 0.019483129 -0.013106327 0.0036658454 0.019768827 0.03331419 0.003029513 0.036509786
-0.022597825 0.0090019 -0.018436175 0.008193507 0.035587218 0.028573573 -0.013780364 0.01640709
0.021227935 0.023888322 -0.008715437 0.0039901542 0.00090809225 0.0077791954 0.027807105 -0.01650668
-0.016838366 -0.0050399527 0.016944513 -0.034113795 -0.03258615 0.0060120206 0.027420513 -0.0075945887
-0.015238725 0.025301928 0.005453998 0.0066985595 0.006628598 -0.009297793 -0.02385579 0.017045189
-0.010635391 0.010624567 0.0012744503 -0.026933935 -0.014191802 -0.016951917 -0.0059592403 -0.007173414
-0.010618557 -0.000998224 -0.016402103 0.011239268 -0.02892541 -0.020347347 0.008791756 0.013723079
-0.019101886 -0.01155641 -0.018173426 0.0025772804 -0.007814229 -0.033926144 0.0054523526 0.010669949
-0.029645083 0.0072679403 0.014868415 -0.029674467 -0.025824727 0.0033369982 -0.0041028894 0.0099617215
-0.019895608 0.0060247406 -0.003091636 -0.030260889 -0.0013448521 -0.010174359 -0.0153963845 -0.021170411
0.0003711788 -0.032426458 0.014546873 -0.023010837 0.004531242 -0.01447999 -0.0035411068 -0.021872802

fcs.1.bias f4 [2]
00000000: af77 f23c fc1c 17be
0.029598085 -0.1475715
