cache/ckpts/chipLogSoftmax-genius_NormalNN-genius_trialNo0.pt (torch, 12123 bytes, 5 tensors)

alpha_params f4 [64, 21]
00000000: 5469 7b3e 0bcd e1b9 d00c 6d3a 8f6d fb3a
00000010: cb9c c43b 7bd8 b9bb 8c57 e83b 49d2 0cbc
00000020: 5db8 c73a 90ce a5bb 82bf 4dbb daee 27bc
00000030: 8012 40bb c288 a0bb 6128 3ebc 5085 21bb
00000040: f2e8 82bb f544 9c39 adad 1bbc 05a2 983b
00000050: aa7d b5bb 9ed1 7c3e 23cb e13c 1f3f a13c
00000060: 3a70 8b3d 42ef 1e3c df59 403d 3bef 4fbb
00000070: afcb eb3c c006 32bb 1898 d73c 6f8f c33b
00000080: 0dad 79ba be47 d83c 1e56 60bc e963 843b
00000090: 39aa de3b d32b a6bc df4b 92bb b54a 12bd
000000a0: f752 6eba 0f6b ecbc 5c2a 7d3e b424 b03c
000000b0: 747f 2f3d 2f37 263d 8a10 ab3d 1ba8 d9bb
000000c0: 33fc 9a3d 1467 a5bc c223 3d3d ddab f83b
000000d0: 1b8c 453b 3973 ee3c 454f 3abc 6b49 6d3c
000000e0: 2ce1 723b 8aee 96bc 7730 093b 2297 8fbc
000000f0: 5aca 82bc 1144 08bd 3719 adbc a7aa 7c3e
00000100: 2c30 193c 292c 353d 76c1 4a3d 55c5 393d
00000110: b2c6 c7bb 598e 913d 8da8 2ebd f182 743d
00000120: 2f63 26bc b801 dcbb ec07 be3c f485 b9bc
00000130: b1b3 aebb 9d60 413c 684e 25bd 01e7 64ba
00000140: c62a 75bc b655 e0bc f6ef c4bc d779 9fbc
00000150: 759e 7d3e 73ec c83c bd59 1e3d 6767 9d3d
00000160: ba1a ed3c e9fa 2d3d 92e1 eb3c ac83 cd3c
00000170: bd35 003d 7962 24bc 0ede 2c3c 0fcb 263d
00000180: 2160 13bd 2c6a e53c 22ed 8dbc ad24 01bd
00000190: f5e2 8d3c 2ab8 48bd 043c 0dbb 30fd 0fbc
000001a0: 6382 5abd b98d 7c3e 5d97 203c 19e7 173d
000001b0: 1ac4 253d 861b 413d bc97 60bb 4ad7 723d
000001c0: 3a23 cdbc 0876 273d 8cba d6bb 9662 cc3c
000001d0: 3aa8 96bb 7534 283c 3aea 14bc c587 233c
000001e0: fb1a ed35 bffe 8ebc 1db4 7c3c 7a11 06bd
000001f0: 3199 b6ba 757e 85ba 2925 7b3e 8768 b639
00000200: b9b5 073b 8bd9 aaba 679e 383b d5cc 72bb
00000210: 6374 623b 167e 8a38 68b3 103b a4dd 22bb
00000220: 7ad1 6438 1ae9 faba aebe 4fbb f723 b6b9
00000230: 01c6 8bbb 9026 583b 2ed6 d2ba 8f28 0d3a
00000240: 2ee7 8a3a 85be efba 1325 d1ba 355e 7d3e
00000250: 6daa 8c3c c7aa 593d 9d0b f03c 66b9 b63d
00000260: 707f b6bc 1192 ab3d 11d4 81bc 98da 0f3d
00000270: b8e9 cb3c 0ddf c0bb e6cd bc3b 60eb a33c
00000280: e150 02bd c43d 9e3b 7d3a 89bc 0df4 d1bc
00000290: 504c a1bc 2875 e0bc 39a6 04bd da12 0bbd
000002a0: a67e 7c3e 45e4 5b3c 9ca0 5c3d 0db4 163d
000002b0: e1fe 533c 1075 c23c a3fe 933c f919 103c
000002c0: 1d2a 813c 5382 0a3d 8cc1 70bc a15b 753c
000002d0: e24f 483c 5956 b1bc fb22 3c3c 8cf9 26bc
000002e0: db52 15bc 9b41 93b8 325e a4bc 5430 22bc
000002f0: 6816 8bbc 6f3f 7b3e ba7f 333b b630 ae3b
00000300: 400e b03b a018 ce3b 7427 9e3b eb42 e23b
00000310: 5641 853b c8c9 de3b f1ff 4ebb e0df 723b
00000320: fdfb 823b f266 4dbb e3e5 853b 0ea8 37bb
00000330: 1f58 56bb e442 acba a8f4 95bb 622f 06bb
00000340: c830 a1ba a822 a7bb 8749 7d3e e5ec f33c
00000350: 0f87 863d 5cf5 d53b f900 fc3d d75c 8abd
00000360: 7695 d63d 18a8 fdbc fa81 0f3d 6234 353c
00000370: 7417 2cbc f43a bd39 a73c dc3b a73a 88bc
00000380: ff55 abbb a6d7 beba f751 00bd 7743 1ebc
00000390: 096a a6bc 76d3 febc 562c 67bc 2f25 7d3e
000003a0: c5fa b73c 581e 163d 9741 d73b 4f0e f03d
000003b0: 123d 30bd ae82 ca3d d3ad abbc 75e4 123d
000003c0: 8977 b53c 8ed1 00bc a108 f93b 4e65 113c
000003d0: a411 b4bc 5998 48bb d5ea 0abc cf8d bfbc
000003e0: 1d19 68bb 4c0a a2bc e095 bcbc db55 3fbc
000003f0: 3a44 7c3e 6b89 b73c 0288 b93c d0f2 293d
0.24551898 -0.00043068113 0.0009042742 0.0019182431 0.0060001365 -0.0056715584 0.0070905145 -0.008595058
0.001523744 -0.0050600246 -0.0031394665 -0.010249818 -0.0029307902 -0.0048991153 -0.011606307 -0.002464611
-0.0039950544 0.00029806016 -0.009501857 0.004657986 -0.005538662 0.24689338 0.027562683 0.019683419
0.06808515 0.009700598 0.046960708 -0.0031728286 0.028783647 -0.0027164668 0.026317641 0.0059680264
-0.0009524383 0.026401397 -0.013692407 0.0040402305 0.0067951945 -0.020284569 -0.004464611 -0.035715777
-0.0009091342 -0.028859643 0.2472319 0.021501876 0.04284616 0.04057997 0.08352764 -0.006642354
0.075676344 -0.020190753 0.04617668 0.007588847 0.0030143324 0.029107677 -0.011371438 0.014482836
0.0037060482 -0.018424291 0.0020933428 -0.01752812 -0.01596563 -0.03326804 -0.021130187 0.24674474
0.009349864 0.044231568 0.049500905 0.045354206 -0.0060966844 0.07107229 -0.04264121 0.059695188
-0.010155483 -0.006714072 0.023197137 -0.022646882 -0.0053314795 0.01180282 -0.040357977 -0.0008731932
-0.014963811 -0.02738462 -0.024040204 -0.019467277 0.24767478 0.02452681 0.0386598 0.07685738
0.028943408 0.042475615 0.028794084 0.0250872 0.03130125 -0.010033243 0.010550989 0.040720996
-0.035980348 0.028004728 -0.017324988 -0.031529117 0.017320136 -0.049003758 -0.0021550665 -0.008788392
-0.053347003 0.24663438 0.009801713 0.037085626 0.04047022 0.04714539 -0.0034270128 0.059287347
-0.025041211 0.040884048 -0.006553 0.024949353 -0.004597691 0.010266413 -0.009089047 0.0099811
1.7665728e-06 -0.017455457 0.015423802 -0.03273151 -0.0013931153 -0.0010184782 0.24525894 0.00034791624
0.002070768 -0.0013034804 0.0028170587 -0.003704836 0.0034554235 6.603838e-05 0.002207959 -0.0024851346
5.4554526e-05 -0.0019142956 -0.0031699347 -0.0003474054 -0.0042655473 0.003298197 -0.0016085559 0.0005384767
0.0010597461 -0.0018291032 -0.0015956484 0.24742968 0.01717111 0.05314138 0.029302413 0.08922081
-0.022277564 0.08377469 -0.015848191 0.035120577 0.02489172 -0.0058859647 0.0057618497 0.020009696
-0.031815413 0.0048291404 -0.016751522 -0.025629068 -0.019689709 -0.027399614 -0.032385085 -0.033953525
0.24657688 0.013421123 0.053864107 0.036792804 0.012939186 0.02373746 0.018065756 0.008795255
0.015767151 0.033815693 -0.014694583 0.014975459 0.012226077 -0.02164762 0.011482949 -0.010191333
-0.009113993 -7.021726e-05 -0.020064447 -0.009899218 -0.016978458 0.24535917 0.0027389363 0.0053158654
0.0053727925 0.0062895566 0.0048264805 0.00690495 0.0040666265 0.0067989565 -0.0031585658 0.003705971
0.0039973245 -0.0031341878 0.0040862425 -0.0028023752 -0.0032706333 -0.0013142494 -0.0045762844 -0.002047502
-0.0012297863 -0.005100567 0.2473508 0.029776046 0.06568729 0.0065294933 0.12304873 -0.06755989
0.10477726 -0.030963942 0.035036065 0.011059852 -0.010503639 0.00036092813 0.0067210975 -0.01662953
-0.0052287574 -0.0014560118 -0.031328168 -0.00965964 -0.020314233 -0.031106692 -0.014109692 0.24721216
0.022458443 0.03665003 0.006569098 0.11721479 -0.04302699 0.098882064 -0.02095691 0.035862405
0.022151725 -0.007862462 0.0075999056 0.008874251 -0.021981068 -0.0030608384 -0.00847884 -0.02338305
-0.003541536 -0.0197803 -0.023020685 -0.011678184 0.24635401 0.022404393 0.022647861 0.04149133

fcs.0.weight f4 [64, 12]
00000000: 3ed8 42bc 5373 7bbd 6683 a2bd 00b3 97bd
00000010: 759e adbc 9054 60bd b97d debd 24b2 32bd
00000020: af0c d9bb 2a76 d1bb f2aa 06bc 50f3 e3bb
00000030: 0888 d73d d534 ae3a aa35 623e 8518 603c
00000040: 7000 8abc 015b 8cbc 4b87 20be 66c7 5c3d
00000050: ea10 08bb f7d0 70bc 296c 283c 2ac3 b13b
00000060: 5992 85bd 4bda 3a3c 26b6 2b3e be6c 1e3e
00000070: 2606 3b3d 17ab b43d 9b41 49be 27da 123e
00000080: 6017 ca3b 7be4 76bc 1353 9fbb eee7 6aba
00000090: 0bbd 8ebd 856d 063e cadd 253e 8362 543e
000000a0: f3e4 3cbc b9a9 2d3c 7402 a63d b146 5e3c
000000b0: a874 32bc 5aeb ebbb d858 613b 1d2f e23a
000000c0: f3f7 bb3d 9fa2 4f3d 2627 4f3d d37c 413d
000000d0: a3bd d43c e44c 83bd 5847 65be a29f 443e
000000e0: 92a9 313b 30b2 7b3b fe88 91bb 3c82 663c
000000f0: f0dd dbbd d84f 823e 4cbc ab3d f0c4 ffbd
00000100: 9bb8 1c3d b187 5a3d 9c94 bd3d 2707 503d
00000110: 9a0f d23b 1558 523c b12d 17bb 0ccd 13bb
00000120: 9bca 03be 8053 f13d cb3b d73b 826c 6d3c
00000130: 4db0 d4ba 0a83 a3bc e124 cd3c 5f9d 83bb
00000140: 735d 7c3c 89ad 45bb c20d 68bc 61f1 87bc
00000150: 6ba5 11be 9992 e73d ac37 013d 86ef 8bbc
00000160: 526a 823d 84a8 46bd e91a 8b3c 938a 083f
00000170: c9fc 013a a8e8 103c 67a0 5c3c 262f ebbb
00000180: 1998 a93c eabc e2bd f017 d2bc e90a 6b3b
00000190: 706b 07bc d8c5 84bc c8ae 90bc cf5f d0ba
000001a0: 397b e9ba 7807 12bc bf7a 773b e65f 583b
000001b0: b13a 4fbd ef8d 1a3c c655 9d3d 50aa 153c
000001c0: f82b 813c 49ab 57bd d1e2 4a3d 5df4 5abc
000001d0: 54d8 c6bb d80c cabb 7c73 93bb bf74 4bbb
000001e0: 7131 1ebd e87e b23d 011a 403d 8fc6 4bbd
000001f0: 02bc 863d c956 0abd a252 3fbd 1a48 873e
00000200: ec42 1cbc 4482 db3a 5f7b 123c 66e4 10bc
00000210: ca68 04be 94dd 25bb 9dd9 503e d4b7 c2bd
00000220: 56d6 2a3e 06aa 17be 65b3 61be d9c0 e93e
00000230: 73d3 5abc 9ce2 553c 9a2f 9e3a b2ff 21bb
00000240: fad3 5b3d 7cc8 0ebd f29a 61bd 245e 123c
00000250: f24e 93bc 815f bb3b 7bbd 473d 5f6b 633c
00000260: a9da fb39 5fab ac3b abbd be3b 61b8 593b
00000270: 1ed0 b1bd 3b71 c0bd 9511 963d 0e73 87bd
00000280: 7341 02be 4a3b 633c b21c 1fbd 2885 4c3f
00000290: 853c 1cbc 2b0d c93b 49ae 22bb a04b 79bc
000002a0: cb38 163e 4ac5 70ba 496c b83d 1d2b e53d
000002b0: aaab 17bb ff9a 103c 39ae 7e3b 0095 9a39
000002c0: ee71 073c 3140 f3ba 2149 68bc 63f3 72bc
000002d0: 5b35 163e 3a3e 28bb 90e0 863b f8e7 09bc
000002e0: 6d6c fdbd e835 66bd 144a 48bd c6b9 d23e
000002f0: 2a49 493c a41d 28bc 5295 43ba 5bbf 133c
00000300: 81d9 debd bef2 d93d 570a ca3d d71b ff3b
00000310: df30 b23c 7cf0 c93c 474c abbd 5809 4f3b
00000320: e7cb 67bb 16a5 32bc 017a d9ba 2731 59bc
00000330: 7d60 d03d 9c1b 063e a794 a13d d98f e13d
00000340: c09c 5ebb 1c83 11bc f85a 8b3d d943 63bc
00000350: b0a7 2838 b896 a2b8 5703 063c 210a 00bc
00000360: 4a74 08bd 0386 993d 287e 413e 1f44 ee3d
00000370: 7cd6 bb3d 9c76 043d 4ab5 0abe 125f 1c3e
00000380: 0248 12ba 1cdb b2bb 40ad faba e386 e6ba
00000390: 015b 30bd 28e0 f63d a04c 233e 1614 da3c
000003a0: a82a bb3d f9b3 aa3d eee9 f9bd ffd5 dd3d
000003b0: d24f 0838 011f f2b9 c2a3 6d3c a817 493c
000003c0: afa6 8e3d b59f a03d 05a4 103d aad6 41bd
000003d0: 5fc1 3dbc 291b 8b3c b034 6cbd fe20 b6ba
000003e0: eb9b 0c3c eba9 96ba 4b70 a13b 5286 c93b
000003f0: 21bd 203e 9184 663e 5f81 02bd ad14 0dbc
-0.0118923765 -0.06138928 -0.079352185 -0.074071884 -0.021193722 -0.054768145 -0.108638234 -0.04362692
-0.0066238265 -0.00639226 -0.0082194675 -0.0069564953 0.10523993 0.0013290892 0.22090784 0.013677721
-0.016845912 -0.017133238 -0.1567661 0.0539011 -0.0020762035 -0.014698259 0.010279694 0.0054248767
-0.06522054 0.011404584 0.16768703 0.1547117 0.04566016 0.08821695 -0.19653933 0.14341031
0.0061673373 -0.015069122 -0.004862198 -0.0008960952 -0.06969651 0.13127716 0.16197887 0.20740704
-0.011529195 0.010599547 0.08105937 0.013566659 -0.010892071 -0.007199687 0.003438523 0.0017256472
0.09178152 0.050692197 0.050574444 0.047238182 0.025969332 -0.0641115 -0.22390497 0.1920152
0.0027109128 0.0038405769 -0.0044413796 0.014069136 -0.107356906 0.2545154 0.08385524 -0.12488735
0.03826199 0.05335206 0.092568606 0.05078807 0.0064105513 0.012838383 -0.0023068006 -0.0022552637
-0.12870257 0.117835045 0.006568407 0.014491202 -0.0016226858 -0.019959945 0.025042 -0.004016563
0.015403139 -0.003016325 -0.014163436 -0.01659459 -0.14223258 0.11307258 0.031547233 -0.017081987
0.06367935 -0.048500553 0.016980605 0.5333645 0.00049586274 0.008844532 0.013465977 -0.0071772514
0.020702409 -0.11071189 -0.02564618 0.0035864657 -0.008265361 -0.01620762 -0.017661467 -0.0015897694
-0.0017813212 -0.0089129135 0.0037762371 0.0033016144 -0.05059308 0.009433254 0.076823756 0.009134844
0.015768036 -0.052653585 0.049532715 -0.013363925 -0.006068269 -0.006166082 -0.004499851 -0.0031044928
-0.03862137 0.08715612 0.0468998 -0.049749907 0.065788284 -0.03377417 -0.046709664 0.26422197
-0.00953744 0.0016747196 0.008940547 -0.008843517 -0.12930599 -0.0025309073 0.20395513 -0.09507719
0.16683325 -0.14810953 -0.2204109 0.45654944 -0.0133560775 0.013054516 0.001206863 -0.0024719057
0.053668953 -0.034859166 -0.055079408 0.008933578 -0.01798198 0.005718172 0.048764687 0.01388058
0.00048037365 0.0052694525 0.00582095 0.003322147 -0.08682273 -0.09396597 0.07327572 -0.06613742
-0.1272028 0.013869116 -0.038845725 0.7989068 -0.009535913 0.006135603 -0.002482312 -0.015215784
0.14670102 -0.0009184672 0.09005029 0.11189864 -0.0023143091 0.008826016 0.003886117 0.00029484183
0.008266909 -0.0018558559 -0.014177592 -0.014828536 0.14668791 -0.0025671856 0.0041161254 -0.008417122
-0.12374196 -0.056203753 -0.04889877 0.4115736 0.01228551 -0.010260973 -0.000746091 0.009017791
-0.10881329 0.106420025 0.098652534 0.007785301 0.02175182 0.024650805 -0.08364158 0.0031591263
-0.0035369338 -0.010903617 -0.0016592146 -0.013256348 0.10174654 0.1309647 0.07889681 0.11013765
-0.0033967942 -0.008881357 0.0680446 -0.013871157 4.0210492e-05 -7.7528355e-05 0.008179507 -0.007814915
-0.033314027 0.07496264 0.18895781 0.11634087 0.09171769 0.032339677 -0.13545719 0.15270641
-0.0005580188 -0.005458249 -0.0019125119 -0.0017587807 -0.043055538 0.12054473 0.15947199 0.026620906
0.091389954 0.08335108 -0.12202822 0.10831832 3.2499265e-05 -0.00046180937 0.014504375 0.0122737065
0.06965386 0.07842962 0.03531267 -0.04732386 -0.011581748 0.016980724 -0.057667434 -0.001389533
0.008582096 -0.0011494731 0.0049267164 0.0061500454 0.15697147 0.22511508 -0.03186166 -0.0086108865

fcs.0.bias f4 [64]
00000000: 1bb0 103e 90c8 8b3c efbf 02bd ae58 973d
00000010: 58b5 393e d106 973d d1ba 133d 309c 153e
00000020: 46fb 38bd 0e30 3bbd 197f 533e 8b59 043e
00000030: 9068 ba3b d7d0 053e a749 2abc a6ef a03e
00000040: 4a12 4abd 30d8 2f3d 622b 403e f350 af3d
00000050: 7d3c f53c d3a2 2ebd aafa 943d 1e56 bf3c
00000060: b954 8d3d 6aba 153e 8d02 cc3d c1ce 7e3e
00000070: 46dc 1a3e 7f5d 773d 9817 5e3e 8372 383e
00000080: a808 a6bc eafa 813c 6a3e c4bc e568 9bbb
00000090: 0da6 28bd 9a3f 20bd 707d 9bbc 2fca 6abc
000000a0: f827 b6bc d0f0 f53d 0a5a e33d 22b6 57bc
000000b0: ae5d 433e 3008 4c3e 655e 003e 95cb fbbc
000000c0: 0ef1 82bc e10d 0e3e a159 6c3d bfa5 ce3c
000000d0: a679 933d f67a 34bd 0627 0cbd 94dd c53b
000000e0: ce82 543d 07ba 04be b40f 0f3c 4905 b7bc
000000f0: f60f 163e 3c1a 4f3d f545 623d 3768 cc3d
0.14129679 0.01706341 -0.031921323 0.07389961 0.18135583 0.07374347 0.036066834 0.14610362
-0.045161508 -0.045700125 0.20653953 0.12924783 0.0056887344 0.13067947 -0.010393537 0.31432837
-0.049333848 0.04293078 0.18766549 0.08560362 0.02993607 -0.04263575 0.07274373 0.023356494
0.06900925 0.14621893 0.09961424 0.24883558 0.1512309 0.0603919 0.21688688 0.18012433
-0.0202678 0.015866715 -0.023955543 -0.004742729 -0.041173983 -0.039123155 -0.018980712 -0.014330431
-0.022235855 0.12008822 0.11101158 -0.013165982 0.19078705 0.19924998 0.12536009 -0.030736724
-0.015984084 0.13872482 0.057702664 0.025225518 0.07200937 -0.044062577 -0.034216903 0.006038377
0.051882558 -0.12961589 0.008731771 -0.022341387 0.14654526 0.05056213 0.055242497 0.09980815

fcs.1.weight f4 [2, 64]
00000000: 7ab1 21be 9938 583f 2d50 953f a1f9 753f
00000010: 1ac3 913f 65dc 493f fbe0 e1bc bde4 723f
00000020: cc32 4a3f 7bea 023e afb0 883f 5c2d 853f
00000030: c685 103f 48d7 7b3f d9ca 113f 09b1 943f
00000040: 1850 693f f7ff 793f 3f16 923f 5aa0 813f
00000050: ece0 713f ee26 4c3f d7d7 263f f73f 8e3f
00000060: d139 703f af98 913f 82b0 3b3f d49e 993f
00000070: 5697 8c3f b59b 803f e40b 903f c863 973f
00000080: 90b8 563f 14c5 8e3f e38c 503f 600c 923f
00000090: 2ff1 883f 43c0 4c3f 1e50 283f 7508 673f
000000a0: a275 783f 4ad4 763f d5b9 963f 1a73 593f
000000b0: 6a85 733f 775e 903f 1a70 823f 057e 6f3f
000000c0: 9fe8 793f 089a 9a3f ee28 eb3e 6b2d 753f
000000d0: 8d7c 463f b043 763f 25ce 2f3f 6bf1 4e3f
000000e0: 0aa4 9a3f d065 5a3f 147d 873f 0265 413f
000000f0: d28d 9b3f 5994 853f 4071 4e3f 7548 7a3f
00000100: 42d6 303e b3de 68bf 6093 8cbf 7654 65bf
00000110: fdeb 82bf 472d 4fbf b40b 743b d7db 73bf
00000120: 1a81 3fbf 4bd6 19be ed90 8ebf abb8 83bf
00000130: 44e0 06bf 3c3d 61bf 126c 0cbf 44b6 8ebf
00000140: 12f7 68bf b15b 7dbf 5eec 83bf eb09 8fbf
00000150: 78af 58bf 3db9 59bf 8d09 24bf 8bc7 8fbf
00000160: d56a 71bf 5765 95bf de28 37bf b8ca 9dbf
00000170: 81bc 75bf 0a90 89bf 8618 92bf 9ca3 8dbf
00000180: 6a2e 4dbf 42ec 8abf 992d 54bf 47d3 95bf
00000190: a354 86bf 1f66 4abf b38e 23bf 8aac 65bf
000001a0: 6752 5cbf 103f 7dbf 3e94 93bf cea8 55bf
000001b0: 3f0f 63bf c946 92bf d206 72bf 9cdd 6dbf
000001c0: e10e 65bf b9ad 8ebf 6e5f e1be d2ea 6abf
000001d0: 903c 42bf 66ce 74bf d62f 2fbf a1b4 49bf
000001e0: 15e1 92bf 13ef 49bf 6f9e 7cbf 3791 3cbf
000001f0: 9823 8fbf d1df 87bf e028 46bf f254 61bf
-0.15790358 0.8446136 1.1665093 0.9608403 1.1387665 0.7885192 -0.0275731 0.94880277
0.7898376 0.1278476 1.067892 1.0404468 0.5645412 0.9837537 0.56950146 1.1616527
0.9113784 0.97656196 1.1413039 1.012706 0.9448383 0.797469 0.65173095 1.111327
0.9383822 1.137472 0.73316205 1.2001595 1.0983684 1.0047518 1.1253629 1.1827326
0.8387537 1.1153893 0.81464976 1.1410027 1.0698603 0.7998087 0.6574725 0.9024728
0.97054493 0.9641768 1.1775461 0.84941256 0.9512545 1.1278828 1.0190461 0.93551666
0.97620577 1.2078257 0.45929664 0.9577243 0.775338 0.9619703 0.68673927 0.80837125
1.2081311 0.85311604 1.0585046 0.7554475 1.2152655 1.0435897 0.80641556 0.9776681
0.17269233 -0.9096481 -1.0982475 -0.89582 -1.0228268 -0.8092846 0.003723842 -0.95257324
-0.7480637 -0.15023153 -1.1137978 -1.0290731 -0.5268595 -0.8798406 -0.548524 -1.1149373
-0.91002 -0.98968035 -1.0306509 -1.1174902 -0.84642744 -0.85048276 -0.64077073 -1.1232771
-0.9430364 -1.1671551 -0.71546733 -1.232749 -0.9599076 -1.0747082 -1.1413734 -1.1065555
-0.8014895 -1.085335 -0.82882077 -1.1705102 -1.0494579 -0.79062074 -0.63889617 -0.897164
-0.86063236 -0.9892435 -1.1529615 -0.834607 -0.8869514 -1.1427852 -0.94541657 -0.92916274
-0.8947583 -1.1146766 -0.4401812 -0.9176456 -0.7587366 -0.9562744 -0.68432367 -0.7879124
-1.147494 -0.78880423 -0.9867925 -0.7365908 -1.1182737 -1.0615178 -0.7740612 -0.8802024

fcs.1.bias f4 [2]
00000000: 0871 833f 4f50 8fbf
1.0268869 -1.1196383
