cache/ckpts/e000.pt (torch, 538715 bytes, 5 tensors)

alpha_params f4 [5, 9]
00000000: 0ed3 8641 0dad 21c0 1c6d c540 3981 20c1
00000010: 29d9 2dc1 9e92 cbbd 7f3c 8240 787a 93c0
00000020: 2612 bbc0 3657 8e41 6511 0ac0 9067 fe40
00000030: 1c64 06c1 5360 16c1 7a91 d83f abb7 8340
00000040: dfcf 4bc0 3084 b6c0 7e02 9441 7672 62bf
00000050: 4cdc fa40 1276 f2c0 a7a0 18c1 a960 dc3f
00000060: b27e c440 ca0d 88c0 4cae 9cc0 25f7 9741
00000070: 0a4b a4c0 a674 da3e 105e aec0 622d 09c1
00000080: f1ca 0841 0ffc 3b41 1786 dabf 9bee c73f
00000090: 007a 9241 8687 e4c0 ba35 16c1 a704 ad3e
000000a0: b6e8 0ac1 b1c6 3141 42c6 5541 3e46 47c0
000000b0: 95bc 42bf
16.853054 -2.5261872 6.169569 -10.0315485 -10.865518 -0.099400744 4.069885 -4.6087
-5.8459654 17.792583 -2.1573117 7.950142 -8.399441 -9.398517 1.6919396 4.1161704
-3.1845624 -5.703636 18.501217 -0.88455904 7.8393917 -7.576913 -9.539222 1.7216998
6.1404657 -4.251683 -4.8962765 18.995676 -5.13416 0.4266712 -5.4489822 -8.57358
8.549546 11.749038 -1.7072171 1.5619692 18.30957 -7.1415434 -9.388117 0.33792612
-8.681814 11.111009 13.360903 -3.1136622 -0.76069003

fcs.0.weight f4 [64, 2089]
00000000: 299a 68bf fd75 183d 30fd 61a8 2c3d 413f
00000010: 42e5 ba3c 99d9 1abf 4dd3 8fbf 2c5c b5be
00000020: da3a 643e 667f 3d2a 50c9 a428 8663 eebd
00000030: 4b0b b9be 9248 7cbf 8af9 41bf c283 33bf
00000040: 8b7f 8ba8 9880 1639 fe9f 7ba7 80fd 93bf
00000050: 172b aa2c bc2a 9fa8 d557 42bf e920 333f
00000060: aed7 d8a8 2118 82be 62a8 a6be bbb4 64a9
00000070: 7ebb d1bf 91b6 fbbe 9e51 a3a7 fd17 3aa8
00000080: 4a76 7b25 34ad 0dbf 63f6 a03d a54b a4be
00000090: 0189 93bd 34f1 9fa8 c613 14bf 8782 d73c
000000a0: abcf 033e 3793 a428 a6da 0cc0 1b45 d6be
000000b0: 1164 a0a8 8271 2cbe 519e 8dbe b222 8c28
000000c0: 37c0 033f 4e82 4828 6031 a33f 253d 05be
000000d0: c0e2 1f3f b71f 3f3f 9636 0140 cdd0 53bf
000000e0: 3a8e 42ac d0ca 673b 4007 b0bc 5a39 d0ba
000000f0: ff8d 6fa8 aab9 1c26 0a46 39b7 250d c33e
00000100: 6987 93bc 753a c432 c7d0 b8bd 7d2f 26a6
00000110: 101e 53bf 101c 63a8 9d63 a1be 7eea a0bd
00000120: 197f 10bc 7eb2 9128 3340 30a9 b2a7 ab3f
00000130: 3917 60bd f47f 9928 5056 ecbe 228b 8ca7
00000140: 183d a2a7 948e f627 23ed 3828 5cfb a9be
00000150: 6460 c1be 2fee a428 71bf 6e3e ebd6 9928
00000160: 08ac d4bd da76 d6be 0ea8 263f d10d a53e
00000170: 10fc 26bf 5e3a e2a9 3d0b ccbe 4ef6 3527
00000180: b15b 80a8 63f0 8b28 4a67 80a8 d430 20bf
00000190: 4fa3 36be 67ca e63e c1c9 573f a4b9 edbf
000001a0: 5a3c 502c 098a 6b40 cf85 6b3e ac4a 013e
000001b0: bf5c bcbb 376f f63f 6c5c 093e faff c43e
000001c0: 80ce cf3e 6516 4ebf 6172 9f28 0976 91a8
000001d0: dec0 b9a7 1809 75bd e13b dd3b 4d19 5d3f
000001e0: 01f2 433e f6c9 27bf 92ab a5a8 0c8e 0a3f
000001f0: c089 edbf 3908 0c40 64d7 3e3b 6060 dfbe
00000200: e6eb 03bf d7ad 863d 531a 49a9 85c9 e53d
00000210: c58c 443f 890b a3be daff 8627 7fa4 102c
00000220: ef04 2abf 872b cebe 852d 50bf 65f7 f5ba
00000230: b21b 8b3f e56d 28bc 4f42 d3be b5ff 47a9
00000240: 8455 91bd a05e 0a3d 0f04 9228 bf9e eebd
00000250: a1b5 d4be da2b a428 39d7 32bf bee4 8ebf
00000260: 26d5 c43e 79e2 6ebf d112 4abd a47c 813f
00000270: b54e a528 6938 113f 5214 8c28 3215 debd
00000280: 17e5 f03d d103 ee3e 9f31 a2a8 766b 7028
00000290: f10e a528 6f63 58ac 3a40 b927 ee70 af3e
000002a0: e558 263e fbbf 87bc bd8f c83f ee15 96b0
000002b0: 33fe c0be 2927 cba6 38ef 58bf 7cea 51be
000002c0: 78a7 9828 9cbd b2a7 628b 2ba8 ed1c 4faa
000002d0: 6e5a 2dbf 6c55 ef3d 436d a8aa ae72 e4be
000002e0: bc2d 82bf 9634 4ea9 176e 913f 63d3 5128
000002f0: b9d6 2abf babb e43e 1b7c 90be 3d6f 17be
00000300: dfaf 6fac 6aae d13d 5c46 533e e1d7 7ca8
00000310: 63b9 3abf 92ec 11be 9401 03a8 4e5b eaa5
00000320: 0eda 6828 c786 80be 733d 59bf 3e34 8938
00000330: 02d9 a8be 1128 1040 7052 08bf 9b10 7628
00000340: e22b 81bf f823 7528 c6a5 9828 43e5 a528
00000350: ade9 063f 94cf 543f 76c0 83a8 49ff b1bf
00000360: ba21 00b9 535f 7cac 6fd5 0a3f decf 52bf
00000370: 2e6b 233d 3229 8828 8ad5 aebe 6ba9 81bf
00000380: f328 6fbf 12cd 783e 2112 7028 d03d 76bd
00000390: 0056 153d 70f3 9bbe fca2 f9be 040b 59bf
000003a0: f6f4 8abe 157c 98bf c07a 4ea9 79eb f73e
000003b0: a371 d4bf bee1 eabe 69ce 7e3f 34a3 693f
000003c0: 9323 f6a9 fd2d e93d 048c 2cbc 7455 28be
000003d0: 4b18 95aa 1770 8dbd e2cb 8d28 8c54 3ea9
000003e0: 176e 2da8 870e 683f 1bba afbf 5ab3 e73e
000003f0: 8c8f e1bd b71d a028 096f a1bc 7bb0 393e
-0.9086023 0.037221897 -1.254491e-14 0.75483966 0.022814397 -0.6048828 -1.1236359 -0.35421884
0.22288075 1.6830772e-13 1.8294963e-14 -0.11640076 -0.36141428 -0.98548234 -0.7577139 -0.7012292
-1.5487413e-14 0.0001435302 -3.491998e-15 -1.1561737 4.8364745e-12 -1.767108e-14 -0.7591527 0.6997209
-2.4074353e-14 -0.25409034 -0.3255034 -5.078293e-14 -1.6385343 -0.49162725 -4.5330078e-15 -1.0330276e-14
2.1810858e-16 -0.5534241 0.078594945 -0.32088962 -0.07203866 -1.7757151e-14 -0.5784267 0.026307357
0.12872188 1.8271502e-14 -2.2008452 -0.41849598 -1.7806965e-14 -0.16840175 -0.27659848 1.5558169e-14
0.5146517 1.11304856e-14 1.2749443 -0.13011606 0.6245537 0.7465777 2.0189567 -0.8274048
-2.764801e-12 0.0035368688 -0.021487832 -0.0015886233 -1.3297956e-14 5.4374994e-16 -1.10431665e-05 0.38095966
-0.018008905 2.2843986e-08 -0.09024196 -5.765718e-16 -0.82467747 -1.2607116e-14 -0.3152131 -0.07857226
-0.008819365 1.6175643e-14 -3.9135534e-14 1.3410552 -0.054709647 1.7041903e-14 -0.461596 -3.9008654e-15
-4.503027e-15 6.84333e-15 1.0265473e-14 -0.33199584 -0.37768853 1.8310953e-14 0.23315217 1.7079618e-14
-0.10384375 -0.41887552 0.6510018 0.32237104 -0.65228367 -1.0046541e-13 -0.39852324 2.5252318e-15
-1.425062e-14 1.5536351e-14 -1.425565e-14 -0.62574506 -0.17835735 0.45076296 0.8429223 -1.8572278
2.959208e-12 3.6803 0.23000263 0.12626141 -0.005748361 1.925269 0.13414162 0.38476545
0.40587234 -0.8050292 1.770215e-14 -1.6149423e-14 -5.155692e-15 -0.059823126 0.006751523 0.8636673
0.19135286 -0.6554254 -1.8393087e-14 0.54122996 -1.8557663 2.1880019 0.0029120082 -0.43628216
-0.5153183 0.06576126 -4.4653798e-14 0.112200774 0.767773 -0.31844738 3.7469866e-15 2.0554944e-12
-0.6641378 -0.40267584 -0.8131946 -0.0018765746 1.0867827 -0.010280107 -0.41261527 -4.4408667e-14
-0.07096389 0.033781648 1.6211016e-14 -0.11651372 -0.41544822 1.8226675e-14 -0.69859654 -1.1163557
0.3844387 -0.9331432 -0.04933435 1.0116162 1.8352814e-14 0.567267 1.5551935e-14 -0.108438864
0.117624454 0.46487287 -1.8007133e-14 1.3345978e-14 1.832516e-14 -3.0750643e-12 5.141745e-15 0.34265846
0.16244848 -0.016571036 1.5668865 -1.0920169e-09 -0.3769394 -1.4096569e-15 -0.8474002 -0.20499605
1.6948018e-14 -4.96105e-15 -9.522631e-15 -1.8395329e-13 -0.6771611 0.11686215 -2.991861e-13 -0.44618744
-1.0170207 -4.57868e-14 1.1361722 1.1647668e-14 -0.6673389 0.44674474 -0.28219685 -0.14788528
-3.406157e-12 0.10238345 0.20632309 -1.4035621e-14 -0.7293913 -0.142504 -7.272303e-15 -4.06544e-16
1.292587e-14 -0.25102827 -0.8485939 6.5424e-05 -0.32978064 2.2524455 -0.5325079 1.3659344e-14
-1.0091517 1.36080315e-14 1.6947283e-14 1.8418106e-14 0.5270031 0.8312924 -1.4627388e-14 -1.3906032
-0.00012219595 -3.586427e-12 0.54231924 -0.8234843 0.039897136 1.5116899e-14 -0.34147292 -1.0129827
-0.9342186 0.24296978 1.3326607e-14 -0.060117543 0.03645897 -0.30459166 -0.4875716 -0.84782434
-0.27140015 -1.1912867 -4.5847657e-14 0.4842184 -1.6597179 -0.45875353 0.99533707 0.91264653
-1.0930766e-13 0.11385725 -0.010531429 -0.16438848 -2.6484574e-13 -0.06906145 1.5742565e-14 -4.2261808e-14
-9.627301e-15 0.90647167 -1.372867 0.45254022 -0.110137075 1.7776455e-14 -0.019706266 0.18133728

fcs.0.bias f4 [64]
00000000: af67 93be 2f11 20bd f4ec 3abe 0f56 b93c
00000010: ca81 e8bd 12d6 abbf 8b11 8cbe dd67 86be
00000020: 0e13 903d ac4c 8abe 19bc 223e 76bb 54be
00000030: 946e 033d 6c9b 033e 208f b7be f8af 8bbd
00000040: b2d3 abbe 32c2 3fbe 4d6b b2be be9f ebbe
00000050: 5a39 0fbe 45ac 10bf 03ff ae3d ea49 33be
00000060: 361f 0dbf b5ed 7cbd 4f27 49bf 736b 33be
00000070: 3ef0 2fbe dbae 68bd ed05 66bd e6b1 3dbf
00000080: ee73 e8bd 5a22 2bbf 5d9b 92bd c063 0ebe
00000090: a4cf 3dbd 3242 90bd 11f5 77bd 05d1 82bf
000000a0: 95c1 97bd c748 12bd 52ae a8bd fe36 45be
000000b0: 95b7 1d3e e04d 21bd 187b 29be b44c 1cbe
000000c0: 3a13 cf3d a965 56bd 3255 56be 9b6c 4abe
000000d0: 0e62 21be f6bb 30bf bdd3 9abd ab0f 013e
000000e0: 4545 4e3d 4b61 30bd 2057 94be 07f9 e9bd
000000f0: 85e2 2abe 9ee3 8f3d c817 823d 9b13 34bf
-0.28790042 -0.039078888 -0.18254453 0.022624044 -0.1135288 -1.3424704 -0.27357134 -0.26251116
0.070348844 -0.2701162 0.15892066 -0.20774636 0.032087877 0.12852257 -0.35851383 -0.06820673
-0.33559948 -0.18726423 -0.3484749 -0.4602031 -0.13986722 -0.5651286 0.085447334 -0.17508665
-0.5512575 -0.061750133 -0.78575605 -0.17521457 -0.17181489 -0.05680738 -0.056157995 -0.74099576
-0.11350237 -0.6684929 -0.071585394 -0.13905239 -0.0463406 -0.07043876 -0.060536448 -1.0220038
-0.0740997 -0.035713937 -0.08236374 -0.19259259 0.15402062 -0.039380908 -0.16550863 -0.15263635
0.10111089 -0.052343044 -0.20930937 -0.19767992 -0.15760061 -0.69036806 -0.07559917 0.12603633
0.05035903 -0.043061536 -0.2897272 -0.11424451 -0.16687973 0.070258364 0.06352192 -0.70342416

fcs.1.weight f4 [5, 64]
00000000: 3200 3b3f dbc3 b13d 80eb d3bd 579c f43e
00000010: 1733 88be 649e dfbf d003 aa3f bb9b 65bf
00000020: 483e 243f 227a 42bf eebe cc3f 65ea 0bbf
00000030: 2e55 cc3d c8b7 d33e c7ce 7f3f 1ece 8cbe
00000040: 4d82 1540 00b7 0dbf 14c1 b2be e03e dd3f
00000050: 54e6 393e 79ca 2ebf 345d 953d b62b ddbe
00000060: 3398 f33f 47e0 173e 6e40 913f 4a59 fd3f
00000070: 2e95 c7be 1c37 b4be f870 3d3c 757d 37bf
00000080: 308b 00bf ba99 95bf 9fa1 39be c038 23bf
00000090: 690e 78be 6d09 bbbe b7b8 6b3d 01ca 5940
000000a0: 0c0a 8bbe cc66 02be 8364 17bf 2678 dcbe
000000b0: 751f d63f 64d8 03bf f0d7 c03d 5f64 35bf
000000c0: 719f c03f ea1c 39be dd2a eabe 0fc4 c03f
000000d0: d368 4ebe 29a0 31bf 3416 12bf 981e bd3f
000000e0: 6b2a 833f a46e 37bb ec7b a93f 4e35 bdbe
000000f0: 9464 febe ff02 aabe 4011 9ebe f63d 56bf
00000100: 8fa3 83bf b35a 87be 4240 b43e b197 543f
00000110: 34cb 4bbe 93e9 46bf 295a 6a3e 1e3a 0040
00000120: 99de 483e 5576 33bf e828 e9be 3101 e73f
00000130: 6ab1 bcbe 917d 373f 3421 d73d b2ca e5be
00000140: ddd5 46bf b693 debd edbc a83f 8e5c 0fbf
00000150: d9c7 c4be b290 b5be ebe4 d53f f4b4 50be
00000160: 720f 6ebf 66bb b0be b390 c43e d4f9 dbbe
00000170: 35df 0cbf dca6 d9be 1101 19bf af8a 3940
00000180: 7c61 ce3d cd66 5dbf d895 97be 775b 1440
00000190: f3af b83d 75ae 0a3f 2fc1 f2be 9fc3 95bf
000001a0: 1612 90be 056b aebc c831 49bf 15f5 08bf
000001b0: 17bc e8be 51e3 9cbd ad0d 1fbf 42d2 0040
000001c0: bdea d6be 68e9 9fbd 91ad 4dbf dd9f bfbc
000001d0: 6160 f0be cf77 0640 b402 d23f f3e5 17be
000001e0: 0df9 063e e52d 1dbf 0553 3dbf ce12 1bbf
000001f0: 56e8 24bf 9900 8d3f f304 e93f 68d8 88bf
00000200: 9742 2b3f 7775 a03f 8e94 523d cee8 93be
00000210: a567 a93f df45 c7bf 3364 e0be 4041 fdbe
00000220: 5a16 43be a84b ee3f 76b2 3ebe 7bfa c3be
00000230: 273f 303f 2e84 c0be 1e62 ffbe 817e 863f
00000240: 3348 55bd bbf8 0fbf 3851 3fbf 6922 2ebf
00000250: ec87 0abf c89c 8cbf 6f44 17be c262 f9be
00000260: 1489 0dbf ea25 4dbf 6521 47bf fcf1 8abe
00000270: 3a44 cb3f 0a10 de3d 45a7 393e 152c acbf
00000280: 0b1e cb3e ada9 45bf 312f 9f3f fbd0 d8be
00000290: f924 59be 80cd c9be 0a3a 9fbe 4d8a 08bf
000002a0: ead7 9cbe 7835 8e3f 0494 15bf 4150 94be
000002b0: 833f 66be c635 17bf 2b60 00bf 17b4 d0be
000002c0: 8594 1bbe b2ff d1be f3e6 bd3f 3b49 2bbf
000002d0: 9213 b83f 72cf 12bf 780c e2bc 6fd2 4dbe
000002e0: 9424 c9be 6cb1 04bf 7f7f 273d ac16 49bf
000002f0: 848c 28bf 3169 543e 375d a1be 8843 0640
00000300: e518 cbbe d08d 28bf 5019 bd3f 0ced 39be
00000310: de07 16bf 77a9 883e 4f53 14bf 5f68 96be
00000320: e1f8 3bbf 108f 54be e26c 84be 180c 7cbe
00000330: 4f00 9f3d 3570 14be b926 64be c3d0 083d
00000340: 1537 83be 3d86 c93f bee8 9dbd 2882 243e
00000350: d1ab afbf 5c24 0340 1e94 d4be 55d4 74bf
00000360: 8e81 433b 2d5e 71bf 328c d7bd 9443 dcbe
00000370: 5375 9cbe 9c27 48bf f4f5 bcbe 326b 84be
00000380: 4b0a 3abf 7d7b 2040 7ae8 b3be 64b4 02bf
00000390: 1c2e 20bf 3e92 7c3f 1cef af3f 8754 20be
000003a0: 8fa5 993f 413a eabe e117 b63f b342 dc3f
000003b0: f789 50be 7fdd f8bd 3eae cb3f 2e07 cabe
000003c0: b38f 43be a779 973f 29fd bfbe 8d68 b4be
000003d0: 1b20 06bf edd9 66be 42e0 12bf b46c 02bf
000003e0: ad1c 563e d29d 3dbe 4b7a 00bf 5192 19bf
000003f0: f980 0b40 43ed f9be bfea d2be 48e1 95be
0.73047173 0.086799346 -0.103476524 0.47775528 -0.26601478 -1.7470212 1.3282413 -0.8969075
0.64157534 -0.7596761 1.5995767 -0.5465453 0.09977184 0.4135115 0.9992489 -0.27501005
2.336078 -0.5535736 -0.34912932 1.7284813 0.1815427 -0.682777 0.07293168 -0.4319741
1.9030823 0.14831649 1.1347787 1.9792874 -0.38981003 -0.35198295 0.011562578 -0.7167581
-0.50212383 -1.1687539 -0.1812806 -0.6375847 -0.24224247 -0.3653063 0.057549205 3.4029543
-0.27156103 -0.12734526 -0.59137744 -0.43060416 1.672835 -0.5150206 0.09416187 -0.7085628
1.5048658 -0.18077436 -0.45735827 1.5059832 -0.20157175 -0.6938501 -0.5706513 1.4774961
1.024732 -0.002798953 1.3240943 -0.3695473 -0.4968611 -0.3320541 -0.30872536 -0.83688295
-1.0284289 -0.26436386 0.35205275 0.8304396 -0.19901735 -0.77700156 0.22885956 2.0035472
0.19616164 -0.70102435 -0.45539021 1.8047239 -0.36854106 0.71675974 0.1050438 -0.44881207
-0.7767008 -0.108680174 1.3182656 -0.560006 -0.38433722 -0.35461956 1.6710485 -0.20381528
-0.9299232 -0.34517974 0.38391647 -0.4296404 -0.55028087 -0.42510116 -0.5976725 2.8990896
0.100771874 -0.86484987 -0.2960651 2.3180826 0.09017935 0.5417245 -0.47413012 -1.1700324
-0.28138798 -0.021291265 -0.78591585 -0.53498966 -0.45456 -0.07660545 -0.6213024 2.012833
-0.41975966 -0.078081906 -0.80342966 -0.023391658 -0.4694853 2.1010625 1.6407075 -0.14833812
0.13180943 -0.61398154 -0.739548 -0.6057557 -0.64417017 1.1015807 1.8204635 -1.0691042
0.66898483 1.2535847 0.051411204 -0.28888553 1.3234755 -1.5568198 -0.43826446 -0.49463844
-0.19051495 1.8616838 -0.18622765 -0.3827704 0.6884636 -0.37600845 -0.49879545 1.0507356
-0.052070808 -0.5623891 -0.74733305 -0.68021256 -0.5411365 -1.0985346 -0.14772199 -0.4870816
-0.5528729 -0.8013598 -0.7778533 -0.27137744 1.5880196 0.10842903 0.18130215 -1.3450953
0.39671358 -0.7721203 1.2436277 -0.4234694 -0.2120551 -0.39414597 -0.31098968 -0.5333603
-0.3063348 1.1110067 -0.5842898 -0.2896748 -0.22485165 -0.59066427 -0.5014674 -0.40762398
-0.15193374 -0.41015393 1.4836105 -0.66908616 1.4380972 -0.57347786 -0.027593836 -0.20099805
-0.3928572 -0.51833224 0.040893074 -0.7855022 -0.6583941 0.20743252 -0.3151643 2.0978718
-0.3966743 -0.6584139 1.477335 -0.18156832 -0.58605754 0.2669179 -0.5793962 -0.29376504
-0.73426634 -0.20757699 -0.2586432 -0.24613988 0.07763731 -0.14495929 -0.22280397 0.033402216
-0.25627962 1.5744091 -0.07710408 0.16065276 -1.3724309 2.0490942 -0.41519254 -0.9563649
0.002983186 -0.94284326 -0.10524787 -0.43020308 -0.3055826 -0.7818544 -0.36906397 -0.25863034
-0.72671956 2.5075371 -0.35138303 -0.51056504 -0.6257036 0.9866065 1.3744845 -0.15657245
1.200365 -0.4574757 1.4226037 1.7207855 -0.2036513 -0.12151622 1.591255 -0.39458603
-0.19097786 1.1834 -0.37497833 -0.35236016 -0.5239274 -0.2254407 -0.5737344 -0.5094712
0.20909376 -0.18517235 -0.50186604 -0.59988886 2.1797469 -0.4881383 -0.41194722 -0.29273438

fcs.1.bias f4 [5]
00000000: 6b0f c5bd 2e7c dabc 8b12 0fbd 4e2a 923c
00000010: ecad 34bd
-0.09622081 -0.026670542 -0.034929793 0.017842438 -0.044111177
