cache/ckpts/e1.pt (torch, 693088 bytes, 23 tensors)

alpha_params f4 [9]
000000 3b 20 73 3f ac fb 49 be 62 3d a5 3e 49 d8 06 be
       0.94971055 -0.19724911 0.32273394 -0.13168444
000010 15 c5 e5 bf e3 f5 00 c0 f1 b9 a4 3f 58 69 75 3b
       -1.795077 -2.0150077 1.2869245 0.0037446823
000020 60 1c d8 bd
       -0.10552287

convs.0.weight f4 [64, 64]
000000 a9 87 30 af f1 4c 93 36 17 5d da 3c 86 1c 06 31
       -1.6055303e-10 4.3898985e-06 0.026655717 1.951578e-09
000010 9b a0 16 35 04 ac f4 3b 02 15 a9 33 ff 13 bc 33
       5.6113066e-07 0.007466795 7.873497e-08 8.7580695e-08
000020 a6 72 81 b9 fe 93 0a 36 8c 67 d2 2d 1a f7 a0 34
       -0.00024690217 2.0649745e-06 2.392022e-11 2.9982112e-07
000030 6d 23 d7 ad 32 c6 33 bc 46 97 b1 3c 65 f7 f1 3c
       -2.4458402e-11 -0.010972546 0.021678578 0.029536912
000040 45 c9 ca 3c a5 be b1 3c 57 15 0a b9 16 94 2e 2f
       0.024754176 0.021697352 -0.00013168655 1.5877819e-10
000050 8c 63 49 3d 43 c2 76 38 7e b3 ab 3c 5f fb 1e 3d
       0.0491672 5.883189e-05 0.020959612 0.038813945
000060 71 35 59 3c 94 e8 78 3c 21 23 58 33 f3 fc 54 b7
       0.01325737 0.01519217 5.032337e-08 -1.2695079e-05
000070 40 6f 33 3d ac 1e 0a 3d 7f 80 87 3b 42 8f 67 31
       0.04380727 0.033720657 0.004135191 3.3696357e-09
000080 c4 8e a3 35 f9 1e d3 32 cb 1c 27 3d c8 73 38 37
       1.2185997e-06 2.4577718e-08 0.040798943 1.0994212e-05
000090 1f 95 b4 31 37 79 bf b2 7d bc 55 32 0c bc 4c 33
       5.2556426e-09 -2.2290449e-08 1.2441089e-08 4.766848e-08
0000a0 46 84 70 33 a3 a2 5a 3d 5e 8c 3b ad f4 1d bc 34
       5.5999656e-08 0.05337776 -1.0660887e-11 3.5039523e-07
0000b0 ff 60 91 3c f3 7a 92 b2 4b 05 d1 3c 89 ba e1 ba
       0.017746447 -1.7052548e-08 0.02551522 -0.001722173
0000c0 12 ab 94 37 fd 91 ab bc 58 a2 0c 3d 28 03 4d 32
       1.7722636e-05 -0.020943636 0.03433451 1.1933288e-08
0000d0 3f ae 28 b3 36 d0 75 32 1e a2 75 bb 54 ff a9 3c
       -3.9274024e-08 1.4308219e-08 -0.0037480663 0.020751633
0000e0 27 ec 8f b4 87 4c 09 b1 eb 87 ff b3 ec a6 1d 2c
       -2.680765e-07 -1.9979625e-09 -1.1899086e-07 2.2403702e-12
0000f0 5e f5 4d 3c 6d a2 9a b0 ac 7a a1 3c 69 27 e7 3c
       0.012570707 -1.1251139e-09 0.019711815 0.028217034
000100 6a 1a 22 32 92 5f 17 ac 37 6b 12 bc 05 95 e9 32
       9.435647e-09 -2.1511443e-12 -0.008936695 2.7192536e-08
000110 46 ae 41 36 2a 6a 92 bb 4e 48 ba b3 3f 90 85 33
       2.8860682e-06 -0.004468222 -8.674452e-08 6.219533e-08
000120 13 5b 43 b7 8a fd 30 b5 92 6c 57 2e 5e 4e 45 b3
       -1.1644111e-05 -6.5934057e-07 4.898177e-11 -4.593891e-08
000130 d0 2b 6a 2e 06 1f e5 bc ed 1c 3b 3c 33 a1 3b bc
       5.3244353e-11 -0.027968895 0.011420471 -0.011452007
000140 6e 20 4b 3a d6 58 a9 bc 73 c9 4d b9 56 40 b2 2f
       0.0007748668 -0.020672243 -0.00019625369 3.2423725e-10
000150 47 fb cc bc 66 e2 19 38 c8 2e b8 bb 99 be 69 bc
       -0.025022162 3.6688893e-05 -0.005620811 -0.014266633
000160 d3 30 85 bc a4 05 9e 3b c6 81 39 32 f2 26 23 37
       -0.016258633 0.0048224498 1.0797924e-08 9.724625e-06
000170 8a 05 58 3a 5f bd a8 3b 0b 1b 56 3b 2f 83 31 b1
       0.00082405715 0.005149528 0.0032669927 -2.583146e-09
000180 04 87 d1 35 93 68 b8 b2 04 09 1c 3a f0 a7 24 37
       1.5611008e-06 -2.1467974e-08 0.0005952271 9.814263e-06
000190 e4 90 a9 b1 86 67 0c 32 3a 79 26 b2 72 55 14 b2
       -4.9350195e-09 8.172611e-09 -9.690035e-09 -8.634162e-09
0001a0 69 f1 2a b4 64 12 b8 bc 14 21 7d 2d d0 d9 da 34
       -1.5920308e-07 -0.022469707 1.438873e-11 4.0764144e-07
0001b0 9e 58 0c 3b 66 af b5 b1 a4 90 76 bc 30 ca 8e b9
       0.0021415125 -5.287734e-09 -0.015049133 -0.00027234992
0001c0 85 2e 05 38 04 3e cd 3c 01 78 ac bc d8 fc 64 33
       3.1752996e-05 0.025053985 -0.021053316 5.3315347e-08
0001d0 f8 c1 57 33 a6 89 1f 31 28 47 2f bc 89 1e 09 bc
       5.0235002e-08 2.321579e-09 -0.010698117 -0.008369097
0001e0 3f 55 ca 30 14 3b 89 b1 b4 79 d9 32 af 29 c9 2b
       1.4721663e-09 -3.993941e-09 2.5317469e-08 1.4293479e-12
0001f0 3c 74 61 bc 0f 53 42 b2 c2 c4 80 bc ad 4b d1 bb
       -0.013760623 -1.13111716e-08 -0.015718821 -0.006387195
000200 39 65 21 b2 a0 4a 48 36 8b a2 85 3c f3 7e 1a 33
       -9.394449e-09 2.984576e-06 0.016312858 3.597138e-08
000210 43 9d cf 36 eb 5e c3 3b ed 7a 67 33 27 04 59 b4
       6.1873884e-06 0.005962243 5.389568e-08 -2.021121e-07
000220 a8 45 9d b9 da 09 e5 35 48 cf 25 2e 14 e3 7d 34
       -0.00029997271 1.7064697e-06 3.770076e-11 2.3645072e-07
000230 c2 7c 7f 30 b4 b4 9e bc 87 2d cc 3c e5 dc d8 bc
       9.294575e-10 -0.019373275 0.024924053 -0.026472518
000240 da 4b ae 3b ca d6 66 bc 48 b9 9a 39 b0 ea 16 b0
       0.005319101 -0.014089296 0.00029511214 -5.4903193e-10
000250 d3 8e 06 bc 4c d4 5f b7 1a de 51 bc f1 95 03 bd
       -0.008212763 -1.3341265e-05 -0.012809301 -0.032125417
000260 a6 a0 8c 3b 72 20 a5 bc 7e 09 13 b3 13 e9 d1 36
       0.0042916117 -0.020157073 -3.4234738e-08 6.255819e-06
000270 2d b3 62 3c af 97 7d 3c fc 5b 5a 3a 8e 99 37 2d
       0.013836664 0.015478059 0.0008329747 1.0436442e-11
000280 c3 df 68 34 f7 af 7e b0 7e 03 ed bc 2d 41 46 36
       2.1688088e-07 -9.2654723e-10 -0.02893233 2.9542236e-06
000290 df 71 34 31 c3 c7 9a 31 dd c8 9d b2 03 54 63 b2
       2.6258176e-09 4.5047e-09 -1.8368548e-08 -1.3232241e-08
0002a0 1a 9d e6 33 b5 94 de 3c 32 37 93 2d 78 0d b6 b4
       1.0738786e-07 0.027170518 1.6736477e-11 -3.3909942e-07
0002b0 d8 08 a7 bb 2c 49 b5 b2 76 67 2c 3b 80 26 50 b9
       -0.00509749 -2.1104448e-08 0.0026306785 -0.00019850768
0002c0 67 e9 d2 37 a5 4e 5e bc 97 96 2d bb 22 d5 af 33
       2.5142637e-05 -0.013568555 -0.0026487464 8.187841e-08
0002d0 a4 94 c3 2f 3e 24 56 b3 cd d6 cb bc f2 8d b0 bc
       3.557591e-10 -4.985872e-08 -0.024882698 -0.02155206
0002e0 b7 3d c4 b5 97 a7 6a 32 c7 f0 ba b3 10 20 32 ac
       -1.4621099e-06 1.3658698e-08 -8.705097e-08 -2.531312e-12
0002f0 e3 d0 cf bc 50 75 ea b1 e1 4c 0a bd 1b 26 57 bc
       -0.02536816 -6.823633e-09 -0.033764724 -0.013131644
000300 68 ee b9 30 89 ed ca b5 8c c5 91 bc e3 88 c9 2c
       1.3528281e-09 -1.5119305e-06 -0.017794393 5.727961e-12
000310 32 79 4a b6 e3 35 a9 b9 c3 a8 1f 31 71 a2 84 34
       -3.017089e-06 -0.0003227434 2.3233475e-09 2.4705108e-07
000320 c6 26 21 b7 2b 47 8e b5 73 10 97 ac 15 06 77 b4
       -9.605375e-06 -1.0600537e-06 -4.2935044e-12 -2.300588e-07
000330 5b 58 32 b1 f5 28 75 3c fa 1c f2 bc 7e 10 80 bc
       -2.5952633e-09 0.014963378 -0.029554833 -0.015632864
000340 a2 79 a3 bb cb 8c 81 3c c6 26 f1 38 ce 7c 04 2e
       -0.004988865 0.015814206 0.000114989976 3.0124174e-11
000350 d0 92 42 bb d6 78 2f 36 06 90 42 3a c5 53 ff 3c
       -0.0029689558 2.6147368e-06 0.0007421974 0.031167874
000360 24 17 d9 3a a9 cd 3a 3c f5 ea 47 33 d3 15 d7 36
       0.0016562683 0.011401572 4.654699e-08 6.41004e-06
000370 4a 51 5a 3c a0 1b c2 3b dd 18 f1 bb 75 c8 55 b0
       0.013325045 0.0059237033 -0.0073577003 -7.7773815e-10
000380 01 5b 38 b5 99 ab 30 33 a0 dd f6 3c 6f 06 94 b5
       -6.867777e-07 4.113426e-08 0.030134976 -1.1028732e-06
000390 2d 08 4b 30 35 3f 05 ad 64 fa 0c b2 9c 1c 1a 32
       7.386259e-10 -7.5742095e-12 -8.206005e-09 8.970485e-09
0003a0 9e 32 26 b4 0b 28 b7 bc 4f c3 08 ae 10 a0 a6 34
       -1.5478369e-07 -0.022357961 -3.109629e-11 3.103637e-07
0003b0 a5 0e e1 bb d8 8f 91 b3 1f d9 99 3c 8d 21 f1 ba
       -0.006868201 -6.778254e-08 0.01878029 -0.001839684
0003c0 c2 5a a1 35 86 48 e6 bb f6 75 5f 3a 0e 3e b3 b2
       1.2021849e-06 -0.0070276884 0.00085243525 -2.0866562e-08
0003d0 a6 f1 7d 33 39 cf 08 b3 d1 21 cd bc a3 ec 38 3c
       5.912593e-08 -3.1853435e-08 -0.025040539 0.011286887
0003e0 78 f7 c9 b5 a0 69 e6 b1 e5 15 3d 34 6e 38 21 2c
       -1.504769e-06 -6.705889e-09 1.7609962e-07 2.29108e-12
0003f0 77 c1 8e 3b 58 b3 50 31 d9 7e 82 3c 93 fa ad 3c
       0.004356559 3.0369929e-09 0.015929626 0.021237647

convs.0.bias f4 [64]
000000 78 a9 8b bb bc 1c 1f bc fd 5e 7a 3e e3 85 ec b7
       -0.0042621456 -0.009711441 0.24450298 -2.8195738e-05
000010 c2 ad 52 bd cd 99 11 bd a2 3f de bd 74 84 65 bc
       -0.05143524 -0.035547066 -0.10851981 -0.01400863
000020 dd ac b9 bb 8b ed ac bc c4 d6 5d b8 a1 9f 60 b8
       -0.005666359 -0.021109363 -5.2890522e-05 -5.3554428e-05
000030 bc 7f e1 b9 84 57 2d 3e a1 5a 2c 3e 98 d3 c6 3e
       -0.00043010514 0.16927916 0.16831447 0.38833308
000040 28 d8 b3 3e cd f6 95 3e 3f b6 ea bd 9a 67 ba bc
       0.35125852 0.29289857 -0.11460542 -0.02275448
000050 09 cf 9b 3e c6 e2 3a bc e0 60 8b 3e d8 bd e0 3d
       0.30431393 -0.011406606 0.27222347 0.1097371
000060 9b 3e 11 3e b4 92 47 3e 90 19 e2 ba 0c b6 bb bd
       0.14184038 0.19489557 -0.001725005 -0.09165582
000070 60 fa 8f 3d a5 7b fc 3e 18 e5 f8 bd 20 a6 95 ba
       0.07030177 0.49313083 -0.12153071 -0.0011417307
000080 d8 c2 3d bd b0 5c 88 bc f5 4d 85 3e ef f8 90 bd
       -0.046328396 -0.01664576 0.2603604 -0.0707873
000090 db 3d 0f bd f5 cf 34 bc 01 51 1d bd 1d e4 9f bc
       -0.0349711 -0.011035909 -0.03840733 -0.019517953
0000a0 14 74 c5 bc a9 6d 50 3e 13 b5 ac ba 3f dd 2a bc
       -0.024103202 0.20354332 -0.0013176523 -0.010428726
0000b0 91 cb 46 3e 73 7b 91 bb 30 38 63 3e 7f 4d a0 bd
       0.19413592 -0.004439765 0.22189403 -0.07827281
0000c0 72 fd 0c bd 80 67 c5 3d 25 82 72 3e 5b f4 4a bd
       -0.03442139 0.09638882 0.23682459 -0.04954944
0000d0 a3 9d d6 bc 57 94 7a bd 1f 7e 85 3e 53 08 a8 3e
       -0.026198214 -0.061176624 0.26072785 0.3281885
0000e0 57 88 33 b9 8a d9 2b b7 4e 55 cc bb f1 81 9c b7
       -0.00017121561 -1.0243044e-05 -0.006235755 -1.8657158e-05
0000f0 71 85 6a 3e aa a5 9f bc 8f b8 57 3e 92 35 90 3e
       0.22902466 -0.019488174 0.21066497 0.2816587

convs.1.weight f4 [64, 64]
000000 0e 7a 20 b8 56 66 85 33 1c ac b2 b8 62 b1 c4 38
       -3.8260645e-05 6.21191e-08 -8.519759e-05 9.3790484e-05
000010 09 8f 08 b4 1b 95 c2 39 01 11 2f 2c 33 bb e2 2b
       -1.2718023e-07 0.00037113656 2.4878435e-12 1.6110224e-12
000020 cc d3 b8 ba 80 0c b0 2f a6 ed 2b b9 c3 fa b1 2b
       -0.0014101206 3.2023095e-10 -0.00016396362 1.2646207e-12
000030 bb 23 09 b6 f6 b4 48 32 f8 88 ac 35 60 d3 22 bb
       -2.0435389e-06 1.1682678e-08 1.2854862e-06 -0.0024845228
000040 5e d6 cd 3b 06 1d a3 b7 82 de 24 ba 26 38 94 2f
       0.006281658 -1.944463e-05 -0.000628926 2.696094e-10
000050 4c 39 a3 b7 f7 87 86 ab 99 74 1a 33 8f 4c 4d af
       -1.9457795e-05 -9.55901e-13 3.5961964e-08 -1.867184e-10
000060 bd eb b6 39 b4 b1 24 37 e5 31 a2 ac 7f ad 65 b6
       0.00034889384 9.8165365e-06 -4.6098563e-12 -3.4224647e-06
000070 cf c2 88 ba 27 06 8d 3b 60 ae 0d bb e3 53 ab b7
       -0.0010434034 0.004303712 -0.0021618828 -2.0423851e-05
000080 49 27 40 b0 30 1b 62 3b e5 34 f0 b4 9f 10 97 34
       -6.990502e-10 0.0034501068 -4.474197e-07 2.8138035e-07
000090 d0 2b 96 30 3b 24 bf 3a e1 5c 4a b1 0b 6d e5 31
       1.0926389e-09 0.0014582941 -2.9447664e-09 6.677174e-09
0000a0 45 b8 97 b3 05 db f7 b3 17 a8 2d 3a 53 6e 54 32
       -7.065004e-08 -1.1541673e-07 0.00066244736 1.2365109e-08
0000b0 78 48 84 3b 0c d3 ba bb 49 ae 1a ba db ed 0a 3a
       0.0040369593 -0.0057014283 -0.00059006043 0.00052997255
0000c0 e0 aa 81 38 71 33 91 b7 03 37 88 b7 4c a1 d0 32
       6.183027e-05 -1.7309301e-05 -1.623808e-05 2.4287736e-08
0000d0 89 0d d0 30 83 33 94 b1 91 73 d4 33 d3 7e 61 bb
       1.5137839e-09 -4.313223e-09 9.893041e-08 -0.0034407869
0000e0 d3 db 38 b9 98 08 93 ab b4 b8 af ba 4a 96 67 bb
       -0.00017629498 -1.0447363e-12 -0.0013406486 -0.0035337382
0000f0 e6 ed f8 b8 e3 e6 f3 ba f4 a7 84 33 fb 04 3d b6
       -0.000118698736 -0.0018608238 6.1772795e-08 -2.8166094e-06
000100 ac 41 f8 b9 50 d4 81 32 62 4a f0 b9 c0 27 09 ba
       -0.00047351175 1.5114125e-08 -0.00045831787 -0.00052320585
000110 96 c0 8a 33 33 b8 24 38 43 1c 22 aa 31 73 6b 2c
       6.461157e-08 3.9272196e-05 -1.4398296e-13 3.3459453e-12
000120 b2 32 58 37 32 09 5c b0 35 1a 86 ba 63 c3 88 ab
       1.2886407e-05 -8.00486e-10 -0.0010231199 -9.717612e-13
000130 e4 73 5a 38 06 20 26 31 ff 44 3b b5 39 e2 40 bb
       5.208318e-05 2.4174382e-09 -6.976333e-07 -0.0029431714
000140 e2 d9 52 3b b1 5c 16 38 f7 96 31 ba 22 47 8e af
       0.0032173325 3.5849112e-05 -0.00067745097 -2.5880192e-10
000150 ac d5 0a b6 69 4d 7f ab 6e c4 51 34 c8 61 86 2f
       -2.0687976e-06 -9.0701627e-13 1.9536103e-07 2.4443936e-10
000160 50 30 86 3a d2 22 6f b8 a4 d8 ca ac 4e 39 f4 b5
       0.0010237787 -5.701447e-05 -5.7652372e-12 -1.8196095e-06
000170 58 e5 99 b9 14 61 58 3b 4f ab 52 bb dd 49 c4 b8
       -0.00029353308 0.0033016847 -0.0032145565 -9.3597664e-05
000180 25 3c 87 31 4e fe e4 3a 9e 64 73 36 33 a5 c9 35
       3.9358548e-09 0.0017470808 3.6268389e-06 1.5023746e-06
000190 d6 78 09 31 0a 60 2a 3b cc 4f 55 30 50 b3 bc b0
       2.0004811e-09 0.0025997185 7.7602347e-10 -1.3729764e-09
0001a0 d6 b8 10 b3 dd 70 54 34 0b 22 64 3b 04 db 14 31
       -3.369572e-08 1.9785098e-07 0.003481033 2.166133e-09
0001b0 53 20 1e 3b ed c9 0f bb d3 88 d7 b5 a9 87 1a 39
       0.0024128153 -0.0021940426 -1.6058569e-06 0.00014737122
0001c0 1e 33 8a b9 a1 23 cc b6 91 ac a2 38 99 b1 9e b2
       -0.00026359496 -6.0838215e-06 7.756905e-05 -1.8474383e-08
0001d0 d6 d3 9c b1 20 a6 a3 31 b9 83 03 34 24 9e 21 bc
       -4.5642805e-09 4.7628106e-09 1.2248246e-07 -0.009864364
0001e0 70 cd 4b bc 8e ea 04 2c 86 9c 44 bb 4e 3c 84 bb
       -0.012439117 1.8888532e-12 -0.0030000522 -0.004035509
0001f0 52 f8 48 ba 23 d0 14 3b 81 50 49 32 63 24 cb b6
       -0.0007666397 0.0022707067 1.1718044e-08 -6.0541074e-06
000200 64 fb dd bd f0 a8 ca bc 56 2e c1 bd 9d 33 18 bc
       -0.108389646 -0.024738759 -0.09432666 -0.009289649
000210 88 f9 b2 ba 83 b3 a3 bb bd 1b 59 bb 7f c3 21 2a
       -0.0013654688 -0.0049957647 -0.0033128106 1.4367499e-13
000220 44 72 c8 bd 39 65 b3 bb de 90 14 be d2 30 07 2c
       -0.097874194 -0.005474713 -0.14508387 1.9211755e-12
000230 02 a0 e6 38 69 9a 06 bb 33 2d 0c bb 8a 5c c0 bd
       0.000109970584 -0.0020538813 -0.0021389246 -0.093926504
000240 5b 0d 6c bd 1c a5 f9 bc df 12 4d bd bb cd bb 3a
       -0.057629924 -0.030474238 -0.050066825 0.001432828
000250 e9 64 f2 bc 49 a2 98 ac 4b 44 19 bd 74 d7 3a bb
       -0.029589133 -4.338117e-12 -0.037418645 -0.0028509768
000260 fe b8 1a be c1 66 6c bd c8 e5 bb 2f 63 a5 d0 bb
       -0.15109631 -0.05771518 3.417837e-10 -0.006367372
000270 fb ec a6 bd 1a da b1 bd e5 2a 02 be 6b b2 7a bc
       -0.08150669 -0.08684178 -0.12711675 -0.015301327
000280 bf 96 60 b6 b0 1c 9e bc e8 30 a4 bb 5b 26 ba b6
       -3.3466347e-06 -0.019300789 -0.005010713 -5.547697e-06
000290 38 45 8e bc 3d d5 8a bd cb fe 03 bb 9b 50 ec bc
       -0.01736699 -0.06778953 -0.0020140882 -0.02884703
0002a0 b2 85 e3 bb d0 f4 55 ba 42 96 ab bd d5 63 87 bb
       -0.006943428 -0.0008161785 -0.08378269 -0.004131774
0002b0 78 ab bb bd 30 0c 15 bc 07 1c 06 3b 64 d4 c0 bc
       -0.091635644 -0.009097144 0.0020463483 -0.023538776
0002c0 22 16 cb 3b b8 d2 46 bd 09 95 d4 bc 68 31 5c bb
       0.006197707 -0.0485408 -0.025949972 -0.0033598784
0002d0 72 ee ab b9 62 48 b6 ba 13 18 05 bc c7 c2 cd bc
       -0.00032793317 -0.001390707 -0.0081234155 -0.025117291
0002e0 e9 2d 37 be cf 4d 6e ac 5a cb 10 be 7e 19 ca bd
       -0.17888607 -3.3865027e-12 -0.14140072 -0.098681435
0002f0 d7 a3 0d bd f0 10 0e be cc 89 28 bc 3a e3 01 bc
       -0.034580078 -0.13873649 -0.01028676 -0.00792771
000300 ec 24 26 39 40 27 1c 33 6e f8 fe 38 29 66 d9 3a
       0.00015844748 3.6357278e-08 0.000121579375 0.0016586232
000310 a1 98 e4 2f a2 cb 19 b9 76 2c 2e 2c 25 43 62 2c
       4.1581408e-10 -0.00014667076 2.4751568e-12 3.2153804e-12
000320 6f a4 80 3a b3 a2 e3 af 09 25 cb ba 00 03 9a 2c
       0.000981463 -4.1406664e-10 -0.0015498708 4.3772763e-12
000330 c7 f2 d9 b9 8a 9e 2c b2 45 6b 12 b5 ae 75 67 bb
       -0.0004157035 -1.0047765e-08 -5.4545336e-07 -0.0035317945
000340 d4 2e 8f 3b b2 67 2d b3 f9 f4 12 ba 52 7b c8 2e
       0.004369596 -4.037401e-08 -0.0005605962 9.116853e-11
000350 9c d7 16 b0 88 54 13 ac 9a a9 4b 34 db 95 0c 31
       -5.487608e-10 -2.093688e-12 1.8967549e-07 2.0457864e-09
000360 2a fb b7 39 46 74 41 b7 8b 8a bc ac e2 f7 3a 36
       0.00035091612 -1.15307685e-05 -5.3586627e-12 2.7860447e-06
000370 d7 03 ae 37 1a 78 94 ba 81 2c 74 bb 31 c0 bd b9
       2.0744204e-05 -0.0011327297 -0.0037257972 -0.00036192083
000380 b2 9f 02 31 f8 ce 4e bb 1c 63 98 b6 a4 78 1d b5
       1.9008266e-09 -0.0031556468 -4.541491e-06 -5.8662613e-07
000390 4a 25 46 b0 27 a1 83 3a dc b3 26 b1 49 c3 93 b2
       -7.208497e-10 0.0010042534 -2.4258417e-09 -1.7201858e-08
0003a0 e1 71 97 33 e5 78 aa b3 e7 5e 5d ba 51 49 53 33
       7.0522e-08 -7.9382325e-08 -0.00084446225 4.9193947e-08
0003b0 58 b2 56 b9 a6 59 32 bb 92 9e 9d 36 18 39 5c 39
       -0.00020475069 -0.002721408 4.6974246e-06 0.00021002104
0003c0 54 bd 5c 38 91 6c c2 35 41 3b 83 37 51 d3 23 33
       5.2628413e-05 1.4485723e-06 1.564401e-05 3.8143586e-08
0003d0 f2 c1 9c b1 2f 65 10 32 4a e0 03 b3 ba ac a3 bb
       -4.5622466e-09 8.40491e-09 -3.0704804e-08 -0.004994956
0003e0 a8 ac 24 bb e5 3d be ac 5d 61 da 3a 55 5c d0 b9
       -0.0025127325 -5.4069965e-12 0.0016661097 -0.00039741644
0003f0 77 5b 76 39 c3 89 9c 3a 24 b5 34 32 88 9e be 35
       0.00023494461 0.0011942912 1.0518566e-08 1.4202242e-06

convs.1.bias f4 [64]
000000 42 1b 32 be 8b e2 bc bd ed ea 72 be ee 66 1b 3b
       -0.1739321 -0.09222897 -0.2372243 0.0023712474
000010 3c bb 3e be 87 30 57 be ee 1f cc bb 58 f7 84 bc
       -0.18626112 -0.21014605 -0.0062293923 -0.016231224
000020 57 13 f5 bd 4b 96 ba bd d2 33 3c be 68 4b 4e bc
       -0.119665794 -0.09110697 -0.18379143 -0.01259122
000030 9b 19 d6 bb 15 c4 18 be aa ae c2 bd c9 72 83 3e
       -0.006533814 -0.1491855 -0.09505971 0.25673512
000040 62 bc 9d 3a 44 f6 79 bd 9c 81 c7 bd 97 59 bc bc
       0.0012034292 -0.061025873 -0.09741518 -0.022991939
000050 cb 4c b5 bd 85 b7 75 bc cc 69 fd bb 75 10 ec bd
       -0.08852538 -0.014997368 -0.0077335592 -0.115265764
000060 e4 3b 66 3e bd 5c f7 3b 53 89 86 ba 5e f6 11 be
       0.22483784 0.007548897 -0.0010264314 -0.14254138
000070 e9 49 03 be b5 dd 97 3e 69 e2 68 3e e3 6c a4 bc
       -0.12821163 0.29661337 0.22742619 -0.020071452
000080 58 92 cb bc b0 78 6d bd 8d ab 28 be 11 ce f8 bc
       -0.024850056 -0.057976425 -0.16471691 -0.030371698
000090 cc 6f a1 bd 46 27 32 be fc 1c 1e bd 5d 26 3e be
       -0.07882652 -0.17397794 -0.03860186 -0.18569322
0000a0 2a ea 25 bd 6e 12 13 be b7 d0 67 3e 26 54 f7 bd
       -0.04050652 -0.14362499 0.22638212 -0.12076597
0000b0 7a c9 1d 3e 66 d4 c4 bd 89 01 07 be 44 11 94 bd
       0.15408888 -0.09610824 -0.1318418 -0.07229856
0000c0 e2 78 be bd 9a 33 76 be ea ff ea bd 23 ce 0b be
       -0.093004 -0.24043122 -0.11474593 -0.13652854
0000d0 5b 86 d2 bd 46 53 fd bd b7 0f 19 be 51 dd 0c 3e
       -0.102795325 -0.12369399 -0.14947401 0.137563
0000e0 6f 56 9d 3e fc 50 c7 bc d4 8e 3d be 4f 18 1e 3e
       0.30730006 -0.024330609 -0.18511516 0.1543896
0000f0 46 c1 0a be 82 19 38 be f2 6a 84 bd b7 76 25 be
       -0.1355029 -0.1797848 -0.06465711 -0.16158567

convs.2.weight f4 [64, 64]
000000 0b 84 a1 3d ce 57 4e bd 38 a9 80 3d 2e 54 f7 3d
       0.07886513 -0.050376706 0.06282276 0.12076603
000010 f5 50 00 be 71 82 71 be 05 e5 e1 3d 49 1a a9 be
       -0.12530883 -0.23584916 0.1103001 -0.33027866
000020 ab bc a4 bd 22 6f 97 3e 8f bf b3 3d 8d cf 18 be
       -0.08043798 0.29576975 0.08776771 -0.14922924
000030 92 98 07 bc b1 04 22 bd 19 83 50 3e 09 7a 2d 3d
       -0.008276122 -0.039555255 0.2036251 0.04235271
000040 57 d8 73 3d f3 03 a3 3c bf 2f 12 3d c1 cf 77 be
       0.05953249 0.019899344 0.035690065 -0.24200346
000050 ea 84 92 3d d2 8c 1b be af a7 ef bc 91 a1 50 3e
       0.071542576 -0.15190437 -0.029254762 0.20374133
000060 14 4d 80 3e 4b 52 5b be 99 f6 89 36 9d 35 c8 3d
       0.25058806 -0.21418111 4.111626e-06 0.09775851
000070 3f c0 2a be 3a 05 99 3d 62 aa ab 3d c9 95 39 3e
       -0.16674899 0.074717 0.08382107 0.18123545
000080 8b 89 4c bc 76 5d 7c be ab cb 94 3d 23 08 a5 bd
       -0.012483965 -0.24645028 0.07265409 -0.080581926
000090 aa a3 5c be 41 6e a5 3d ee ec 81 be c1 e5 89 3e
       -0.21546808 0.0807767 -0.25376076 0.269331
0000a0 88 a9 ce 3d 74 57 11 3e dc c6 1d be 84 7a 8e 3d
       0.10090929 0.14193517 -0.1540789 0.06956962
0000b0 26 31 96 bc 40 fd d6 bd 59 80 d7 bd 13 d3 d4 3d
       -0.018333983 -0.10497522 -0.10522527 0.10391822
0000c0 c5 8f 4f 3e 35 66 99 be 4a 63 83 3d 49 87 c7 bd
       0.20269687 -0.2996079 0.06415422 -0.097426005
0000d0 4a 00 82 bd 8e 9f ec bd da 4c ef bd 39 82 1f 3e
       -0.063477114 -0.1155387 -0.1168458 0.1557702
0000e0 4f 13 05 be 9b cb 2d bc d2 0d a3 3d 47 a7 df 3c
       -0.12995647 -0.010607625 0.079616204 0.027301444
0000f0 88 2a a3 bd 86 c4 ce 3d 8f 3d a3 3e 78 7a 36 3e
       -0.079670966 0.100960776 0.31882903 0.17820156
000100 8a 8a 75 be 5e 7b 94 bd 26 5e 83 be 2e b0 0b bd
       -0.2397863 -0.07250093 -0.25657767 -0.034103565
000110 f3 2e df 3d f6 03 54 3e 31 15 fb bd e9 57 42 be
       0.10897627 0.20704636 -0.12259901 -0.18978848
000120 0f 10 00 be b9 4b 4b bd 87 50 89 bd e6 bc fe 3b
       -0.12506126 -0.04963276 -0.067048125 0.0077739833
000130 e1 06 c0 bb 81 4f 0f be b5 95 1b be 12 6d b2 ba
       -0.005860195 -0.13995172 -0.15193827 -0.0013612828
000140 c5 67 64 be 1d 95 16 3d 15 d8 c8 3c 1c 5b 80 bd
       -0.2230521 0.0367633 0.024517098 -0.06267378
000150 d7 55 f9 bd 64 d0 35 3d ca 39 26 3d 8d b3 14 bd
       -0.12174576 0.04438819 0.040582456 -0.036304045
000160 82 5b 35 be 4c 17 6a bd b1 c3 a8 36 b1 a3 4c 3d
       -0.17710689 -0.057151124 5.0295716e-06 0.049960796
000170 10 b4 86 3c ca 36 05 3e de fb 67 bc 57 22 64 3e
       0.016443282 0.13009182 -0.014159171 0.22278725
000180 1a c6 c5 3c b1 32 10 bd 93 89 12 3e 04 e1 36 be
       0.024142314 -0.035204593 0.14310293 -0.17859274
000190 f3 6b f5 bd 0c 8a 4e bd af 9d df 3c 71 6e 99 bc
       -0.1198348 -0.05042462 0.02729687 -0.01872942
0001a0 fa 67 10 3e 66 62 70 be ed 73 6d 3e 15 92 99 bd
       0.14102164 -0.23475036 0.23188753 -0.07498566
0001b0 a7 b7 bd bd 5e 94 ca bd 73 61 d4 3d 34 cc 0d be
       -0.092635445 -0.0989158 0.103701495 -0.13847429
0001c0 c7 31 13 3e 22 e6 92 3d bf 9d f7 b7 01 55 a8 bd
       0.14374457 0.071728006 -2.951815e-05 -0.08219338
0001d0 6e 53 7f bd 3e 48 62 bd fd c9 a6 3c f1 37 a4 3e
       -0.062335424 -0.055244677 0.020359987 0.3207393
0001e0 f4 6b 48 be 13 d5 6f be e4 ee 21 bd 6e 17 c7 3e
       -0.19572431 -0.23421125 -0.039534464 0.38885063
0001f0 c1 fd 91 3d f2 db e4 be 56 e1 50 3d 6b fc 4f bc
       0.07128478 -0.44699055 0.050996147 -0.0126944585
000200 83 5e 9e 3d e2 97 c0 bc e5 96 89 bd 20 39 45 bd
       0.077328704 -0.023509923 -0.06718234 -0.04815018
000210 b4 f8 b1 be a0 ab 4d be a2 b6 a0 bd fe be 6d be
       -0.34760058 -0.20085001 -0.078473344 -0.23217389
000220 50 4a 54 be c7 51 2e be f0 51 5e 3e 44 38 9b bd
       -0.20731473 -0.17023383 0.21710944 -0.07579091
000230 4c ba a7 bd 0c 05 be bd 6b 67 34 be 1b 10 c9 3d
       -0.0818983 -0.09278306 -0.17617576 0.09817525
000240 0f a4 a6 bd ad dc 5f bc 79 53 c5 bb d6 1c d5 bd
       -0.081367604 -0.013663453 -0.0060219136 -0.10405891
000250 08 9f 8a 3d 2a c5 9b bd 3b d4 0d bc b9 6b 66 3e
       0.06768614 -0.076059654 -0.008656557 0.2250203
000260 8c 9e 6b 3e 04 cd 00 3e cd d4 d5 36 eb 29 25 3e
       0.230097 0.12578207 6.372668e-06 0.16129272
000270 0e da 9a bd 92 33 aa 3e 4d ff ef bd c5 31 2b be
       -0.07561122 0.3324247 -0.11718617 -0.16718204
000280 75 4d 19 3d ad 14 f3 bb ee ce 1d 3c 3c f7 a4 bc
       0.037427384 -0.007418236 0.009631855 -0.020137422
000290 80 1e 81 be 70 ac 4f bc 59 6a 4f be 6e da 51 3e
       -0.25218582 -0.01267539 -0.20255412 0.2049348
0002a0 67 28 aa bd 30 68 e6 3d 08 a0 86 be ae a1 bb 3d
       -0.083084874 0.11250341 -0.2629397 0.09161697
0002b0 cf 43 1b 3d f3 dd 7f bd 33 97 45 bd 9d 3c ce 3d
       0.037906464 -0.062467527 -0.048239898 0.10070155
0002c0 79 6e da bd 78 ff 0f be ea 64 27 3e 13 8e 26 bd
       -0.10665602 -0.14062297 0.1634709 -0.040662836
0002d0 f1 d7 db be 64 40 f4 3c fc 04 2e be 54 d1 87 be
       -0.42938188 0.02981586 -0.16994089 -0.26526892
0002e0 a8 32 27 3e 2e 0e 0a be 56 df ae 3c 18 7b 13 be
       0.16327918 -0.13481972 0.02134673 -0.14402425
0002f0 1b 0b d9 bb 0e e4 f4 3b 6a d1 cb bd fe 32 b1 bd
       -0.0066236383 0.0074734753 -0.09952052 -0.08652304
000300 b1 18 d0 bd 0f 79 f5 bc d5 44 4f be 40 b4 44 be
       -0.101609595 -0.029964952 -0.20241101 -0.19209385
000310 ab f0 7b bb 8c ce f1 bd 4d 96 a8 be 5f 7b 55 be
       -0.003844301 -0.11806974 -0.3292717 -0.20847844
000320 ec 43 20 be c7 15 35 3c 20 4d d5 3d d2 cb 2d be
       -0.1565091 0.011052555 0.10415101 -0.16972283
000330 f5 b9 ca bc fb 00 1a bd 4a 3b 74 bc ff 09 ad bc
       -0.024746874 -0.03759859 -0.014906714 -0.02112293
000340 df 11 02 3d bf 81 a6 3d 16 9f 9c bd 6c b6 df bd
       0.031755324 0.08130216 -0.07647531 -0.10923466
000350 b8 8a 61 3d 32 44 f2 bc 4b 6e 34 bd 32 77 41 be
       0.055063933 -0.029573534 -0.044050496 -0.18893126
000360 c4 0e b0 3b 3e 5c 63 3d 93 78 11 35 17 34 cd 3d
       0.005372854 0.05550789 5.419217e-07 0.10019701
000370 cf 7c 39 be a4 73 a5 3c 02 73 ab 3d 40 90 09 3e
       -0.18114017 0.020196743 0.083715454 0.13433933
000380 21 9a 1c 3e 7b ec e5 bd 01 e0 0c 3e a9 c8 0b be
       0.1529317 -0.11226746 0.13757326 -0.13650765
000390 fc 73 4e be 78 9e 96 bd 43 e3 8c bd 20 be 9d bb
       -0.20161432 -0.07354444 -0.06879284 -0.0048139244
0003a0 f1 b3 c7 3d 39 37 60 bc 2b ae dc 3d cb 21 37 3d
       0.09751118 -0.013685041 0.107754074 0.04470996
0003b0 87 f8 c9 3c 8e 03 00 be 39 8e 51 3b d9 f9 a2 3d
       0.02465464 -0.12501356 0.003197564 0.07957811
0003c0 2a 10 aa bd 70 72 5c be 8d 1f fb bc 8a 19 16 3e
       -0.08303864 -0.2152803 -0.030654693 0.1465818
0003d0 39 c8 97 bd c2 60 75 be c5 eb a9 bc f2 be b3 3e
       -0.07411236 -0.23962691 -0.020742306 0.35106617
0003e0 e0 d3 1d be 0e d6 54 bd d5 84 f5 3d 3a 33 91 3e
       -0.15412855 -0.05196195 0.11988226 0.28359395
0003f0 38 9b 47 bd 0b 97 9f be 2a 5e 12 3d a3 06 08 bd
       -0.048732013 -0.31169924 0.035734333 -0.033209454

convs.2.bias f4 [64]
000000 fd 08 50 3e 5e fe 76 bd f1 0a 4d 3e a6 45 29 be
       0.20315929 -0.060301177 0.20023705 -0.16530475
000010 76 15 ce 3e 85 0f b6 3e 26 69 ba 3e c8 db d1 3e
       0.40250748 0.35558715 0.36408347 0.40987992
000020 84 21 68 be 45 f3 a4 3d 36 dc 7c be db 88 8a 3d
       -0.22669035 0.080542125 -0.24693379 0.06764384
000030 83 5e 50 be 6a 26 8e 3d 68 c4 1c 3e fe 07 56 be
       -0.20348553 0.06940921 0.15309298 -0.20901486
000040 b4 07 64 be 7f 3a 4a be b1 7c dd bd 11 db cb 3d
       -0.22268564 -0.19748877 -0.108147986 0.09953893
000050 66 32 b2 bd e9 f8 74 be e9 65 f3 bd 99 a4 11 be
       -0.08701019 -0.23923077 -0.11884672 -0.14222945
000060 11 07 20 3d 2f ab 80 bd 56 98 0a bd 0b d2 39 be
       0.03906924 -0.06282651 -0.033836685 -0.18146531
000070 7d 70 5b be f8 5d 6c be 5b de cb 3d 4b 6b 80 bd
       -0.2142963 -0.23082721 0.0995452 -0.062704645
000080 90 12 b2 be c6 1c 20 3d e1 83 7f be a3 af 93 3e
       -0.34779787 0.03908994 -0.24952652 0.28844938
000090 b2 4d c6 3e e5 bb a1 3b 39 ff ac 3d ce d5 5c be
       0.38731152 0.004935729 0.08447117 -0.21565935
0000a0 a1 58 98 3b 82 c4 44 3e 87 a3 c9 3a a4 99 07 bd
       0.0046492373 0.19215587 0.0015383818 -0.033105507
0000b0 78 3e f7 3a c2 29 d1 3e 3b c2 f7 bc b1 26 96 3e
       0.0018863222 0.4085217 -0.030243983 0.29326394
0000c0 7e d8 80 bd 60 7f 7c 3e dc 7e f1 bd 7b 96 0a bb
       -0.062912926 0.24657965 -0.11791775 -0.0021146822
0000d0 81 38 99 3e 43 56 e6 3e 23 11 8b 3c c0 04 73 bc
       0.29925922 0.44987687 0.016975945 -0.014832675
0000e0 93 0c 6c 3e 80 57 ac be e6 99 76 3e bf c5 18 bd
       0.23051672 -0.33660507 0.24082145 -0.03729796
0000f0 f0 f3 01 3d a6 91 af bd f3 f8 9c bd 6c dd 13 be
       0.031726778 -0.08572702 -0.07664671 -0.14439934

convs.3.weight f4 [64, 64]
000000 c6 e7 59 3e f8 77 02 bf 67 2a c2 3e 41 95 f6 3d
       0.21279821 -0.5096431 0.37922975 0.12040187
000010 5a 0c 85 be bb 49 52 be 2c 59 63 3e a8 18 26 3e
       -0.25985986 -0.20535938 0.22201985 0.16220343
000020 3d 62 44 3c 40 0d e4 3e 20 eb 2b 3e de c3 92 3e
       0.011986312 0.4454136 0.16788912 0.2866506
000030 e2 69 4e 3d 85 2e 93 bd e0 54 60 be 17 a5 54 be
       0.050393946 -0.07186607 -0.21907377 -0.20766102
000040 5c 7a 0e 3c d1 95 1b be 10 f5 a6 3e df eb 71 3e
       0.008696165 -0.15193869 0.32608843 0.23625134
000050 73 b0 0e 3c 3b 00 30 3e 66 eb 6b 3d 26 cc d6 bd
       0.008709061 0.17187588 0.05759754 -0.10488157
000060 ec 1d bb 3e bd 2d 02 3d 20 8b 8a 3e 94 35 6e 3e
       0.36546266 0.0317819 0.2705927 0.23262626
000070 93 70 0b be e6 76 af 3e 27 d1 b9 3e 45 09 84 be
       -0.13617162 0.342704 0.36292383 -0.25788322
000080 16 6f 95 be 0f c5 08 3e db d0 df 3c af ac 07 3f
       -0.29186314 0.13356422 0.02732127 0.5299787
000090 dd 04 59 3e 33 d3 20 3d 2c e2 1e bf f9 10 ac bd
       0.21193261 0.039263915 -0.6206386 -0.08401675
0000a0 36 c9 fa be 37 fe 10 be c0 1b 0b be ea 82 89 be
       -0.48981637 -0.14159475 -0.13584805 -0.26857692
0000b0 2f 40 82 bd e4 20 c0 3d 3e 68 28 be aa c1 2c bc
       -0.06359898 0.093812734 -0.16446015 -0.01054422
0000c0 aa ac 3d 3d 50 88 4a be 6b 31 3c be 9d 91 37 3e
       0.046307243 -0.19778562 -0.18378226 0.17926641
0000d0 e5 31 da bc e4 e1 a5 3d 72 59 3c be e7 f0 18 be
       -0.02663512 0.08099726 -0.18393496 -0.14935647
0000e0 86 99 d3 3e d1 56 d4 bd 9d 92 58 3d c7 80 b0 be
       0.41328067 -0.103681214 0.052874196 -0.3447325
0000f0 0e 12 6e be 0b 80 ba 3e 15 e9 80 3e e3 c1 eb bd
       -0.23249075 0.36425814 0.25177827 -0.1151159
000100 97 d4 46 be 43 ca 8f bd e0 3c 76 3e d3 1e f2 3d
       -0.19417034 -0.07021 0.2404666 0.118222855
000110 d5 ce 50 3e 1d 74 03 3e b5 03 c8 bd a6 88 8c 3d
       0.203914 0.12837262 -0.09766332 0.06862001
000120 db 47 14 3d 17 c8 b1 be 26 86 e2 bc 19 64 30 3e
       0.03620134 -0.3472297 -0.027651858 0.17225684
000130 c0 93 6b 3a bd 6f 62 bd 7d 81 25 bf d4 2b 47 3e
       0.0008986555 -0.055282343 -0.6465071 0.19450313
000140 6f d8 46 be 27 fe e3 3d bf e1 e5 bc d4 0a d4 3e
       -0.194185 0.1113246 -0.028061746 0.4141451
000150 9f 6e a0 3d d0 8e 8b 3e 1d af 9f 3d 31 26 f4 bc
       0.07833599 0.27257395 0.07797072 -0.029803367
000160 a6 a8 16 3e c7 ce fb 3d b3 ac 44 3e 76 b2 6f 3e
       0.14712772 0.12295299 0.19206505 0.23407921
000170 d3 75 2a 3e 17 ad 57 3e 54 87 6e 3e 2a 2d ec bd
       0.16646509 0.21062122 0.23293811 -0.11532052
000180 f9 8f ca be 12 af 8a 3d 2c 6e 53 be e7 29 91 be
       -0.39562967 0.06771673 -0.20647496 -0.2835228
000190 92 29 7d 3e d4 01 17 be a4 c0 d7 bc 72 fb 13 3e
       0.24722889 -0.14746791 -0.026336975 0.14451388
0001a0 0a 85 64 be 3b 07 d8 3e 46 53 69 3c 44 42 70 be
       -0.22316375 0.42193016 0.014241045 -0.23462778
0001b0 31 d9 35 bb 6c d1 8e bd 2d 23 a0 3c 67 38 53 be
       -0.0027747864 -0.06973538 0.019548023 -0.20626985
0001c0 ce fb 78 bd d5 86 02 3f 3d 1b fc bd 6f 47 3c 3d
       -0.060787015 0.5098699 -0.12309883 0.045966562
0001d0 df 67 80 3b b5 95 7e 3e 2e f7 5b 3e 02 c0 07 be
       0.0039186324 0.24861796 0.2148101 -0.13256839
0001e0 6c d5 81 3e 22 7d de ba 26 4c ad be 3b c4 04 be
       0.2535814 -0.0016974548 -0.3384716 -0.12965481
0001f0 d0 68 3f 3d 6f 3b 11 3d 00 ee f7 bd 9e 49 e7 be
       0.046730816 0.03545707 -0.12105942 -0.45173353
000200 91 8c 0a 3e f3 e9 16 be f6 61 9a bd 9c a0 76 3e
       0.13530184 -0.14737682 -0.07538216 0.24084705
000210 fd e5 98 be 31 b1 44 bd 42 8a 39 3e 00 f6 47 bd
       -0.29862967 -0.048020545 0.18119147 -0.04881859
000220 ea ad a6 bd be 0b 3b bd 6e b5 03 3d 30 30 08 b8
       -0.0813864 -0.045665495 0.032155447 -3.2469805e-05
000230 22 f0 17 3e e4 57 bc bd 70 94 bf bd cc 3c e5 3d
       0.14837697 -0.09196451 -0.09354484 0.11193237
000240 35 c9 00 be 0a 15 e1 bc d4 0e 43 bd 71 73 e0 3c
       -0.12576754 -0.027475853 -0.047621563 0.027398797
000250 a6 4c 5b 3e 1d b8 26 be dd 08 9c 3d 39 6a 6d bd
       0.21415958 -0.16281171 0.07618878 -0.05796263
000260 a0 68 11 be b3 10 64 be 32 c4 13 bb 4d ca be 3d
       -0.14200068 -0.22271995 -0.0022547361 0.093159296
000270 f3 e3 38 be 4f 0d 0a 3d 65 85 08 3e 71 74 0d be
       -0.18055706 0.0337041 0.13332136 -0.1381395
000280 e2 6d 39 be 6b 17 4a be 8b f5 bd 3c b7 f2 aa 3e
       -0.18108323 -0.19735496 0.023188373 0.33388302
000290 59 9e 08 bd 51 82 11 be 61 5b ee be 35 18 46 3d
       -0.033354137 -0.14209868 -0.46554092 0.04836293
0002a0 be 8a d0 be eb 34 fb 3d bb 3b 7c bd 61 a3 c9 3c
       -0.40730852 0.12265953 -0.0615804 0.024614038
0002b0 cf bf 6c be cf c9 1c be 93 f4 7e 3d 19 41 d6 be
       -0.23120044 -0.15311359 0.062244963 -0.4184654
0002c0 82 2b 5e 3d ea 69 7f 3d 75 d7 9d bd 07 6f 9a bc
       0.05424071 0.062356867 -0.07707111 -0.01885177
0002d0 b7 40 86 3d 41 38 87 bd 06 25 d5 3c 2f 12 87 bb
       0.06555312 -0.066025265 0.02601863 -0.0041220407
0002e0 6d 7d 66 3e f3 d6 4c 3e f5 6f 76 be 60 0b dc be
       0.22508784 0.20003872 -0.24066146 -0.42977428
0002f0 c5 74 99 3e e5 91 6b bd a4 ee 0b be 8a 06 1c 3d
       0.299719 -0.057512183 -0.13665253 0.038092174
000300 34 fa 9e 3e 69 b0 2d be 53 b2 a2 3e 81 1d c4 bd
       0.31050265 -0.16961826 0.31776676 -0.0957594
000310 f4 02 9e bd 7a d7 95 bd 6c 8b 7a bd d6 e4 79 bc
       -0.07715407 -0.073164895 -0.06116812 -0.015252313
000320 2e f6 04 3e 73 bc 53 3e 92 45 be bc 15 ce 7b be
       0.12984535 0.20677356 -0.023226533 -0.24590333
000330 3b 70 c7 3c fa 71 7b bd 9d 7b 8b 3d 13 f3 4d be
       0.024345508 -0.061387993 0.06810687 -0.20112257
000340 9a 16 8b 3d 6b 2f 40 be 0e 76 09 bf 25 7f 53 3c
       0.0679142 -0.18768089 -0.5369576 0.012908732
000350 9e 34 6f be 50 80 9e be 8e a1 0e 3e 39 7a 38 3d
       -0.23359916 -0.3095727 0.13928816 0.045038436
000360 ba 31 14 3b b7 12 56 bd 2b bf cb bd 52 8e e3 bd
       0.0022612647 -0.05226394 -0.09948572 -0.1111113
000370 b7 0c 57 3e c0 11 0f 3e 9d b0 c4 3e b7 9c 15 be
       0.21000944 0.13971615 0.38415995 -0.14610563
000380 c0 ed 68 3e 7d 5c b6 be dc 6a c9 3e e0 28 cb 3e
       0.22746944 -0.35617438 0.3933934 0.39679623
000390 aa 4d 34 bd ed b2 b4 3d b6 9f d6 be 22 2c 07 3e
       -0.04401938 0.0882319 -0.41918725 0.13200429
0003a0 8d ea 06 bf 04 d1 23 3e a1 2b 58 bd da 5c aa bd
       -0.52701646 0.15997702 -0.052775983 -0.08318491
0003b0 1e 09 bd bd 1c f5 7c be 22 77 ab bd b5 26 d4 bd
       -0.092302546 -0.24702877 -0.08372332 -0.10358945
0003c0 9b 72 f8 bd 2b 23 e6 bd 4d c7 e3 bd dd 8d 62 be
       -0.12131234 -0.112371765 -0.11121998 -0.22124429
0003d0 96 64 d9 be 03 36 79 bc db fd a6 bc 02 3f 4e be
       -0.42459553 -0.015210631 -0.02038472 -0.20141223
0003e0 f2 24 d3 3e 06 0b f3 3d 71 e4 2c be 48 90 02 3e
       0.41239125 0.11867337 -0.16884018 0.12750351
0003f0 54 e4 cc be af 79 1d 3e 1f 30 5f 3e 58 d3 7e bd
       -0.4001795 0.1537845 0.217957 -0.06221327

convs.3.bias f4 [64]
000000 72 b9 e5 3c 99 8f 7f bd fa 37 d2 3d fc b2 7d be
       0.028042529 -0.062392805 0.10264583 -0.24775308
000010 f8 cd 58 3d 0d 62 4a 3d 0f 55 33 3d c4 e6 e2 3d
       0.052930802 0.049409915 0.04378229 0.11079171
000020 71 59 54 bd 21 95 5a bd 3c b8 3e be 45 24 1e 3e
       -0.05184311 -0.053364877 -0.18624967 0.15443523
000030 7c 9f 8c be 32 35 52 3e 63 19 0d 3d 95 74 29 be
       -0.27465427 0.20528105 0.03444804 -0.16548379
000040 f5 ab d3 3d 82 25 1b 3e 13 8c 3e 3e 2b c7 0d 3e
       0.103355326 0.15151027 0.18608122 0.13845508
000050 ea 0b 43 be 4c 42 e2 3d c5 b9 96 be 44 20 72 bd
       -0.19047514 0.110478014 -0.29438606 -0.059112802
000060 2c 95 64 be 3d d0 89 be 01 ac 13 be cc c6 f2 3d
       -0.2232253 -0.26916686 -0.14421083 0.11854324
000070 6a b9 12 be 3e 44 5e be fc a4 59 be 58 2b f3 bd
       -0.14328542 -0.2170572 -0.21254343 -0.118735015
000080 fb 83 f6 bc 0a 5c 00 be 80 5a 9a bc f6 78 a2 3d
       -0.03009223 -0.1253511 -0.018841982 0.07933228
000090 71 cb 60 3d 67 8c 06 bc df d0 13 3d 58 21 c1 3d
       0.054881517 -0.008212185 0.036087867 0.09430188
0000a0 5a a2 8d 3b e1 f0 23 bd 7e 2a 95 be 86 eb a8 bc
       0.0043223323 -0.040024642 -0.2913398 -0.020620119
0000b0 06 59 45 be a6 b3 9f 3d 4b f8 60 be 6e bb 8e 3d
       -0.19272241 0.07797937 -0.21969716 0.06969343
0000c0 df b4 1b 3e 2d 5d 69 3e 47 51 a6 3e 0d 95 4b be
       0.15205716 0.2278945 0.32483885 -0.19881077
0000d0 3b 62 7a 3d 13 b2 8b 3d 49 06 ad bd 7e 8a 66 be
       0.061128836 0.06821074 -0.084484644 -0.22513768
0000e0 d8 b0 af be db e3 9b 3e 0f 0b 1a 3e 37 57 62 be
       -0.3431461 0.30447277 0.15043281 -0.22103582
0000f0 32 ef 4f be 0f 7b e9 bc b7 3d 4a bd dd cb c6 bd
       -0.2030609 -0.028501062 -0.049375262 -0.097068526

convs.4.weight f4 [64, 64]
000000 bd d0 a2 3d 01 45 67 3d e6 f5 02 bd 11 72 2e bd
       0.0794997 0.05646229 -0.03197279 -0.04258925
000010 fa 7b 91 3e 16 66 3d 3e ca 65 a6 bd 42 a1 24 be
       0.284149 0.18495974 -0.081248835 -0.1607714
000020 67 c2 70 be 4e fc 1d 3d ae 98 85 bd 24 80 fc bd
       -0.23511659 0.038570695 -0.06523262 -0.123291284
000030 be 24 d4 3c 01 53 12 3e bd 9b f2 ba 17 23 16 be
       0.025896426 0.14289476 -0.0018509548 -0.14661823
000040 2c 94 f8 bd 63 45 dd bd 42 25 48 bd b2 57 23 be
       -0.121376365 -0.1080425 -0.048863657 -0.15951422
000050 21 51 a1 bc 9a 1c 0c bd 2c 83 d6 bd f0 58 2c bd
       -0.019692006 -0.034206964 -0.10474238 -0.042077005
000060 69 17 de 3d 54 0e 09 3c dd 56 7b bd d4 81 a2 be
       0.10844309 0.0083652325 -0.061362136 -0.31739676
000070 fd b0 10 3e 4c 04 84 3e 25 8c 0b 3e 93 ed 16 be
       0.14130016 0.25784528 0.1362768 -0.14739065
000080 26 72 8c bd 0f 06 04 be f9 20 3b 3d 5a 57 12 bd
       -0.068577096 -0.12892936 0.045685742 -0.035727836
000090 89 cd 81 be ad af f1 3b 2e b1 e3 bd aa 52 b7 bd
       -0.25352123 0.0073756785 -0.11117779 -0.08951314
0000a0 b3 ee dd bd 9f 63 1a 3d ed e9 ab bd 16 5a 1d 3e
       -0.10836544 0.037692662 -0.08394227 0.15366396
0000b0 65 1b 1f 3e 54 6e f1 bd aa 55 8e bd 9a 12 03 be
       0.15537794 -0.117886215 -0.06949933 -0.12800065
0000c0 29 d9 2a 3e 7a 10 53 3e d6 15 58 be dc ca a0 bd
       0.16684403 0.20611754 -0.2110208 -0.07851192
0000d0 06 71 c5 3d a8 17 21 be 97 60 bb bd a3 b8 08 be
       0.09640698 -0.1573168 -0.091492824 -0.13351683
0000e0 c5 c2 03 be 28 4f 19 be 07 ad 68 bd ea 4b 55 be
       -0.12867267 -0.14971602 -0.056805637 -0.2082974
0000f0 f3 38 08 3d 69 fd ac 3b c3 21 1a 3d 7f 39 c4 bd
       0.033257436 0.0052792323 0.037629854 -0.09581279
000100 0b 22 cc 3e c8 3f 8b be 22 14 7d 3d 40 86 06 3d
       0.39869723 -0.271971 0.06178678 0.032842875
000110 6d 13 8f bd be 38 85 3c ac 3e 58 3d 5a 5f fe bd
       -0.06986127 0.016262408 0.052794144 -0.124205306
000120 a1 ae 46 3e 56 8d 5d 3e 4b ae 13 bd 9e a4 2c be
       0.19402553 0.21635947 -0.03605489 -0.16859671
000130 85 99 18 bd 7d dd a3 3e 36 66 df 3d d3 4e 1b be
       -0.037255783 0.3200492 0.10908167 -0.15166788
000140 f3 9a 8d bd de ec c6 3d 77 9a b8 bd 65 ae f5 3d
       -0.0691432 0.097131476 -0.09013837 0.11996154
000150 e5 03 72 be c5 01 c5 bd 59 ab 2b 3d 25 ed 74 3d
       -0.23634298 -0.09619478 0.041911457 0.05979647
000160 a6 ca 16 3e ad b1 91 3a 7e d2 63 3e 18 91 11 3e
       0.14725742 0.0011115574 0.22248265 0.14215505
000170 21 25 c2 3d 72 e8 52 3e 75 d8 68 3e 6d 0f cd 3b
       0.09479738 0.20596483 0.22738822 0.0062579424
000180 a2 d1 24 be 73 51 92 bd b3 82 76 3e d6 73 01 bc
       -0.16095594 -0.071444415 0.24073295 -0.007901153
000190 28 96 0b 3c 0e d4 12 3e 1b 84 be 3d 7b 9a ed bc
       0.008519687 0.14338705 0.09302541 -0.029004326
0001a0 7c 9d 4f bb 97 46 49 3c f1 36 3c 3e be 6a b8 3d
       -0.0031679561 0.012284896 0.18380333 0.090047345
0001b0 23 cf 63 3e a7 1b 17 be 75 8d ad bd e0 c3 9d bd
       0.22246985 -0.14756642 -0.084742464 -0.07703376
0001c0 73 82 8b 3e 96 82 00 be e6 04 02 3e dc 2e 3a 3e
       0.27247962 -0.12549815 0.12697181 0.18181938
0001d0 ee be a5 bd 1a 9c 14 be 6d d7 04 be a4 2b 28 3d
       -0.080930576 -0.14512673 -0.12972803 0.041057244
0001e0 c5 21 03 3d 2a ce ff 3d 02 26 e5 3c 9e c1 a7 3d
       0.032014627 0.124904945 0.027972225 0.081912264
0001f0 ad d3 8c 3d 46 a1 6d bd 8b 63 d6 3d 7b 11 6c 3e
       0.068763115 -0.05801513 0.10468205 0.23053543
000200 cf a5 d1 bd 13 4e 6c 3d dc e5 46 be 4f ee 88 3d
       -0.102367036 0.057691645 -0.19423622 0.06686079
000210 d0 fa 2d be 95 53 77 bd f7 83 01 be aa 3a 3e 3d
       -0.16990209 -0.060382444 -0.12647997 0.046442665
000220 5f ac a2 be 02 5b ea 3d 6c 53 46 3e b6 1b ae 3d
       -0.31772134 0.114431396 0.1936776 0.08501379
000230 bf 41 b7 bd 8e d9 d7 bc f5 93 89 3d 5d 22 94 3c
       -0.08948087 -0.026348855 0.06717674 0.018082792
000240 60 8c 48 3d c3 92 b7 3c 19 63 bf bd 80 82 97 be
       0.048961997 0.022408849 -0.09345073 -0.2959175
000250 0f dc af be cb 44 83 bd 07 87 51 bd fb 6d 54 be
       -0.3434758 -0.064096056 -0.051154163 -0.20745079
000260 c7 25 5b 3e 8c fb 7b bd b7 03 2d 3d fe e4 e1 bd
       0.2140113 -0.06151919 0.04223987 -0.11030005
000270 b6 73 2e bd 57 2b 23 3e 25 e6 86 bd cb 9b 13 3c
       -0.04259082 0.15934502 -0.06586865 0.009009312
000280 c2 e8 6d bd 96 8e 47 3d 0a 67 51 bd e1 bc 3d be
       -0.058083303 0.048719965 -0.051123656 -0.18529083
000290 eb 03 a6 bd 96 66 04 3e 25 38 7a be 9c 98 5c be
       -0.08106216 0.12929758 -0.2443548 -0.21542591
0002a0 cb fa 2b bd 17 0a 11 3d 22 b2 d2 be 67 05 8c bd
       -0.04198722 0.035410013 -0.4115153 -0.06836968
0002b0 74 ec c4 bd f0 dd 74 3d fd d3 51 be 6a 30 f3 bc
       -0.09615412 0.05978197 -0.20491023 -0.029686172
0002c0 7e f4 a1 be 75 49 29 be 0c 14 65 be c2 5a 1f 3d
       -0.31631845 -0.16531928 -0.22370929 0.038904913
0002d0 e9 db 2f 3d 46 57 ff bd f6 d4 5e be e5 0a 1b be
       0.042934332 -0.12467818 -0.21760926 -0.15140875
0002e0 c8 d8 ff bd 88 00 5b 3e 58 23 10 be d5 3e dc be
       -0.124925196 0.21386921 -0.14075983 -0.43016687
0002f0 05 35 62 bd 98 1c 73 3c d9 8f 4a 3e d9 9d 3b 3d
       -0.055226345 0.01483836 0.19781436 0.045804832
000300 c9 7f 18 3d b3 f7 24 be 8f 56 8b bc 89 b7 cf bd
       0.03723124 -0.16110115 -0.017009048 -0.101424284
000310 c3 fa 6a 3e 84 41 2f 3e 72 37 17 bc 79 a5 8f bd
       0.2294722 0.17114836 -0.009229528 -0.07013983
000320 1c 2e 72 3e 25 bd 14 3e bf 2e 8f be 46 45 31 bd
       0.23650402 0.14525278 -0.27965352 -0.043278955
000330 93 ed 37 3e e4 f0 9f 3d 7d 6f 38 be ca ed d7 3c
       0.17961721 0.07809618 -0.1801128 0.026358504
000340 0b b5 63 3c ab 77 ed 3e 03 ca b8 3c 05 45 20 3e
       0.0138981445 0.46380362 0.022557264 0.15651329
000350 36 e8 6e 3c ca 5f 0e 3e 97 6a 7d be 32 d7 82 3e
       0.014581731 0.13903728 -0.24747692 0.25554806
000360 eb 73 f0 3d 14 3a 8f 3d ea 13 5a 3e 1e d2 bf 3d
       0.117408596 0.069934994 0.21296659 0.093662485
000370 1a c6 4d 3d b9 a4 10 3d 0d 07 83 3e ad ed 46 3e
       0.050237752 0.03531334 0.25591317 0.19426604
000380 9f 15 98 be 93 90 82 3d 42 56 46 be 07 c1 87 3d
       -0.29703996 0.063752316 -0.19368842 0.06628614
000390 cb 34 5c bd 22 81 ad 3d d6 7c 36 3e e8 d6 c7 3c
       -0.053761285 0.08471896 0.17821059 0.024394467
0003a0 8b 84 df 3c 69 fc 72 3c 23 fe 91 3e eb 59 a2 ba
       0.027284881 0.014830687 0.28514203 -0.0012386417
0003b0 8c 26 bd 3d 8a 68 3f bd ac 83 91 be b2 b1 29 bd
       0.09235868 -0.046730556 -0.2842077 -0.04142923
0003c0 7e 4d 10 3e a0 26 0f 3e dd 05 e8 3e 64 aa 5e 3e
       0.14092061 0.13979578 0.45316973 0.21744686
0003d0 0d 09 65 3e 4b a6 3d 3d 29 7e 8e 3d 25 86 78 3e
       0.22366734 0.046301167 0.06957657 0.24269922
0003e0 d1 e2 f3 bc 8b 6b c2 3e a3 ce 5d 3c c8 d3 ab 3e
       -0.02977124 0.37972674 0.013538036 0.33560014
0003f0 1e 22 a6 3d 69 7c 61 be 42 30 73 3e 3f 76 8a 3e
       0.08111976 -0.22020115 0.23748878 0.2704334

convs.4.bias f4 [64]
000000 9b 11 84 3c 06 ae 2e 3e 34 99 74 bc 77 72 9e 3e
       0.016121676 0.17058572 -0.014929105 0.30946705
000010 33 5f 4e be de d3 5a bd 06 18 55 be da 84 4b be
       -0.20153503 -0.05342471 -0.20809945 -0.19874898
000020 95 08 d6 bd bc e0 1a be 51 c8 c0 3d c9 e8 4d be
       -0.10450856 -0.15124792 0.09413207 -0.20108332
000030 bb ba 67 3e ac 9d 92 bd 2e d2 74 be 33 35 49 3e
       0.22629826 -0.0715898 -0.23908302 0.196492
000040 14 d2 3c 3e 44 f2 5f 3e 35 64 a5 be 37 2a 45 be
       0.18439513 0.21869761 -0.32303014 -0.19254385
000050 b1 e3 06 3e eb 38 85 be c6 e8 6f be 06 4b ab 3e
       0.13172795 -0.26019987 -0.2342864 0.33455676
000060 6d 80 b5 3d 0a 2d 3c be 98 ad 6d be 9f ff 99 be
       0.08862386 -0.18376556 -0.23210752 -0.30077836
000070 f5 72 f1 bc 12 24 d3 3d 64 9b 0b bd 3d 0f 23 bb
       -0.029473761 0.10309614 -0.03408374 -0.002488091
000080 36 8a 48 3e e8 5d 0d be ed 13 6f 3e 27 89 8a bd
       0.19583973 -0.13805354 0.23347445 -0.06764441
000090 2e 35 4a be 6a 71 3c 3e 39 2f cf 3d bf 49 8e 3e
       -0.19746849 0.18402639 0.10116429 0.2779064
0000a0 47 a4 83 3d 6b fd 8d bd 2d e3 18 3e f0 4c e4 3d
       0.06427818 -0.06933101 0.1493041 0.11147487
0000b0 08 66 7b 3d 10 b3 29 be 28 b5 c8 bd 7e f9 34 be
       0.0613766 -0.16572213 -0.09800178 -0.17673299
0000c0 05 b4 40 3d 87 32 fc bd f6 b1 60 3e 34 7b d6 be
       0.04704668 -0.12314325 0.21942887 -0.41890872
0000d0 43 c0 85 be 06 78 89 be 4b ab e6 3e 7f 90 2e 3d
       -0.26123247 -0.26849383 0.4505256 0.04261827
0000e0 0e 8d 05 be 18 aa df 3c 31 dd b4 be ec 60 d9 3d
       -0.1304209 0.027302787 -0.35325006 0.106141895
0000f0 10 5c 6e 3d d1 70 2c bd 02 25 5a 3e b0 32 23 3d
       0.058193266 -0.042099778 0.2130318 0.03984326
