cache/ckpts/es_checkpoint_device=0.pt (torch, 539355 bytes, 5 tensors)

alpha_params f4 [5, 17]
21.597862 2.0615425 10.356652 -2.3434408 -6.065044 1.5097905 4.5913124 -1.7783179
-3.5475943 2.804024 3.4657168 -1.1927679 -2.4015396 2.3694835 2.5455081 -2.3406584
-1.7380347 20.081522 -2.8034704 6.422169 -5.996651 -7.5180526 2.4266317 2.980263
-3.3108122 -6.341832 -0.636503 3.5776591 -1.1168153 1.2186804 3.307457 2.0639699
-2.4404762 -4.097963 18.298826 -2.0601246 4.1725497 -3.7807784 -10.222723 2.2955215
8.087569 -2.1823459 -1.600262 1.8872011 5.779078 -1.6532092 -1.303002 2.9621944
0.79461586 -3.666647 -5.1535106 18.551292 -2.8478277 6.251467 -4.95746 -8.466934
2.7145057 6.552095 -4.550878 -6.2228394 0.11205588 4.2287903 0.6694481 1.0279745
4.887183 4.593281 -4.152876 -4.049731 14.430062 -4.1783295 -6.7879553 -0.18494998
-12.115136 4.523698 10.80137 -7.049299 -3.9955537 3.473068 5.603207 2.820427
1.9587226 1.9615878 2.5621667 -9.155066 -6.577892
00000000: 6cc8 ac41 50f0 0340 d9b4 2541 effa 15c0
00000010: d714 c2c0 d140 c13f 08ec 9240 ec9f e3bf
00000020: c90b 63c0 2175 3340 4ece 5d40 9eac 98bf
00000030: d3b2 19c0 9ea5 1740 9be9 2240 59cd 15c0
00000040: ec77 debf f5a6 a041 0f6c 33c0 6982 cd40
00000050: 91e4 bfc0 e393 f0c0 ef4d 1b40 a1bc 3e40
00000060: 59e4 53c0 4af0 cac0 dcf1 22bf 5ef8 6440
00000070: cef3 8ebf b8fd 9b3f 60ad 5340 1518 0440
00000080: c330 1cc0 8322 83c0 ff63 9241 15d9 03c0
00000090: 8785 8540 46f8 71c0 4690 23c1 d3e9 1240
000000a0: af66 0141 8eab 0bc0 63d5 ccbf ce8f f13f
000000b0: 35ee b840 5c9c d3bf c5c8 a6bf 9894 3d40
000000c0: f26b 4b3f 58aa 6ac0 8fe9 a4c0 0c69 9441
000000d0: cf42 36c0 050c c840 83a3 9ec0 9078 07c1
000000e0: 76ba 2d40 c3aa d140 cba0 91c0 8021 c7c0
000000f0: 8e7d e53d 4052 8740 f360 2b3f ab94 833f
00000100: ce63 9c40 28fc 9240 5ce4 84c0 6597 81c0
00000110: 89e1 6641 e0b4 85c0 ee36 d9c0 8763 3dbe
00000120: 99d7 41c1 22c2 9040 69d2 2c41 db93 e1c0
00000130: 27b7 7fc0 bf46 5e40 794d b340 e081 3440
00000140: 6cb7 fa3f 4f15 fb3f 8afa 2340 267b 12c1
00000150: 177e d2c0

fcs.0.weight f4 [64, 2089]
2.7019777 -3.1989658 6.4444116e-06 -0.36878192 4.0547624 0.021120694 -3.2416723 -2.2548497
0.6602803 -2.8637857 -6.317924e-23 -4.0693574 0.84293056 0.3623563 0.27231923 0.63502914
-5.765912e-25 -2.1777105 1.0855995e-24 -0.10547733 6.810417 1.3741307e-22 -2.1093175 0.62651503
-3.0054e-23 -4.2359753 2.7573502 2.9049044 -0.37304503 -0.11011201 0.0009671904 1.0869275e-24
5.4506084e-24 -0.6391539 1.458425 1.6305139 -1.7998915 -4.3924083e-26 -1.9884772 -1.4951202
-4.309277e-06 -6.5812437e-25 -0.9866997 -0.86330634 7.843139e-23 -2.7512343 2.1469343 -8.1380653e-22
0.7464463 5.786205e-26 2.8604581 -0.27229658 2.2077103 1.5252903 2.3025696 1.0233067
0.036301114 2.283113 0.9787156 -0.58293253 -1.9730995e-26 2.1674231e-24 -2.1692824 -0.639263
-4.765132 -3.7553656 3.6988497 -0.0002872284 -1.4368697 7.690313e-23 2.3089714 -1.0806566
-2.8985462 -1.3135227 -1.1279907 1.9887246 -0.7799064 2.8649573e-26 -0.4725995 -3.5977366
-3.4807396e-23 -4.0056408e-10 -3.4202213e-23 0.22115497 -0.44621724 -6.7493894e-22 -0.08386783 6.3995217e-06
0.07200904 2.388034 -2.7064893 -4.32204 -1.6557539 -0.9534447 -3.5348866 -7.158229e-23
3.454522e-21 1.0797099e-24 9.676966e-22 -3.7820976 0.31267074 -2.5137367 1.7716966 -0.33035123
-0.2604087 2.6553829 -3.9384089 -0.30785537 -2.228626 -3.8186624 -3.357607 2.5418265
-0.92476285 -3.0689185 0.011506694 3.0476025e-19 -3.9240864e-24 -0.6389343 2.40046 0.113784276
-0.7301451 -0.9876734 2.7559992e-24 0.78882545 -0.025985539 -4.8555984 -1.5998529 1.1856533
1.4820186 -3.6722033 6.303237e-20 -1.1928948 -2.1454961 0.34273452 -5.3489253e-22 1.679052
0.047901534 -4.1328945 0.14937991 2.7084012 -1.6386479 -0.94892347 -1.8274268 7.262334e-10
0.25960243 0.54486716 1.247943e-22 -2.753206 -3.9806933 -6.663014e-25 0.29955214 -1.138602
0.069683604 -1.8572179 -0.045047 0.80516267 1.73974e-23 2.5114071 5.0426004e-26 6.107132
0.12164173 2.7350893 -3.2788942e-26 -0.0002881703 3.530825e-26 -6.7421403 6.489729e-26 -0.61626375
3.2020793 -0.9161809 0.046551347 4.780861 -0.50014925 -0.6709999 0.7092811 -0.49126762
1.0490522e-23 -0.1376661 0.02670389 -0.77316445 0.36802408 0.2565323 -2.270979 -0.988311
0.93182695 -1.0967469e-26 -0.36167586 2.0321357e-23 -4.003608 -0.83836275 -4.1316767 -5.2715235
-3.0442894 -3.1818488 1.64353 -2.1804745 2.6550817 -0.5026486 6.3741287e-25 1.0850481e-24
1.904052e-26 3.2869754 -0.3881614 1.625783 0.049090344 -0.13811843 1.0516256 5.3497245e-24
-1.6536378 2.0386175e-24 6.1184576e-24 6.2543517e-17 -2.3224754 0.05331775 -2.2386521e-26 0.4111963
-0.30401453 -1.7619226 -0.036664862 -1.2668767 -2.5644348 -3.3195188e-23 -1.0202932 1.0634439
-1.3358825 -1.78633 0.00896273 -0.0796522 -0.9744527 2.5601902 -0.9099228 -1.9662336
-2.0137172 -0.78746206 -2.1351343e-26 2.2842922 -2.336045 0.88775396 2.004419 -0.19638303
-0.023350658 1.5973856 4.126502 -1.5564355 0.32762715 -1.7837164 1.0797437e-24 -3.2171628e-23
2.024053e-23 1.4590403 0.16709892 -0.16881315 1.6189077 4.3835688e-26 0.08536724 -3.3887467
00000000: 34ed 2c40 dbbb 4cc0 133d d836 fcd0 bcbe
00000010: 9dc0 8140 4e05 ad3c 8f77 4fc0 754f 10c0
00000020: 2108 293f 4448 37c0 0ec2 989a 2d38 82c0
00000030: 4cca 573f c486 b93e 6d6d 8b3e 4591 223f
00000040: 4372 3297 9c5f 0bc0 07fd a717 8004 d8bd
00000050: f0ee d940 491f 261b 0fff 06c0 4a63 203f
00000060: 0d55 119a 1c8d 87c0 6d78 3040 f4e9 3940
00000070: c2ff bebe 6882 e1bd 0d8b 7d3a a231 a817
00000080: 36dc d218 979f 23bf acad ba3f aeb4 d03f
00000090: d862 e6bf 6480 5995 6c86 febf 1960 bfbf
000000a0: 6898 90b6 fcad 4b97 5a98 7cbf a501 5dbf
000000b0: aea2 bd1a 3914 30c0 5f67 0940 3bf5 759c
000000c0: 1b17 3f3f 6e42 8f15 bf11 3740 756a 8bbe
000000d0: 204b 0d40 b63c c33f 4d5d 1340 b7fb 823f
000000e0: 7ab0 143d 861e 1240 1b8d 7a3f 113b 15bf
000000f0: 0468 c394 3db2 2718 86d5 0ac0 bda6 23bf
00000100: f67b 98c0 e957 70c0 f4b9 6c40 2597 96b9
00000110: 59eb b7bf bbf0 b91a 30c6 1340 f552 8abf
00000120: c881 39c0 8321 a8bf 0062 90bf 878e fe3f
00000130: f2a7 47bf a6dd 0d15 90f8 f1be 5141 66c0
00000140: 7851 289a 6236 dcaf 4a64 259a 7376 623e
00000150: 9676 e4be dffc 4b9c e6c2 abbd 79bb d636
00000160: 7a79 933d 8dd5 1840 1f37 2dc0 274e 8ac0
00000170: beef d3bf f414 74bf 953b 62c0 4b13 ad9a
00000180: 1682 821d b713 a717 f33b 921c e30d 72c0
00000190: 6116 a03e 10e1 20c0 f4c6 e23f cc23 a9be
000001a0: 4a54 85be cbf1 2940 e40e 7cc0 389f 9dbe
000001b0: cfa1 0ec0 f764 74c0 08e3 56c0 49ad 2240
000001c0: 42bd 6cbf 2969 44c0 9386 3c3c 11e6 b320
000001d0: 45ce 9798 3391 23bf 23a1 1940 bb07 e93d
000001e0: caea 3abf 2ad8 7cbf 303c 5518 77f0 493f
000001f0: a0df d4bc 1061 9bc0 fbc7 ccbf 7dc3 973f
00000200: c9b2 bd3f 6105 6bc0 bbd4 941f c7b0 98bf
00000210: cf4f 09c0 e67a af3e 4ea9 219c 2deb d63f
00000220: 6634 443d ac40 84c0 0cf7 183e 7256 2d40
00000230: 37bf d1bf a6ec 72bf 1fe9 e9bf 22a0 4730
00000240: 9cea 843e 6a7c 0b3f f7dd 161b 8734 30c0
00000250: aec3 7ec0 d635 4e97 e65e 993e b6bd 91bf
00000260: 47b6 8e3d 51b9 edbf 3483 38bd 241f 4e3f
00000270: e041 a819 e5ba 2040 8eb2 7915 a06d c340
00000280: 4d1f f93d b40b 2f40 ec5c 2295 9015 97b9
00000290: 86d6 2e15 9dbf d7c0 8bad a015 76c3 1dbf
000002a0: deee 4c40 d58a 6abf a0ac 3e3d d0fc 9840
000002b0: c809 00bf a6c6 2bbf 7293 353f 6e87 fbbe
000002c0: 8dea 4a19 58f8 0cbe 1ec2 da3c 1bee 45bf
000002d0: a76d bc3e 3458 833e b857 11c0 f301 7dbf
000002e0: 368c 6e3f ad3b 5994 942d b9be 3e89 c419
000002f0: 8f1d 80c0 f19e 56bf b236 84c0 52b0 a8c0
00000300: a3d5 42c0 69a3 4bc0 315f d23f e58c 0bc0
00000310: dcec 2940 94ad 00bf 0d45 4517 2fe7 a717
00000320: 7491 bc14 ce5d 5240 17bd c6be a819 d03f
00000330: f512 493d eb6e 0dbe ab9b 863f 1bf5 ce18
00000340: 67aa d3bf fbba 1d18 45b2 ec18 2d37 9024
00000350: 70a3 14c0 b763 5a3d 93b4 dd94 5288 d23e
00000360: cba7 9bbe ae86 e1bf e52d 16bd 0429 a2bf
00000370: b31f 24c0 a785 209a f898 82bf ee1e 883f
00000380: 33fe aabf 76a6 e4bf 6ad8 123c b120 a3bd
00000390: bb75 79bf 28da 2340 b3f0 68bf 8bad fbbf
000003a0: bee0 00c0 1d97 49bf 1674 d394 d831 1240
000003b0: c381 15c0 d843 633f 6748 0040 a218 49be
000003c0: e149 bfbc 2277 cc3f 4e0c 8440 4739 c7bf
000003d0: bfbe a73e d250 e4bf 0e15 a717 8c92 1b9a
000003e0: 20c1 c319 d5c1 ba3f fb1b 2b3e 5bdd 2cbe
000003f0: 5e38 cf3f 5610 5915 05d5 ae3d 3ae1 58c0

fcs.0.bias f4 [64]
-0.19940193 0.22279024 -1.3704618 0.35887423 -0.31263053 -0.5204312 -1.503596 0.00643076
0.08145174 -0.019521657 0.36375758 0.16396995 0.14728054 0.13097684 0.24870776 -0.02192301
0.35956818 -0.26953077 -1.4080933 -0.1895459 -0.28896502 0.12905002 -0.0061362362 -0.46548244
-0.1339056 -0.09530268 -0.16092269 -0.58327997 -0.050534964 -0.041529354 -0.0359682 -0.9050024
-0.054716922 -0.35599232 -0.023334194 -0.2833529 -0.011802889 0.12537372 -0.13322413 -0.055738427
-0.052496877 -0.15065855 -0.071163684 -1.1105015 -0.1272818 -0.27186677 -0.08557051 -0.07738803
0.33953995 -0.042004563 -0.025637759 -0.113499396 -0.08888282 -0.07769821 0.16995452 -0.05407118
-0.32977968 0.2763571 -0.1710173 -0.013376086 -0.25346652 -0.00178689 -0.29787606 -1.2267263
00000000: 0530 4cbe 2023 643e 4b6b afbf 5dbe b73e
00000010: 1c11 a0be fb3a 05bf d575 c0bf 20b9 d23b
00000020: 2bd0 a63d e2eb 9fbc 6f3e ba3e bde7 273e
00000030: b6d0 163e cb1e 063e 3fad 7e3e e297 b3bc
00000040: 5219 b83e f0ff 89be 673c b4bf 5218 42be
00000050: 39f3 93be b025 043e 7b12 c9bb b753 eebe
00000060: 8d1e 09be 0d2e c3bd ebc8 24be d651 15bf
00000070: c0fd 4ebd af1a 2abd 6453 13bd 3dae 67bf
00000080: da1e 60bd a044 b6be 5a27 bfbc a213 91be
00000090: e860 41bc f861 003e e86b 08be fa4d 64bd
000000a0: f706 57bd 3c46 1abe 44be 91bd ea24 8ebf
000000b0: 2956 02be 1f32 8bbe 973f afbd 9e7d 9ebd
000000c0: 2ed8 ad3e fa0c 2cbd 4706 d2bc 5f72 e8bd
000000d0: 3208 b6bd 3d20 9fbd 8f08 2e3e be79 5dbd
000000e0: e2d8 a8be ae7e 8d3e 291f 2fbe 5f27 5bbc
000000f0: 5dc6 81be 1436 eaba 3683 98be 5e05 9dbf

fcs.1.weight f4 [5, 64]
2.1833708 0.7895102 -1.8935992 1.7635546 -0.7842454 -0.23971009 -2.1839247 -0.6165411
-0.11937767 -0.61680984 2.143198 -0.36454642 1.0921305 -0.36973655 0.073173024 -0.5216363
2.217664 -0.3292909 -1.6158944 -0.86128354 -0.5105768 0.5161273 1.9017391 2.076222
-0.23684096 -0.46866125 1.9554309 -1.0661364 -0.6174055 -0.5989231 -0.43345386 1.7791307
-0.6748453 1.716292 -0.35219488 -0.60260254 -0.64125997 -0.266003 -0.51992154 -0.07999385
-0.4961209 -0.544835 -0.39305213 -1.1422999 2.0873501 -1.0531527 2.1082494 -0.5800008
2.1640475 -0.12335325 -0.58990484 1.0436213 -0.63472056 -0.5734317 -0.07732036 -0.37015682
1.7252218 2.0443501 2.2809343 -0.5729058 -0.7933163 -0.45568204 -0.7584838 -0.91407955
-0.51524675 -0.64785856 0.82331496 0.7082315 -0.6638861 -1.64836 -1.130428 2.7579267
0.8247059 -1.2673823 -0.48584238 2.3051336 -0.73928857 2.679023 2.3240747 -0.5781067
-0.27238852 2.3360834 2.9794533 2.8062096 1.9055737 -0.117329694 -0.86448646 -1.0359377
-1.0719557 -1.257067 -0.53656507 -1.1690947 -0.63532376 -0.29711315 -1.4366009 -0.12575142
-0.331124 -1.6419855 -0.63272864 3.0930338 -0.75832134 2.9474547 -0.91800267 -0.641393
-0.7857483 3.2652352 -0.698522 -1.1048898 -0.8337165 1.6482961 -0.78936404 -0.2742492
-0.71490353 0.1363824 -0.83045214 1.7381294 -0.6406108 0.98789805 1.3918695 -0.86229
-0.558866 -0.5171424 -0.6308122 -0.09220339 -1.4513314 -0.23740184 3.0581276 -1.94644
0.04169326 0.98460424 1.9707919 -0.9283902 2.6726618 3.240493 -1.0502709 -0.45316136
-0.7980795 -0.7236883 -0.7424241 -0.7148726 1.4471009 -0.5565919 -0.62548596 1.4650054
-0.6731731 -1.369823 -0.73489904 -0.56538725 0.53467315 -0.70375615 -0.39910287 -0.7890036
-1.203209 -1.2131926 -0.42657655 -1.5353678 1.3282909 2.5397656 2.1538894 -0.753853
2.8173168 -0.9815271 2.4717507 -0.81790906 -1.1581054 -0.75935423 -0.46532568 -1.1454597
-0.38995486 -0.80350477 -1.1264136 -1.5139458 -0.69800436 0.4815865 -0.6757409 -1.2476237
-0.38563812 -0.95349634 2.2983515 -0.9988841 3.0557292 -0.86534494 -0.010837868 -1.0159898
-0.70802236 -0.4894769 -0.5721183 -1.4117936 -0.78367627 2.127798 -0.68342143 4.3088527
-1.1564727 -0.69448674 -0.89261776 -0.442637 -0.35204282 -1.3838086 -2.1214786 -0.23932084
-1.4887896 -0.053487793 -0.32810694 -0.8982721 -0.61110294 -0.7863844 -0.45268863 0.5756086
-0.6229043 -0.6273089 -0.57215446 -0.56184906 -0.9229786 0.76935947 -0.15221395 -0.18930443
2.4578865 -1.476532 -0.5652793 3.9385657 -1.4002618 -1.0417169 -0.092823334 -0.6473357
-0.9503511 0.585336 -0.9610193 -0.79476434 -1.2946143 -0.5941493 2.9029438 2.308189
2.417513 -0.5493603 2.5438712 -1.3080907 -0.31672728 -1.7161052 -0.4040036 2.490068
-0.41475213 1.4923203 -0.336959 -0.7493242 -0.7055745 1.7956406 -1.1173899 -1.1730627
-0.013556385 -0.7185886 -0.92136574 -0.86577046 2.6006474 -0.86887133 -0.5496772 -0.9930556
00000000: 59bc 0b40 571d 4a3f 7561 f2bf 28bc e13f
00000010: 4ec4 48bf 9076 75be 6cc5 0bc0 a3d5 1dbf
00000020: 487c f4bd 40e7 1dbf 282a 0940 d4a5 babe
00000030: efca 8b3f 1c4e bdbe bddb 953d f589 05bf
00000040: 35ee 0d40 d198 a8be a1d5 cebf 147d 5cbf
00000050: 29b5 02bf eb20 043f 306c f33f d2e0 0440
00000060: 7086 72be 5ef4 efbe 8f4b fa3f 2877 88bf
00000070: 490e 1ebf 0653 19bf aaed ddbe 8eba e33f
00000080: a9c2 2cbf 75af db3f e352 b4be 2944 1abf
00000090: 9d29 24bf 8c31 88be 9419 05bf d1d3 a3bd
000000a0: 8f03 febe 4e7a 0bbf 213e c9be e236 92bf
000000b0: 2597 0540 b5cd 86bf 8fed 0640 ef7a 14bf
000000c0: c17f 0a40 a1a0 fcbd 0104 17bf 6295 853f
000000d0: 0c7d 22bf 6bcc 12bf 235a 9ebd 3285 bdbe
000000e0: 11d4 dc3f a2d6 0240 d4fa 1140 f4a9 12bf
000000f0: c716 4bbf 284f e9be ff2b 42bf 1e01 6abf
00000100: 36e7 03bf 0fda 25bf c5c4 523f a94e 353f
00000110: 70f4 29bf 76fd d2bf ddb1 90bf df81 3040
00000120: ed1f 533f 9539 a2bf 55c0 f8be 4f87 1340
00000130: 0442 3dbf 1d75 2b40 a4bd 1440 cdfe 13bf
00000140: 8276 8bbe 6482 1540 5daf 3e40 f098 3340
00000150: d7e9 f33f 8d4a f0bd fc4e 5dbf 9b99 84bf
00000160: d835 89bf 92e7 a0bf 545c 09bf e5a4 95bf
00000170: 94a4 22bf 371f 98be 8ae2 b7bf fbc4 00be
00000180: 1689 a9be 952c d2bf 81fa 21bf 44f4 4540
00000190: 5921 42bf 19a3 3c40 3902 6bbf 5532 24bf
000001a0: cd26 49bf 9df9 5040 56d2 32bf 076d 8dbf
000001b0: 726e 55bf 5efb d23f c313 4abf 646a 8cbe
000001c0: eb03 37bf d4a7 0b3e 8398 54bf 067b de3f
000001d0: 12ff 23bf e3e6 7c3f c828 b23f 0abf 5cbf
000001e0: d811 0fbf 7263 04bf e97c 21bf 22d5 bcbd
000001f0: 3ac5 b9bf 7819 73be 5db8 4340 f224 f9bf
00000200: 8dc6 2a3d 060f 7c3f e942 fc3f fbaa 6dbf
00000210: e40c 2b40 3d64 4f40 476f 86bf c404 e8be
00000220: f04e 4cbf a343 39bf 810f 3ebf e401 37bf
00000230: 9a3a b93f cf7c 0ebf d91f 20bf 4c85 bb3f
00000240: 1355 2cbf 5c56 afbf 5822 3cbf 38bd 10bf
00000250: 57e0 083f 5d29 34bf 3657 ccbe 24fc 49bf
00000260: c102 9abf e549 9bbf 3e68 dabe ef86 c4bf
00000270: 7005 aa3f 858b 2240 53d9 0940 83fc 40bf
00000280: eb4e 3440 5c45 7bbf 2a31 1e40 7d62 51bf
00000290: cc3c 94bf 0a65 42bf 2b3f eebe 6c9e 92bf
000002a0: 2aa8 c7be 7db2 4dbf 522e 90bf fac8 c1bf
000002b0: 6ab0 32bf 8192 f63e 5bfd 2cbf 22b2 9fbf
000002c0: 5c72 c5be 5618 74bf 3118 1340 deb6 7fbf
000002d0: 1191 4340 3f87 5dbf 5091 31bc f40b 82bf
000002e0: f440 35bf b79c fabe 5876 12bf a7b5 b4bf
000002f0: 029f 48bf d82d 0840 b5f4 2ebf 1fe2 8940
00000300: 4c07 94bf e2c9 31bf 9982 64bf 51a1 e2be
00000310: f53e b4be a420 b1bf 4ec6 07c0 8610 75be
00000320: a890 bebf 0416 5bbd a2fd a7be 29f5 65bf
00000330: 3e71 1cbf 7d50 49bf cec6 e7be 165b 133f
00000340: a876 1fbf 5197 20bf b778 12bf 57d5 0fbf
00000350: 5348 6cbf bef4 443f f9dd 1bbe 05d9 41be
00000360: 034e 1d40 00ff bcbf 25b6 10bf 7611 7c40
00000370: c73b b3bf fb56 85bf 291a bebd cbb7 25bf
00000380: 364a 73bf 95d8 153f 5c05 76bf ad75 4bbf
00000390: ecb5 a5bf 2b1a 18bf d5c9 3940 5eb9 1340
000003a0: 88b8 1a40 e0a2 0cbf c9ce 2240 846f a7bf
000003b0: 142a a2be 56a9 dbbf 8fd9 cebe 465d 1f40
000003c0: 645a d4be 5a04 bf3f e485 acbe b6d3 3fbf
000003d0: 88a0 34bf 8dd7 e53f a206 8fbf eb26 96bf
000003e0: 9a1b 5ebc 6cf5 37bf a0de 6bbf 22a3 5dbf
000003f0: 0271 2640 5a6e 5ebf a5b7 0cbf e438 7ebf

fcs.1.bias f4 [5]
-0.78074 -0.3540648 0.46073538 0.21811213 -0.40611306
00000000: 94de 47bf fb47 b5be 82e5 eb3e c958 5f3e
00000010: 0dee cfbe
