cache/ckpts/es_checkpoint_device=1.pt (torch, 539355 bytes, 5 tensors)

alpha_params f4 [5, 17]
0	0x403213e4	2.782464
1	0xbfc1a74c	-1.512918
2	0xbf008fc4	-0.5021937
3	0xbfafeabb	-1.3743509
4	0xbfe1a389	-1.7628032
5	0x3fd23c54	1.6424661
6	0x3f698185	0.91213256
7	0xbfeaa493	-1.8331474
8	0xbf8fecb1	-1.1244107
9	0x3f181421	0.59405714
10	0x3fab742a	1.3394825
11	0xbfc3b11c	-1.5288424
12	0xbfa3bae4	-1.279141
13	0x3f6697e5	0.9007552
14	0x3f015aa4	0.5052893
15	0xbee94f37	-0.4556825
16	0xbfca6a16	-1.5813625
17	0x40307110	2.7569008
18	0xbfdda4be	-1.73159
19	0xbfc0a131	-1.5049192
20	0xbfb6e025	-1.4287153
21	0xbfe8a44f	-1.8175143
22	0x3fe90524	1.8204694
23	0x3fea5493	1.830706
24	0x3dc2f6a2	0.09519698
25	0xbff9b337	-1.9507817
26	0x3fecb189	1.849168
27	0x3fedeebe	1.8588483
28	0xbfddd2e5	-1.7329985
29	0x3f45747a	0.77130854
30	0x3dd87045	0.10568289
31	0xbfdd21b0	-1.7275906
32	0x3f164100	0.5869293
33	0xbfe3aeaa	-1.7787678
34	0x40288ff5	2.6337864
35	0xbfad5262	-1.3540766
36	0xbee467a0	-0.4461031
37	0x3f02ccb2	0.5109359
38	0x3f861043	1.0473713
39	0xbf8043db	-1.0020708
40	0x3fb22600	1.3917847
41	0xbfea4a68	-1.8303957
42	0xbfea0aaf	-1.828451
43	0x3ff3901c	1.9028354
44	0xbed74026	-0.4204113
45	0xbff9a951	-1.9504796
46	0xbf77c51d	-0.96785146
47	0x3f760dee	0.96115005
48	0x3fce250d	1.6105057
49	0x3fef9152	1.8716223
50	0x3f575374	0.84111714
51	0x402d1964	2.7046747
52	0xbfb14155	-1.3848063
53	0xbfae08ad	-1.3596398
54	0xbfce31f4	-1.6108994
55	0xbfc79d93	-1.5594963
56	0x3fd43ab8	1.658042
57	0x3ff0263a	1.8761666
58	0x3fcff4da	1.6246598
59	0xbfede068	-1.8584108
60	0x3f9a5e92	1.206011
61	0x3fdd65b9	1.7296668
62	0xbfa826fe	-1.31369
63	0xbfc209fb	-1.5159296
64	0x3fb8f413	1.4449486
65	0xbfaff5d0	-1.3746891
66	0xbeb2e91c	-0.34943473
67	0xbfe2144b	-1.7662443
68	0x402acb08	2.668642
69	0xbf80656e	-1.0030954
70	0xbeabd520	-0.3356104
71	0xbfdb2c81	-1.7122957
72	0xbf9bd7ec	-1.2175269
73	0xbe639527	-0.22224866
74	0x3f17dd52	0.59322083
75	0xbfcde529	-1.6085559
76	0xbf98bedb	-1.1933244
77	0x3e64ac2f	0.22331308
78	0x3e9550c3	0.2916318
79	0xbf92b0b6	-1.1460178
80	0xbefff6d9	-0.49993017
81	0x3fdde875	1.7336565
82	0x3f399b52	0.72502625
83	0x3e6ea08f	0.23303436
84	0xbcb19623	-0.021678036

fcs.0.weight f4 [64, 2089]
0	0xbf352011	-0.70752054
1	0xbdb799b3	-0.08964863
2	0xbd52f3a0	-0.05150187
3	0x3e8f4076	0.27978867
4	0x3e492920	0.19644594
5	0x3f0b01b8	0.542995
6	0xbe53c2ee	-0.20679829
7	0xbec1d1ba	-0.3785532
8	0x3f8fbc28	1.1229296
9	0x3f7921a3	0.9731695
10	0x3dfe16a4	0.12406662
11	0x3e3e9fea	0.1861569
12	0x3e7efa9a	0.24900284
13	0xbe1b4ded	-0.15166445
14	0xbe80e8af	-0.25177523
15	0xbdee93a3	-0.11649253
16	0xbe50cdd2	-0.20391014
17	0x3f84e860	1.0383415
18	0xbe845c01	-0.25851443
19	0x3f2ac3f4	0.6670525
20	0xbf9061fb	-1.1279901
21	0xbeb06f05	-0.344597
22	0x3d4b54b4	0.049641326
23	0xbe61108b	-0.21978967
24	0xbd931ccc	-0.07183227
25	0xbe63a2e8	-0.22230113
26	0x3ea1b482	0.3158303
27	0xbf0bb84d	-0.54578096
28	0x3f1767c6	0.5914272
29	0xbe6b2819	-0.22964515
30	0xbeaeacd7	-0.3411624
31	0xbe73cf11	-0.23809458
32	0x3f2f5d35	0.685016
33	0xbf835ab2	-1.0262053
34	0xbd446df8	-0.047956437
35	0xbe8da6ea	-0.27666408
36	0xbeeaabd0	-0.45834208
37	0xbe28d1cd	-0.16486283
38	0xbd83d2f6	-0.06436722
39	0xbee2ca66	-0.44295043
40	0x3e6a18e2	0.22861055
41	0x3d0a9d36	0.033841334
42	0x3f5d5fd0	0.86474323
43	0xbdbceefb	-0.092252694
44	0x3d90e3fc	0.070747346
45	0x3f346779	0.70470387
46	0x3e9d4c2c	0.30722177
47	0xbe1885c8	-0.14894783
48	0x3e5d4035	0.21606524
49	0xbd9cdd22	-0.07659365
50	0xbdadc520	-0.08484864
51	0xbf1fe74a	-0.62462294
52	0x3f423148	0.7585645
53	0xbe27d0d1	-0.16388251
54	0x3f29d548	0.66341066
55	0xbef1356b	-0.47111067
56	0x3f39f150	0.7263384
57	0x3fa0a11c	1.2549167
58	0x3ee3c0a7	0.4448292
59	0x3f57bac2	0.84269345
60	0xbee5cf31	-0.44884637
61	0xbe7dccc4	-0.24785143
62	0x3f1d78b2	0.6151229
63	0xbd814736	-0.063124105
64	0xbf3e6109	-0.74366814
65	0x3d43ac6c	0.047771856
66	0xbf09304d	-0.53589326
67	0xbc3d199a	-0.011541748
68	0xbe207409	-0.15669264
69	0xbeb61a6e	-0.3556704
70	0xbccd28f5	-0.025043944
71	0x3ec6e230	0.38844442
72	0x3f80acf0	1.0052776
73	0x3fa025d5	1.2511545
74	0x3ef56700	0.47930145
75	0x3e25bef7	0.16186129
76	0x3fc5a4c3	1.5440906
77	0x3de988ca	0.114030436
78	0xbe888cd4	-0.26669943
79	0xbf1a60b7	-0.60303825
80	0xbe0978a5	-0.13424928
81	0xbd8b3af8	-0.06798357
82	0xbd8dfa20	-0.06932473
83	0x3e9fd891	0.31219915
84	0x3e681fcc	0.2266838
85	0xbedcbede	-0.4311437
86	0xbef08443	-0.46975908
87	0x3e5132e2	0.20429567
88	0xbf516ac8	-0.8180356
89	0x3e2af418	0.16694677
90	0xbf05fbce	-0.5233735
91	0x3eb432cf	0.35195014
92	0xbe989c40	-0.2980671
93	0x3eb92355	0.3615977
94	0x3d8ffdce	0.07030831
95	0xbe7705ed	-0.24123354
96	0xbe3f6872	-0.18692186
97	0x3d06c6a9	0.0329043
98	0x3e4a9af6	0.19785675
99	0x3e984608	0.2974093
100	0x3f0f751f	0.5603809
101	0x3ed1a7c2	0.40948302
102	0xbf21f5d2	-0.6326572
103	0x3e3a0b22	0.1816831
104	0x3f89a96a	1.0754826
105	0xbddfbce5	-0.10924701
106	0x3e6724a9	0.22572578
107	0xbebb3d4c	-0.36570203
108	0xbe99f163	-0.30066976
109	0xbdcd2bab	-0.10018095
110	0xbf647a42	-0.8924905
111	0xbe201012	-0.1563113
112	0xbe29688e	-0.1654379
113	0x3d9b14b3	0.075723074
114	0xbe1e1b54	-0.15440112
115	0xbdeaf7be	-0.11473034
116	0x3f268c22	0.65057576
117	0x3f4f78d1	0.81043726
118	0xbe2c8c73	-0.16850452
119	0x3ea0413b	0.31299767
120	0x3c8bc6f6	0.017062645
121	0xbdf86018	-0.121277034
122	0xbdd5a0bb	-0.104310475
123	0x3f3d1e09	0.73873955
124	0x3c86ae34	0.016440488
125	0x3e1415ba	0.14461413
126	0xbe9508e8	-0.29108357
127	0xbefe2c38	-0.4964311
128	0x3f658c21	0.89666945
129	0xbe8907e1	-0.26763824
130	0xbe44f4c9	-0.19234003
131	0xbf7a778a	-0.9783865
132	0x3e064661	0.13112785
133	0x3e8d1b01	0.27559665
134	0xbd6dda49	-0.0580695
135	0xbf0061a3	-0.5014898
136	0x3d866b35	0.06563417
137	0x3f44acf0	0.7682638
138	0xbdb32998	-0.08748168
139	0xbf2f4f9c	-0.6848085
140	0x3e641c6b	0.22276466
141	0xbf3f7639	-0.7478977
142	0xbe972e25	-0.29527393
143	0xbecd138f	-0.40053985
144	0x3dced67e	0.10099505
145	0x3eb86285	0.36012664
146	0x3ebae62b	0.3650373
147	0x3f190b83	0.5978319
148	0x3ea8201e	0.32837003
149	0x3b490903	0.0030675537
150	0xbca4d633	-0.02012167
151	0x3cc838a1	0.024441065
152	0x3df2939b	0.1184456
153	0x3f0b437b	0.5439984
154	0xbf4dc416	-0.8037733
155	0x3eeb1a70	0.45918608
156	0xbd9ee5b4	-0.07758656
157	0xbf778d7c	-0.96700263
158	0xbe116363	-0.1419807
159	0xbee5f257	-0.44911453
160	0xbf843ebc	-1.0331645
161	0x3f17502c	0.5910671
162	0xbed28497	-0.41116783
163	0x3e6ee102	0.23328021
164	0xbdd8482b	-0.1056064
165	0x3f0d1442	0.55109036
166	0x3f4d2526	0.8013481
167	0x3f814d2e	1.0101678
168	0x3eb529e8	0.35383534
169	0x3f0ffeb4	0.5624802
170	0xbf66a136	-0.9008974
171	0xbf2bb5c2	-0.67074215
172	0xbf5e269c	-0.86777663
173	0xbe5f925e	-0.21833178
174	0xbdda791d	-0.10667632
175	0x3f3960e4	0.7241347
176	0xbe68bc9c	-0.22728199
177	0xbe87b58a	-0.2650569
178	0x3f163466	0.58673704
179	0x3f1c7903	0.6112215
180	0xbc6f653f	-0.014611541
181	0xbf2a7e64	-0.66599107
182	0x3e5f5e1b	0.21813242
183	0xbcd71831	-0.026256653
184	0x3d96c957	0.07362621
185	0xbe1e7dc8	-0.15477669
186	0x3ee72fa5	0.45153537
187	0xbdcab3d2	-0.09897579
188	0x3e283f6e	0.16430447
189	0x3f30ea27	0.6910729
190	0x3f988c9c	1.191791
191	0x3f7aec99	0.9801727
192	0xbe95d492	-0.2926374
193	0x3e42a237	0.19007193
194	0x3e90117a	0.28138334
195	0x3f4d88b7	0.80286735
196	0x3e59acf5	0.21257384
197	0x3f69fa07	0.91397136
198	0xbea04555	-0.31302896
199	0xbd1b0f6d	-0.037856508
200	0x3e2bc02c	0.16772527
201	0xbf28a520	-0.6587696
202	0x3e8a675f	0.2703199
203	0xbf79f112	-0.9763347
204	0xbf1da760	-0.6158352
205	0xbebda198	-0.3703735
206	0x3f0716db	0.5276925
207	0xbcbb49c6	-0.022862326
208	0xbe61e3e5	-0.22059591
209	0xbed945e8	-0.42436147
210	0x3f657794	0.89635587
211	0xbecb3004	-0.3968507
212	0x3c848f01	0.01618147
213	0x3ede83bf	0.4345989
214	0x3d486e54	0.048933342
215	0x3c657385	0.014004593
216	0x3d48b23c	0.048998103
217	0x3ed8ca9b	0.42342076
218	0xbe857754	-0.26067603
219	0xbe60545a	-0.21907178
220	0xbd187d6c	-0.037228987
221	0x3d8d2a50	0.06892836
222	0xbccb5069	-0.024818616
223	0xbefbdc9c	-0.4919175
224	0xbef66b53	-0.48128757
225	0xbf4e2a24	-0.8053305
226	0xbf14f302	-0.581833
227	0xbf21f66d	-0.6326664
228	0x3e02433b	0.12720959
229	0x3f04d713	0.5189068
230	0x3dcdc501	0.10047341
231	0x3dd25240	0.10269594
232	0x3f592f87	0.84838146
233	0x3e1833f1	0.14863564
234	0xbe82e9fb	-0.25569138
235	0x3e119fb0	0.14221072
236	0xbead521c	-0.33851707
237	0x3cbbf8de	0.022945818
238	0xbf67eb63	-0.90593547
239	0x3e885216	0.26625127
240	0x3e9ee67d	0.31035224
241	0x3f45b63f	0.7723121
242	0xbf395c11	-0.7240611
243	0x3f1972ca	0.5994078
244	0xbe006745	-0.12539394
245	0x3e0c6b16	0.13712725
246	0x3ccd3fe3	0.025054878
247	0xbe5ed5f6	-0.21761307
248	0xbe74cdac	-0.23906583
249	0x3f098638	0.53720427
250	0x3f269359	0.65068585
251	0x3f25d942	0.64784634
252	0x3f1b41db	0.6064736
253	0xbd831242	-0.06399967
254	0xbc52e8ea	-0.012872914
255	0x3f92c4e1	1.1466333

fcs.0.bias f4 [64]
0	0xbcf43526	-0.0298105
1	0x3d74b336	0.05974122
2	0x3e17b5d6	0.14815459
3	0x3db72973	0.08943453
4	0x3b2ec32c	0.0026666624
5	0xbd486cea	-0.048931994
6	0x3d41a57a	0.04727695
7	0xbe0deba6	-0.13859424
8	0x3d8430df	0.06454634
9	0xbce846da	-0.028354097
10	0x3d1409b8	0.03614208
11	0x3db09ae7	0.08623295
12	0xbcbe90d4	-0.023262419
13	0xbb5f8a59	-0.0034109561
14	0x3db35960	0.08757281
15	0x3e076816	0.132233
16	0xbd0ac1ae	-0.033876114
17	0x3db61288	0.08890253
18	0xbeb2f406	-0.349518
19	0x3e05368c	0.13009089
20	0x3da3a3ec	0.0799025
21	0xbb6326e2	-0.0034660627
22	0xbc3d1478	-0.011540525
23	0xbdaf92bc	-0.08572909
24	0x3cc103be	0.023561355
25	0xbd3070d4	-0.04307635
26	0xba7e7ea2	-0.0009708201
27	0xbe1cbc19	-0.15306129
28	0xbc52aab5	-0.012858083
29	0xbd00761e	-0.031362645
30	0x3da95150	0.08267462
31	0x3de5ab89	0.11214358
32	0x3a7b1703	0.0009578319
33	0x3e07168f	0.13192199
34	0x3daef09f	0.085419886
35	0xbd20edf4	-0.03928943
36	0x3df02470	0.117257
37	0xbe75acf1	-0.23991753
38	0x3ddf386a	0.10899432
39	0x3d6a4b5a	0.057200767
40	0xbb8d5fab	-0.004314383
41	0xbcdf02df	-0.027223049
42	0x3ddbbf01	0.107297905
43	0xbd90a0b8	-0.07061905
44	0xbe620755	-0.2207311
45	0xbd4a7648	-0.049429208
46	0x3df63cf5	0.120233454
47	0xbedb28a3	-0.4280444
48	0x3da310ed	0.07962213
49	0xbad2a84e	-0.0016071887
50	0x3d3dbd3b	0.046323042
51	0xbd330666	-0.043707274
52	0xbcb8fec4	-0.02258242
53	0x3c9c97ff	0.019115446
54	0x3c85c09d	0.016327197
55	0x3da7df49	0.08196885
56	0x3dfed819	0.12443561
57	0x3ca071ef	0.019585578
58	0x3d111550	0.035420716
59	0x3ccb5998	0.024822995
60	0x3c11a00a	0.008888254
61	0x3cb1e8f0	0.021717519
62	0x3dea5207	0.11441427
63	0xbcc21934	-0.023693658

fcs.1.weight f4 [5, 64]
0	0xbea4a738	-0.32158828
1	0x3e9acb63	0.30233297
2	0x3f0678d0	0.52528095
3	0x3ec4abc3	0.38412294
4	0xbe948687	-0.29008886
5	0xbe52053e	-0.20509812
6	0x3e9eb013	0.3099371
7	0x3f252460	0.6450863
8	0x3eaf9b16	0.3429801
9	0xbe84fc8d	-0.2597393
10	0xbc02e0f4	-0.007988203
11	0x3ec56b5e	0.38558477
12	0xbc294696	-0.01033177
13	0x3b650530	0.003494572
14	0xbe039c35	-0.12852557
15	0x3edfc319	0.43703535
16	0x3e441184	0.19147307
17	0x3c92c5d5	0.0179166
18	0xbe6edb1d	-0.23325773
19	0x3eb34eb1	0.35020974
20	0x3d84c023	0.0648196
21	0xbe5d0682	-0.21584514
22	0xbeaf924d	-0.34291306
23	0xbeec8e42	-0.46202284
24	0xbd4cea97	-0.05002841
25	0x3e5cefbe	0.2157583
26	0xbea10804	-0.31451428
27	0x3d689e5c	0.05679165
28	0x3f2171be	0.6306418
29	0xbe020517	-0.12697254
30	0x3f135835	0.5755647
31	0x3edd1015	0.43176332
32	0x3e15cd26	0.14629039
33	0x3d42c1ea	0.047548212
34	0x3c677bfd	0.014128682
35	0x3ee094d0	0.43863535
36	0x3e97d983	0.29658136
37	0x3e981ce2	0.29709536
38	0x3ee7a637	0.45244
39	0x3ef720dc	0.48267257
40	0x3e64a9d3	0.22330408
41	0x3dd55abb	0.10417696
42	0x3f0888e7	0.53333896
43	0x3e8c03cf	0.27346656
44	0x3e9db6f8	0.30803657
45	0x3da6faf1	0.08153332
46	0x3f3515fb	0.70736665
47	0x3e9bc59e	0.30424207
48	0x3f1920a7	0.5981545
49	0xbdb53b53	-0.08849206
50	0xbd1320ed	-0.035920072
51	0xbd98cf43	-0.07461407
52	0x3e81ecf8	0.25376105
53	0x3b8bec7b	0.004270134
54	0xbe99009f	-0.29883286
55	0x3ea5c655	0.32377878
56	0x3e05c757	0.13064323
57	0x3f08950d	0.53352433
58	0xbcc02c1f	-0.023458539
59	0x3f26281d	0.6490496
60	0xbd4dbe58	-0.050230354
61	0xbdb5a591	-0.0886947
62	0x3dd0281d	0.10163901
63	0xbe51e3b7	-0.20497023
64	0x3cc4be8b	0.02401664
65	0xbe1b448e	-0.1516287
66	0xbe53f03b	-0.2069711
67	0x3e6e8bfb	0.23295586
68	0x3e499927	0.19687329
69	0xbeed6a31	-0.4637008
70	0xbdf64226	-0.120243356
71	0x3d7ec325	0.062197823
72	0xbeb25e7b	-0.34837708
73	0xbe0f0fdd	-0.13970895
74	0x3e975beb	0.29562315
75	0xbe666504	-0.22499472
76	0xbe81aa2b	-0.2532514
77	0x3e215214	0.15753967
78	0x3ed2dd0f	0.4118428
79	0x3da99ac8	0.08281475
80	0x3f5eee0c	0.8708198
81	0x3f23733f	0.63847727
82	0x3f884f6e	1.064924
83	0x3d402335	0.046908576
84	0xbe3ddf68	-0.18542254
85	0xbd730d48	-0.059338838
86	0x3e6ccc9e	0.2312493
87	0x3f8edd6c	1.1161323
88	0xbea35a82	-0.3190499
89	0xbee22394	-0.4416777
90	0x3d1f7487	0.03892949
91	0x3e12401b	0.14282267
92	0xbf0dbe01	-0.5536805
93	0x3f318498	0.69342947
94	0xbe4b1657	-0.1983274
95	0xbe26837c	-0.16261095
96	0x3f21a8bb	0.6314809
97	0x3eee7632	0.4657455
98	0x3ee1bbad	0.44088498
99	0xbea40914	-0.32038176
100	0x3d9f1a95	0.07768742
101	0x3f2b4938	0.669086
102	0xbe8906da	-0.2676304
103	0xbecb4077	-0.3969762
104	0x3f26df46	0.6518444
105	0xbf0a4386	-0.5400928
106	0xbc09f72e	-0.008420749
107	0xbf140928	-0.5782647
108	0xbea7b002	-0.3275147
109	0x3ef513e2	0.47866732
110	0xbd76458c	-0.06012492
111	0xbda34a3a	-0.07973142
112	0xbec5ff71	-0.3867145
113	0xbe90752c	-0.28214395
114	0x3f176f3d	0.5915411
115	0x3f02daef	0.51115316
116	0xbe675fdf	-0.22595166
117	0x3f2e0653	0.679784
118	0x3eda3aec	0.4262308
119	0xbe87a948	-0.2649634
120	0x3ed51f16	0.4162528
121	0xbd4ef5c8	-0.050527364
122	0x3e7e14d1	0.24812628
123	0xbec1bdb3	-0.37840042
124	0x3e37912d	0.17926474
125	0x3e6dbd75	0.23216803
126	0x3e960b74	0.29305613
127	0xbe97c0cf	-0.2963929
128	0xbeda6221	-0.4265299
129	0x3f1f0338	0.62114286
130	0x3d814a76	0.063130304
131	0xbe837975	-0.25678602
132	0xbf0ea943	-0.5572702
133	0x3eee190f	0.46503493
134	0x3f47770a	0.77916014
135	0x3f363d86	0.7118763
136	0x3df6be39	0.12048001
137	0x3e53225f	0.2061858
138	0x3ee152ee	0.44008583
139	0x3e81bf10	0.25341082
140	0xbc148269	-0.009064295
141	0x3f1e8633	0.6192352
142	0x3e32d976	0.17465767
143	0xbe51f950	-0.20505261
144	0xbe948db9	-0.29014376
145	0xbd36f6c2	-0.04466892
146	0xbf1a323f	-0.6023292
147	0x3f001615	0.50033695
148	0xbeb10c07	-0.3457949
149	0x3cf0166c	0.029307567
150	0x3e1ff5c6	0.15621099
151	0xbe80186b	-0.2501863
152	0x3f1d8219	0.6152664
153	0xbeab6b0d	-0.3348011
154	0x3f264e66	0.64963377
155	0x3e450169	0.19238819
156	0xbe2dc08f	-0.16967987
157	0xbec0c8fd	-0.37653342
158	0xbe89a81e	-0.26886076
159	0xbee358bd	-0.4440364
160	0xbe4c869d	-0.19973226
161	0xbe0f0e57	-0.13970314
162	0x3dc66549	0.09687287
163	0xbe09f65d	-0.13472886
164	0x3ec5fcb0	0.38669348
165	0xbe99e249	-0.30055454
166	0x3ec96c2e	0.39340347
167	0xbeb6de0d	-0.35716286
168	0xbe0e0320	-0.1386838
169	0xbf15ee29	-0.5856653
170	0x3ebc5259	0.36781576
171	0xbe11aa5b	-0.14225142
172	0xbf02ef85	-0.5114673
173	0xbdd7caf3	-0.10536756
174	0xbe99104b	-0.29895243
175	0x3d99d7f6	0.075118944
176	0xbc90d3d7	-0.017679138
177	0x3e354395	0.17701562
178	0xbe9f3a9e	-0.3109941
179	0xbe72d115	-0.23712571
180	0x3eabfb32	0.33590084
181	0x3eb79510	0.35855913
182	0x3eb64f64	0.35607445
183	0xbebc9132	-0.36829525
184	0xbe747d3a	-0.23875895
185	0xbecd44ac	-0.40091455
186	0xbf00bf84	-0.5029223
187	0x3c49f69f	0.012326865
188	0xbdd72acb	-0.10506209
189	0xbe27cad0	-0.1638596
190	0x3e100563	0.14064555
191	0x3ebe89a0	0.37214375
192	0x3f0fa88c	0.5611656
193	0xbe8ef825	-0.27923694
194	0xbe474526	-0.19459972
195	0xbec9c216	-0.39405888
196	0xbefeff24	-0.49804032
197	0x3dc41bc5	0.09575609
198	0xbb2fdbe7	-0.0026833953
199	0xbe8a23d7	-0.2698047
200	0xbe6984f0	-0.22804618
201	0x3f066ae2	0.5250684
202	0xbebcccfc	-0.3687514
203	0xbecaf7f4	-0.39642298
204	0x3f59bc81	0.8505326
205	0xbd6c233c	-0.05765079
206	0xbf1b5521	-0.6067677
207	0xbe642055	-0.22277959
208	0xbe4c391c	-0.1994366
209	0x3c4015cc	0.011723947
210	0xbe9c3fe8	-0.30517507
211	0xbdc8053b	-0.09766623
212	0x3e97348a	0.29532272
213	0x3ee2b750	0.4428048
214	0xbb34a0a7	-0.0027561577
215	0xbe021c77	-0.12706171
216	0x3daf92ac	0.08572897
217	0x3f3f4843	0.7471964
218	0xbe8554bc	-0.2604121
219	0xbf0b9e20	-0.54538155
220	0x3ed0802e	0.40722793
221	0xbe437554	-0.19087726
222	0xbd7b4928	-0.061349064
223	0x3dc72c05	0.09725193
224	0xbefd2314	-0.49440825
225	0x3e44f097	0.19232403
226	0xbec4c449	-0.38431004
227	0x3ea7ffeb	0.32812437
228	0xbeab5e53	-0.334704
229	0xbf040e87	-0.51584667
230	0x3c6fdb5f	0.0146397045
231	0x3eefe7de	0.46856588
232	0x3da5e3d0	0.081000924
233	0x3eb85f6d	0.36010304
234	0xbdf7bec9	-0.12096936
235	0xbde1c5f0	-0.11024082
236	0xbd09bfd8	-0.033630222
237	0xbed710b8	-0.42004943
238	0xbdabf70d	-0.083967306
239	0xbee6f9c7	-0.4511244
240	0xbeb01f63	-0.34398946
241	0xbed499b1	-0.41523507
242	0xbe0b68b4	-0.1361416
243	0xbef15208	-0.47132897
244	0xbe727405	-0.2367707
245	0xbea27221	-0.31727698
246	0xbd7f698f	-0.062356528
247	0xbeed6216	-0.46363896
248	0x3e2cd439	0.16877832
249	0xbe1dfea3	-0.15429167
250	0x3d4ea8af	0.050453838
251	0xbe22b5b6	-0.1588963
252	0xbf42dd4b	-0.76118916
253	0x3f093494	0.5359585
254	0xbeb64e86	-0.35606784
255	0x3e290fa7	0.16509877

fcs.1.bias f4 [5]
0	0xbdabaab8	-0.083821714
1	0x3d653668	0.05596009
2	0xbe2f4249	-0.1711513
3	0x3c9a47f2	0.018833134
4	0x3e3e69ba	0.18595019
