cache/ckpts/GATClenRes-genius_genius_trialNo2.pt (torch, 10843 bytes, 5 tensors)

alpha_params f4 [64, 17]
000000 53 1b 1d 3f a5 ce c4 be 02 46 ce be ea 4b ca be
       0.6136982 -0.38438907 -0.40287787 -0.39511043
000010 f2 cb ca be 66 d0 9e be 49 d7 c3 be 13 5c 60 be
       -0.39608723 -0.3101837 -0.38250187 -0.21910124
000020 a5 35 c9 be ff 27 b0 be 17 80 cb be b8 ce d0 be
       -0.3929874 -0.34405515 -0.39746162 -0.40782714
000030 a5 56 bf be df 74 bc be a5 0e c5 be d5 6e b8 be
       -0.37370792 -0.36807916 -0.38487735 -0.36022058
000040 65 ff 73 be fe ee 41 3f 14 3b b4 3e b5 10 b3 3e
       -0.23827894 0.757553 0.35201323 0.34973684
000050 c6 83 bf 3e c0 29 9f 3e 17 6b b0 3e 18 36 8f 3e
       0.37405223 0.3108654 0.34456703 0.27970958
000060 e1 d9 50 3e 3a e0 ad 3e 28 19 a2 3e 96 22 ae 3e
       0.20395614 0.33960134 0.31659818 0.34010762
000070 a9 00 b2 3e ad 39 a6 3e 14 38 b5 3e 1f 58 a8 3e
       0.3476613 0.32465878 0.35394347 0.3287973
000080 85 97 9c 3e fa 8e 29 3e c2 64 b3 3f 89 6b c3 3e
       0.3058435 0.16558447 1.4015124 0.3816798
000090 0e 1b d0 3e 7a c1 c5 3e 47 8a a6 3e f9 e4 bf 3e
       0.4064564 0.38624173 0.32527372 0.3747938
0000a0 31 2e ab 3e 73 c5 bf 3e 8b ab bd 3e 22 9a d6 3e
       0.3343368 0.3745533 0.3704494 0.4191447
0000b0 50 02 cd 3e a4 af c7 3e 38 02 d5 3e ff e9 c2 3e
       0.40040827 0.3900119 0.41603255 0.3806915
0000c0 39 62 d0 3e 3c d2 cc 3e 42 89 a7 3e 05 55 18 3f
       0.40699938 0.40004146 0.32721907 0.5950473
0000d0 c3 6c d1 be 95 f4 d4 be ba 29 d3 be 8c a7 c7 be
       -0.4090329 -0.4159285 -0.41242772 -0.38995016
0000e0 6b ab 55 be b6 d9 c9 be 6b 5b 63 3c c8 9f d4 be
       -0.20866172 -0.39423913 0.013876776 -0.41528153
0000f0 ba d3 cf be 1a 42 d5 be 98 d1 d6 be 41 35 d2 be
       -0.40591222 -0.41651994 -0.41956782 -0.41056255
000100 ab ec d5 be 2c 72 d0 be 66 7f ba be 74 b1 be be
       -0.41782126 -0.40712106 -0.36425322 -0.3724476
000110 2a cf 90 3f cc 72 d4 3e 52 ad d3 3e a6 88 d4 3e
       1.1313221 0.41493833 0.4134317 0.41510504
000120 f5 bb b3 3e b7 41 ca 3e 61 28 c4 3e d9 0c 8c 3e
       0.35104337 0.3950326 0.38312057 0.27353552
000130 66 9f c7 3e 33 bc cc 3e ca e0 d1 3e 5f 1b cf 3e
       0.389888 0.39987335 0.40991813 0.4045057
000140 62 c6 c9 3e 5c 74 cf 3e 6f 89 d4 3e f7 5a c3 3e
       0.39409167 0.40518463 0.41511104 0.38155338
000150 dc 98 a8 3e 30 1b 4e 3f 5b f6 b0 3e 5c 8a bd 3e
       0.32929122 0.80510235 0.34562954 0.37019622
000160 a9 27 bb 3e 6f fb b5 3e c8 b2 85 3e 06 2f a2 3e
       0.36553696 0.3554339 0.26112962 0.316765
000170 5e 4e c1 3d 28 13 a3 3e 26 5d a7 3e dd aa af 3e
       0.094387755 0.31850553 0.32688254 0.34310046
000180 a0 3c b2 3e 06 35 b4 3e 59 a3 a5 3e db 5e b6 3e
       0.34811878 0.35196704 0.32351187 0.35619244
000190 a9 3a 9b 3e 6e 13 58 3e bd 08 19 3f 50 63 c6 be
       0.30318192 0.21101162 0.5977896 -0.38747644
0001a0 2a 00 ce be 1f 5c c8 be 7a 1c bc be 52 d6 c1 be
       -0.402345 -0.39132783 -0.36740476 -0.37858826
0001b0 08 5c aa be 91 88 a4 be ba fc b1 be 9b d3 cd be
       -0.3327334 -0.32135442 -0.34763128 -0.40200505
0001c0 60 55 ca be ad 45 b8 be 69 0c d0 be 24 cf c2 be
       -0.3951826 -0.35990658 -0.40634468 -0.3804866
0001d0 48 22 cc be 2a be c6 be 6c bd 9d be e8 59 19 3f
       -0.39869905 -0.3881696 -0.3080858 0.5990281
0001e0 4d 52 cf be cb bf ce be 57 1f d1 be 2f 6f c6 be
       -0.40492478 -0.403807 -0.40844223 -0.387567
0001f0 a1 00 c3 be 80 c1 b1 be cb a8 88 be 55 48 ca be
       -0.38086417 -0.3471794 -0.2669128 -0.3950831
000200 59 f8 c4 be 44 d1 c2 be 23 12 cf be 95 50 c2 be
       -0.38470724 -0.38050282 -0.40443525 -0.37952104
000210 62 96 cc be 88 04 c1 be f4 bb b5 be 5e a8 8d be
       -0.39958483 -0.3769877 -0.3549496 -0.27667516
000220 a2 ba 1d 3f d8 98 c1 be f0 c4 d0 be 77 71 c5 be
       0.61612904 -0.37811923 -0.4077525 -0.3856313
000230 23 56 ac be aa 92 bb be 52 71 ad be 04 8e a8 be
       -0.33659467 -0.36635333 -0.3387552 -0.3292085
000240 59 47 bf be 87 70 d3 be bc 87 c7 be c2 92 c3 be
       -0.3735912 -0.4129679 -0.38970745 -0.38197905
000250 34 56 d1 be cf eb c2 be 82 cd d1 be 2e 72 c5 be
       -0.4088608 -0.38070533 -0.40977103 -0.38563675
000260 58 49 a4 be a3 bf 2f 3f 54 22 c7 be c7 0b d0 be
       -0.32087207 0.6865179 -0.38893378 -0.40633985
000270 d1 16 c8 be a2 db bd be 6f ff b4 be 9d da 9d be
       -0.39079908 -0.3708163 -0.3535113 -0.3083085
000280 6c 25 af be 34 5f bf be 0b d3 c7 be 9c b9 bc be
       -0.34208238 -0.37377322 -0.390282 -0.3686036
000290 2e 41 c2 be c2 61 c7 be cd 9d ad be 83 61 cf be
       -0.37940353 -0.3894177 -0.33909455 -0.40504083
0002a0 e4 13 c3 be 04 20 b3 be 5e a2 af 3f c5 ea d0 3e
       -0.38101113 -0.34985363 1.3721426 0.40804115
0002b0 b5 a0 d3 3e c2 b0 cf 3e c1 f9 bc 3e 17 39 c2 3e
       0.41333547 0.40564543 0.36909297 0.3793418
0002c0 e0 88 bc 3e a5 a2 b9 3e 74 8f bf 3e 40 5a d0 3e
       0.36823177 0.362569 0.37414134 0.40693855
0002d0 84 fa ce 3e 73 6b ce 3e 92 dc cb 3e 4e 6f c5 3e
       0.40425503 0.40316352 0.3981672 0.3856148
0002e0 4f 3b d8 3e ea 48 c4 3e 00 bd fe 3d 9f 22 a4 3f
       0.4223275 0.3833688 0.12438393 1.2823066
0002f0 b3 06 d8 3e 3f 5b d8 3e 59 a8 d7 3e e4 f4 c4 3e
       0.4219261 0.42257115 0.42120627 0.38468087
000300 bb 15 d1 3e 9a a7 bd 3e 9a e5 a7 3e aa 26 c5 3e
       0.40836892 0.37041932 0.3279236 0.3850606
000310 ef 12 d3 3e c7 0b d3 3e 8b 3e d1 3e d2 27 d0 3e
       0.41225383 0.41219923 0.4086803 0.4065538
000320 ea db d3 3e f4 a7 cf 3e fc db cd 3e d8 65 af 3e
       0.4137872 0.40557826 0.40206897 0.34257388
000330 4c d1 19 3f a3 c3 c4 be 23 15 cc be e0 88 c1 be
       0.60084987 -0.3843051 -0.39859876 -0.3779974
000340 b0 f4 a3 be 72 9c b0 be 35 ad aa be 0a f8 a3 be
       -0.3202262 -0.34494358 -0.3333527 -0.32025176
000350 ea a2 be be b2 84 d1 be 88 a1 c2 be c7 a1 c2 be
       -0.3723367 -0.4092155 -0.38013864 -0.3801405
000360 c5 23 d1 be 1c c1 c2 be 54 e9 cc be 13 db cc be
       -0.40847602 -0.38037956 -0.40021765 -0.4001089
000370 70 a7 9a be 9c 4a 18 3f cd d8 cc be 5d b2 d3 be
       -0.3020587 0.59488845 -0.40009156 -0.41347018
000380 8a f5 cb be ac b3 a9 be cd 6a c3 be 02 b4 b6 be
       -0.3983577 -0.3314489 -0.3816742 -0.3568421
000390 6c f5 ae be ad b7 c8 be 57 2c d5 be e1 b7 cc be
       -0.34171617 -0.39202634 -0.4163539 -0.39984038
0003a0 8c ba ca be 54 9a ce be dd 36 cf be fd 09 d0 be
       -0.3959545 -0.40352118 -0.40471545 -0.4063262
0003b0 c7 79 c8 be 36 22 b4 be 9b 3a 17 3f f3 3f ca be
       -0.3915541 -0.3518235 0.590738 -0.39501914
0003c0 51 9b d0 be 81 02 cd be 7a b6 b9 be ad bd ca be
       -0.40743497 -0.40040973 -0.3627203 -0.39597836
0003d0 01 f5 b7 be 57 30 9a be 3f 55 bd be ac e8 c5 be
       -0.3592911 -0.30115005 -0.369791 -0.38654077
0003e0 ce 2e ce be 1c a9 c2 be 13 75 c1 be 00 04 b9 be
       -0.40270084 -0.38019645 -0.37784633 -0.36135864
0003f0 04 a2 be be d0 59 cc be 65 2b 96 be cf 0f a4 3f
       -0.37232983 -0.39912271 -0.29329982 1.2817324

fcs.0.weight f4 [64, 12]
000000 25 8d 33 be ed 21 33 3c 04 58 a5 3d 4b c7 55 3e
       -0.17534311 0.0109333815 0.08073428 0.20876805
000010 f4 eb 06 3c f4 97 1b 3e b8 a7 bf bd 53 8e d4 bd
       0.008234967 0.15194684 -0.09358162 -0.10378709
000020 f4 4d 2a bd c5 40 93 bd e8 2e 4b be dd 93 c8 3d
       -0.04157825 -0.07190088 -0.19842112 0.09793828
000030 af 9f bc 3c 41 86 a0 3c 8a 9c 46 3e bf 93 73 bb
       0.023025362 0.019595267 0.19395652 -0.003716692
000040 f7 cb 45 be 2a 29 59 bd 3f 5a 67 bd 56 66 20 3e
       -0.19316088 -0.053017773 -0.05648255 0.15664038
000050 1a 73 47 bc f1 00 5a be bf b1 4f 3e b5 3e 2d be
       -0.012173438 -0.21289422 0.20282649 -0.16918452
000060 a1 55 5d 3e 5a 75 05 be 79 43 df 3b 4d 22 b1 3d
       0.21614696 -0.13033047 0.0068134633 0.086491205
000070 86 b4 46 3e 26 8b 2c 3d f3 40 63 bb bc 4e bb 3d
       0.19404802 0.04212489 -0.0034676164 0.09145877
000080 4a 99 ae 3a 33 78 10 3e 3a 6d d9 3c 90 6f 3b be
       0.001332083 0.14108352 0.026541341 -0.18304276
000090 63 7e 90 bd 4a 4d 39 3d 08 05 13 be a7 c2 8a 3c
       -0.07055356 0.045239724 -0.14357388 0.01693852
0000a0 37 b5 25 3b d1 8d c7 3d 9c 69 ca bd 4a 49 5d be
       0.0025285014 0.09743846 -0.09883425 -0.21609989
0000b0 f1 f2 e2 3d 8e 6a 8e bd 00 2a 38 3c a1 ea 18 3c
       0.11081494 -0.069539174 0.011240482 0.009333284
0000c0 cd 7d eb 3d f2 60 2f 3e 30 56 47 3e 61 d2 00 be
       0.11498604 0.17126825 0.19466472 -0.12580253
0000d0 5a 05 93 bb 04 be 04 3c 9c 79 9f 3c 24 a1 47 be
       -0.004486722 0.008101944 0.019467168 -0.19495064
0000e0 87 65 1f 3d ae 92 bd bd 03 37 54 3c 5e c0 59 3e
       0.038915183 -0.092564926 0.012952569 0.21264789
0000f0 7f 4e 56 bd 2c 8f 9e bd a9 2a 5e 3e f3 c2 e7 3d
       -0.052320953 -0.077421516 0.21695961 0.113164805
000100 9c 16 a8 bd 36 54 44 3e dd 1a b0 3d c9 f1 03 bb
       -0.082074374 0.19172749 0.08598874 -0.002013313
000110 89 cb c4 bd 9d 63 17 be ef 37 b6 3d 31 8b 34 3e
       -0.09609134 -0.14784093 0.08897387 0.17631222
000120 e9 88 0d 3e f2 14 a4 3b 69 94 46 3e 03 8f 47 3c
       0.13821758 0.0050073797 0.19392551 0.012180093
000130 ab 88 3e 3e 33 d9 d4 ba d4 2c 90 bd e2 3e b2 ba
       0.18606822 -0.0016239047 -0.070398 -0.0013599063
000140 1e fb 05 be 5a 47 ff ba 4a a3 f0 3d 38 0f 5f be
       -0.13084075 -0.001947622 0.11749895 -0.21783149
000150 9a 81 60 3c 93 02 07 be ee 62 48 3c 68 b0 2b be
       0.013702774 -0.13184576 0.012230618 -0.16766512
000160 83 1d e5 bd 48 4a 99 bd 9c aa 48 be 23 a3 19 be
       -0.111872695 -0.07484871 -0.19596332 -0.15003638
000170 5c 4d c1 bb c5 fe 63 3d c4 af e9 bd f9 2f 29 3e
       -0.0058991145 0.05566289 -0.11410478 0.16522206
000180 56 c7 52 3d 6c b0 9b bd 3e fe 0d be c3 ff 02 3e
       0.051459633 -0.07602009 -0.13866517 0.12792878
000190 7c 76 a9 3b 0d f9 d0 3d 12 8d 03 3d 31 3a 86 3d
       0.005171595 0.10203753 0.032116957 0.06554068
0001a0 4a 27 f5 3b 66 8c 24 3e b5 95 bb bd 2f 48 3a 3c
       0.0074814903 0.16069183 -0.09159414 0.011369749
0001b0 bc c5 08 be 31 22 f1 bd 77 c9 4d 3c a4 91 ed bd
       -0.1335668 -0.117740996 0.01256024 -0.11600044
0001c0 3a 56 f8 bd 52 68 f2 3d 7e eb 04 3e 3d d1 57 be
       -0.121258214 0.11836304 0.12980458 -0.21075912
0001d0 6e e9 91 3c 75 57 2b 3e 21 93 0f 3b 4f 0d b9 3d
       0.017811503 0.16732581 0.0021907764 0.090357415
0001e0 4c 05 e5 3b 19 59 60 be cd e7 2c 3e 1c a1 e1 bb
       0.006989157 -0.21908988 0.168853 -0.006885661
0001f0 76 b8 5c be 00 e6 96 3c 65 a5 51 3e bb 92 3d be
       -0.21554741 0.01842022 0.2047325 -0.18513004
000200 19 be 62 bd 03 0b 3d 3e d3 23 4f 3d 9d ce 80 bd
       -0.055357073 0.18461232 0.050571274 -0.06289408
000210 d5 eb 23 3e f6 d9 b6 3c 04 6f 03 bb 42 df 35 3e
       0.16007932 0.022320729 -0.0020055184 0.17760947
000220 d6 77 2a 3e b6 58 db 3d 02 50 1a bc f9 02 88 3d
       0.16647276 0.1071028 -0.009418489 0.06641192
000230 47 86 12 3e 4b c7 08 be 58 a7 0c bc 55 cc b7 3d
       0.14309035 -0.13357274 -0.00858482 0.0897452
000240 f2 e5 5a 3c c8 e4 4c 3e 97 01 5b be 21 da 10 be
       0.013360487 0.20009148 -0.21387325 -0.1414571
000250 67 a8 5f be ce 8b 95 3d 4e 22 bb 3a af 69 f5 bd
       -0.21841584 0.07302056 0.0014277191 -0.11983048
000260 13 20 0e 3d 03 d6 2e 3d 60 be b9 bc 21 21 32 be
       0.034698557 0.042684566 -0.022673786 -0.1739545
000270 be 27 fe 3d 05 c6 53 3e c7 67 3d 3d 84 83 30 3d
       0.12409924 0.20681007 0.046241548 0.043094173
000280 e4 56 b5 bb 12 bf fe bd 1d ed 22 3c 2c a5 0c 3d
       -0.00553404 -0.124387875 0.0099442275 0.034337208
000290 06 e3 f4 3d 20 55 b3 3a ff 08 40 be 3b 16 5a be
       0.11957364 0.0013681985 -0.18753432 -0.21297543
0002a0 ea 15 3f 3e 0d 32 1f be ae a7 11 be e6 18 83 3b
       0.18660703 -0.15546437 -0.14224121 0.004000771
0002b0 af 22 0b be 23 ed 5f 3e f2 f2 46 3c 4c 07 f7 bd
       -0.1358745 0.21867804 0.012142884 -0.12061939
0002c0 55 b4 4b 3e 2f c3 46 bc 77 6d 12 3e df 23 0e 3e
       0.1989301 -0.012131496 0.1429957 0.13880871
0002d0 e2 4d cd bc a7 11 30 3b fb 9b 39 bc 1a b0 a3 3b
       -0.025061551 0.002686599 -0.011328693 0.004995358
0002e0 56 07 0f 3e 9f cd f6 bd 58 69 ba 3d ce 0b 31 3c
       0.13967642 -0.12050938 0.09102124 0.010806037
0002f0 ff 74 db bd 8c 77 4f be 1e 44 38 3e 1a 9b 48 3d
       -0.107156746 -0.20260447 0.17994735 0.04897604
000300 04 79 df 3b f7 c7 a0 bd aa bb 86 bd a9 4f 26 3e
       0.006819846 -0.0785064 -0.06578763 0.16241325
000310 56 e1 1f 3b c9 53 ac 3d ee 4d fb bd cd 6d 7a 3a
       0.0024395785 0.08414418 -0.12270723 0.0009553105
000320 19 9c 51 3b dc 6b 51 be 04 49 e1 39 de 83 e9 3d
       0.003198391 -0.20451301 0.00042969745 0.11402105
000330 5e 99 2a 3e 6a 3b f2 3b 90 63 53 be d8 47 05 bc
       0.16660067 0.0073923366 -0.20643449 -0.008134805
000340 b6 b7 e1 3d 47 a6 9f bd b4 2c 42 3e f2 ce 67 bd
       0.11021368 -0.07795387 0.18962365 -0.056593843
000350 c4 f6 0f bd c4 f1 66 bb 75 96 88 3d df 14 cc 3d
       -0.035147443 -0.0035239318 0.066693224 0.09964918
000360 61 71 d9 3d a2 79 c1 bb 19 4f 25 3e aa 5d ca 3d
       0.106173284 -0.0059043923 0.16143455 0.09881146
000370 e4 97 80 3c af c6 58 bd 26 2b b1 3d 1b 77 16 3e
       0.015697427 -0.052923854 0.08650808 0.14693873
000380 aa c2 fe 3b 41 79 be 3d b9 5e 35 3e 9d a3 1b 3c
       0.0077746706 0.09300471 0.17711915 0.009499458
000390 4e 15 4e bc 74 62 51 3c d3 a2 3f 39 fb 65 7e ba
       -0.012578322 0.012779821 0.00018275836 -0.00097045273
0003a0 02 cc 3b 3e 1f 99 00 bd 44 7a 52 3c d9 05 47 bc
       0.18339542 -0.031396028 0.012846533 -0.01214739
0003b0 ec 46 3b be e3 aa 55 b8 f6 b9 10 be e2 85 1a be
       -0.18288773 -5.0942308e-05 -0.14133438 -0.15090135
0003c0 12 c8 c8 bb f4 88 35 3b 6e 88 4f 3d 49 57 5a 3e
       -0.006127366 0.0027700039 0.05066722 0.21322359
0003d0 f8 e8 45 bc 97 44 ae bd 1c c0 5b be 73 cf 43 be
       -0.01207947 -0.08509176 -0.21460003 -0.19122104
0003e0 83 82 25 be 7d d3 13 bc 8e 70 2e be ac 65 ad bc
       -0.16163068 -0.009022591 -0.17035124 -0.021166645
0003f0 08 d5 f0 3d e0 16 9b 3d 81 43 2d 3c 18 57 44 3e
       0.117593825 0.075727224 0.010575176 0.19173849

fcs.0.bias f4 [64]
000000 fc 8c d6 3d 3c 33 c6 ba bb cd 10 3e 05 2d bc bc
       0.104761094 -0.001512147 0.1414098 -0.022970686
000010 36 e1 26 bd 9f 0f da 3c a7 44 10 be e5 6a 2f 3e
       -0.04074212 0.026618777 -0.14088689 0.17130621
000020 10 d8 bd bd d6 61 87 3b bc 78 9b 3d 2b e9 5f 3e
       -0.09269726 0.004131536 0.07591388 0.2186629
000030 98 32 92 3d 80 2d c0 bd e4 08 ab 3d e3 03 bd 3b
       0.07138556 -0.093836784 0.08351305 0.0057682856
000040 29 3e db 3a 7f 07 36 3e 5e 97 02 3c f1 8d 5e be
       0.0016726899 0.17776297 0.007970659 -0.21733834
000050 11 7e 59 3d bd 3f f7 3d 2f 71 46 bc 2b d1 38 3e
       0.053098742 0.12072704 -0.012111946 0.18048541
000060 4a af f4 bc ca 90 22 3e 56 9d c6 bd e9 b2 df bd
       -0.02986874 0.15875545 -0.09697978 -0.10922796
000070 1d 4e 46 bc d8 c9 a2 3c 26 ca d2 3d b1 bd 05 bd
       -0.012103585 0.019871637 0.10292463 -0.032651607
000080 d4 d5 40 bd 63 68 c3 3b b8 20 8e bd 65 5b 36 3c
       -0.047078922 0.0059633716 -0.06939834 0.011130189
000090 11 35 1e bc 4e ca 0f be 5c c7 08 be 72 5b 1b 3e
       -0.009656207 -0.14042017 -0.133573 0.15171602
0000a0 c2 f9 77 bb 00 50 1d 3e 0c cc 19 3e 5c 80 51 3e
       -0.0037838076 0.15362549 0.15019244 0.20459121
0000b0 5b 18 1d 3e f7 bf b4 bd 3d 0d 54 bb 10 e5 9b bd
       0.15341322 -0.08825677 -0.0032356523 -0.076120496
0000c0 f3 9d 31 39 08 a5 0b bc 30 95 93 bd 91 8e d4 bd
       0.00016938876 -0.008523233 -0.0720619 -0.10378755
0000d0 bf 10 b1 3d bc b3 45 b9 ff 7f 1a be ab dd 50 3e
       0.08645772 -0.0001885434 -0.15087889 0.2039706
0000e0 f4 36 01 3d 82 3f 03 3e db 61 47 3e 79 d7 30 be
       0.031546548 0.12817195 0.19470923 -0.17269696
0000f0 65 08 18 be 4b a3 e0 bd 76 10 7d bb 7d 3f df bc
       -0.14846952 -0.10968646 -0.0038614548 -0.027251953

fcs.1.weight f4 [2, 64]
000000 e4 fd b6 bd 27 6f d3 bc 7f 77 c1 3d cf a6 5d bd
       -0.089351445 -0.025809838 0.0944662 -0.05411416
000010 a1 cd a0 3d 65 66 3d bc f3 e1 ae bd 4a 70 74 bd
       0.078517206 -0.011560057 -0.0853919 -0.0596774
000020 f3 fb 89 bd 21 34 88 bd 6c 96 31 3d 61 65 6f 3d
       -0.067375086 -0.06650568 0.043356344 0.05844629
000030 a1 b6 ab bd a5 bb 6a bd 75 6f b2 bd b4 2e a9 3d
       -0.08384443 -0.057307858 -0.08712665 0.08260861
000040 80 90 8d bd 0f ae 28 3d c5 f5 ba 3d b0 30 83 bc
       -0.06912327 0.04118162 0.09128908 -0.016014427
000050 99 39 59 bc d5 5a 81 bd e2 93 ad bd 3a 6f 95 3d
       -0.013258361 -0.06316153 -0.08475472 0.072966054
000060 d4 86 8f bd f9 cb 9a 3d 3c 31 8b bd 27 4c 84 3d
       -0.07008138 0.07558436 -0.067965 0.064598374
000070 77 8b ca 3d 30 6c 07 3d 3b 19 8c 3d 41 b3 bc 3d
       0.09889882 0.03306216 0.0684075 0.092138775
000080 05 3f a3 bd f9 77 ae 3d a2 21 a8 bd 3f 40 48 3d
       -0.079710044 0.08518977 -0.0820954 0.048889395
000090 c9 a3 af 3d 32 d8 b2 bd 4f 18 88 bd 0b 42 33 3d
       0.085761614 -0.08732642 -0.066452615 0.043764155
0000a0 15 40 a3 3d d9 13 90 bd dc f2 a2 3d 7d 38 9e bd
       0.07971207 -0.07035036 0.07956478 -0.07725618
0000b0 fd 5d 50 bd 16 2d 20 3d 84 23 67 bd bb a2 08 3d
       -0.050870884 0.039105497 -0.056430355 0.033358317
0000c0 88 60 95 bc 56 83 b8 3d 70 62 ab bd d3 0a 6f bd
       -0.018234506 0.09009425 -0.08368385 -0.058359932
0000d0 8a 42 74 bd 0a 6d 72 bd 58 8e b1 bd 4d 2e 8e bd
       -0.05963377 -0.05918602 -0.08669728 -0.06942425
0000e0 e8 0c c9 3d e2 14 5b bd 94 c4 a9 3d f6 a1 a0 bd
       0.09816915 -0.053486712 0.082894474 -0.078433916
0000f0 03 4a b2 3d 70 25 9d bd a4 a5 86 bd 70 5a 8c bc
       0.08705523 -0.07673156 -0.06574562 -0.017132968
000100 ad 7a 91 3d 43 45 a0 bd 19 5c a0 bd 09 11 73 3d
       0.07103477 -0.078257106 -0.07830066 0.059342418
000110 68 57 b5 bc 06 1b 99 bd f1 b1 c0 3d 9f 12 31 3d
       -0.022136405 -0.074758574 0.0940894 0.04323065
000120 13 35 97 3d b5 40 bb 3d 26 26 ab bd 63 39 94 bd
       0.0738317 0.09143201 -0.083568856 -0.07237508
000130 82 98 a8 3d f3 48 9d 3d 58 d7 77 3d 33 8c 9d bd
       0.082322136 0.076799296 0.060508102 -0.076927565
000140 a5 14 74 3d 44 43 a8 bd fa 06 89 bd 4c 20 cd bd
       0.05959 -0.08215955 -0.06690784 -0.10015926
000150 42 1d 97 3d 38 d0 26 bd 4b a5 70 3d bd a6 b0 bd
       0.07378627 -0.040725917 0.058751386 -0.08625553
000160 15 c3 6e 3d 93 c3 af bd db c1 6d 3d ca 3b a8 bd
       0.058291513 -0.08582225 0.058046203 -0.08214529
000170 86 2b 2a bd e7 4e c7 bd d9 93 ab bd 0e c8 9b bd
       -0.041545413 -0.09731846 -0.08377809 -0.07606517
000180 ff 0b 94 3d 0d e2 c0 bd b0 27 67 3d 6d a3 a9 bd
       0.072288506 -0.09418116 0.056434333 -0.08283124
000190 dd 71 bf bd 00 c8 7a 3d e8 37 52 3d 25 0d 9f bd
       -0.093478896 0.06122589 0.051322848 -0.07766179
0001a0 17 fb 87 bc 3b eb 10 3d 56 db a5 bd 28 6d 7e 3d
       -0.016599221 0.035380583 -0.08098476 0.06211582
0001b0 0b d7 8d 3d a6 0a 91 bd 5c a8 a0 3d 13 7a 97 bd
       0.06925782 -0.07082109 0.07844612 -0.07396331
0001c0 6d 85 8b 3d 16 8b 8c bd 0c ed 95 3d 60 7c 80 3d
       0.06812558 -0.06862466 0.07320604 0.06273723
0001d0 30 cd 4c 3d 5f 22 5c 3d 44 9e 49 3d 27 42 52 3d
       0.05000037 0.053743716 0.0492232 0.05133262
0001e0 1b 11 b4 bd 4a 43 83 3d 65 8e 95 bd 25 3a 72 3d
       -0.08792325 0.06409319 -0.0730255 0.059137482
0001f0 25 eb 95 bd d3 f6 6a 3d ec b0 9c 3d b0 3c 8e 3d
       -0.07320241 0.057364296 0.07650933 0.06945169

fcs.1.bias f4 [2]
000000 8c 9a 13 ba 94 7d f0 bd
       -0.0005630634 -0.11742702
