cache/ckpts/GATClenRes-genius_genius_trialNo4.pt (torch, 10843 bytes, 5 tensors)

alpha_params f4 [64, 17]
0	0xbf0c5ccd	-0.548291
1	0xbfb79f44	-1.4345479
2	0xbfd494b5	-1.6607882
3	0xbfab0356	-1.3360393
4	0xbfb912c2	-1.445885
5	0xbf01112e	-0.5041684
6	0xbfc3b6f0	-1.5290203
7	0x3e8f002f	0.27929828
8	0xbfb9e277	-1.4522237
9	0xbf8484c1	-1.0353013
10	0xbf63e960	-0.89027977
11	0xbfa5696f	-1.2922801
12	0xbf61dcc3	-0.8822748
13	0xbed7b42b	-0.42129645
14	0xbf8c2420	-1.0948524
15	0x3db50225	0.088383
16	0xbed8fd39	-0.42380694
17	0x4024d390	2.5754128
18	0x3fbd9052	1.4809668
19	0x3fd49c30	1.6610165
20	0x3fa29bbb	1.2703775
21	0x3fc5d422	1.5455363
22	0x3d65f7bb	0.056144457
23	0x3fd0f30a	1.632417
24	0xbe235bea	-0.15953031
25	0x3fb802ef	1.4375895
26	0x3fa0f39d	1.2574345
27	0x3f382bd0	0.7194185
28	0x3fa49d1c	1.2860446
29	0x3f6be7fa	0.92150843
30	0x3e8987d3	0.26861438
31	0x3f8f0fd2	1.1176703
32	0xbe9bcad2	-0.30428177
33	0x3e2896bc	0.1646375
34	0x401b24b2	2.4241147
35	0x3fbf6b52	1.4954627
36	0x3fc493b5	1.5357577
37	0x3fcad7e9	1.584714
38	0x3fb205ac	1.3907981
39	0x3f9b2037	1.2119206
40	0x3f9a4a41	1.205391
41	0x3f0d2b92	0.5514461
42	0x3f936472	1.1515028
43	0x3f95f0ab	1.1714071
44	0x3f5ca7bc	0.8619344
45	0x3f884080	1.0644684
46	0x3f6b0390	0.9180231
47	0x3f231a0c	0.6371162
48	0x3f43d002	0.7648927
49	0x3ebed898	0.37274623
50	0x3d80f3bb	0.06296488
51	0xbf147cb3	-0.58002776
52	0xbfbb26ff	-1.4621276
53	0xbfdd2fbd	-1.7280194
54	0xbfb2f364	-1.3980527
55	0xbfc0ff43	-1.50779
56	0xbf02f2d9	-0.51151806
57	0xbfc9bf3f	-1.5761489
58	0x3ed3fef3	0.41405448
59	0xbfc89a65	-1.5672117
60	0xbf40e943	-0.7535593
61	0xbf6de211	-0.92923075
62	0xbfb32629	-1.399602
63	0xbf06e820	-0.52697945
64	0xbf449f95	-0.76806
65	0xbf5ca82e	-0.8619412
66	0x3e0f8602	0.14015964
67	0xbf1cfd49	-0.6132398
68	0x402480a2	2.5703511
69	0x3fc093d6	1.5045116
70	0x3fd5d20f	1.670473
71	0x3fb86dbf	1.4408492
72	0x3fbccebb	1.4750589
73	0x3f27242a	0.65289557
74	0x3fc605c2	1.5470507
75	0xbcea7416	-0.028619807
76	0x3fc29b4b	1.5203642
77	0x3f722349	0.9458509
78	0x3f705284	0.9387591
79	0x3fac7379	1.347274
80	0x3f295512	0.6614543
81	0x3f18aa05	0.5963443
82	0x3f7c0215	0.98440677
83	0xbd22ef02	-0.039778717
84	0x3dd88cb2	0.105737105
85	0x4024bf63	2.5741813
86	0x3fba94bb	1.4576639
87	0x3fd4b1bb	1.6616739
88	0x3faa7e9d	1.3319889
89	0x3fc7ca6a	1.5608647
90	0x3e4537c6	0.19259557
91	0x3fcc7382	1.597275
92	0xbe315ea9	-0.17321266
93	0x3fb85fd9	1.440425
94	0x3f9abaf5	1.2088305
95	0x3f480777	0.7813639
96	0x3fadab2c	1.3567863
97	0x3f60869c	0.877054
98	0x3e4badeb	0.19890563
99	0x3f9fe60a	1.2492077
100	0xbe8ab62f	-0.2709212
101	0x3e736530	0.23769069
102	0xbed9843b	-0.42483696
103	0xbfc1f2fb	-1.5152277
104	0xbfc340bd	-1.5254132
105	0xbfcb5971	-1.588667
106	0xbfacf6f8	-1.3512869
107	0xbfa2d6e5	-1.2721831
108	0xbf9eb04b	-1.239755
109	0xbeef4e04	-0.4673921
110	0xbf96ae07	-1.1771859
111	0xbf8d32f1	-1.1031171
112	0xbf7196d8	-0.94370794
113	0xbf895eb3	-1.0732025
114	0xbf664524	-0.8994925
115	0xbf2397e0	-0.6390362
116	0xbf32c155	-0.6982625
117	0xbe96332e	-0.29335922
118	0xbe532f51	-0.20623519
119	0x401f8b2f	2.49287
120	0x3fb558dc	1.4167743
121	0x3fcf670e	1.6203325
122	0x3f87d622	1.0612223
123	0x3fca2c58	1.5794783
124	0xbeca9bd8	-0.39572024
125	0x3fc27993	1.5193352
126	0x3ed202f8	0.4101789
127	0x3f41203d	0.75439817
128	0x3faa0408	1.328248
129	0x3f1f5e3b	0.6225316
130	0x3f0f5c97	0.56000656
131	0x3f8bd6cf	1.0924929
132	0x3e6cf34a	0.23139682
133	0xbe62832d	-0.22120352
134	0x3f7428d5	0.95374805
135	0xbf4cfa54	-0.8006947
136	0xbef70cdd	-0.48252
137	0xbfc89160	-1.5669365
138	0xbfd7faa9	-1.687337
139	0xbfd07461	-1.6285516
140	0xbfcb0856	-1.5861919
141	0xbf99d5eb	-1.2018408
142	0xbfaf49d1	-1.3694402
143	0xbf0e7296	-0.55643594
144	0xbf8f7d48	-1.1210108
145	0xbf9fdb95	-1.2488886
146	0xbf5cdc87	-0.86274
147	0xbf85d489	-1.0455486
148	0xbf831764	-1.0241513
149	0xbf239a40	-0.6390724
150	0xbf445fa8	-0.7670846
151	0xbef232f8	-0.4730451
152	0xbd41b69c	-0.04729329
153	0xbe951ee7	-0.2912514
154	0xbfc7e34b	-1.5616239
155	0xbfd00877	-1.6252583
156	0xbfc9577b	-1.5729822
157	0xbfc04c9f	-1.5023383
158	0xbf8f77fc	-1.1208491
159	0xbfa2bd07	-1.2713937
160	0xbf06e9bc	-0.527004
161	0xbf9b791f	-1.2146338
162	0xbf89c376	-1.0762775
163	0xbf4d8443	-0.8027994
164	0xbf92e8bb	-1.1477274
165	0xbf6b9259	-0.92020184
166	0xbf30d092	-0.69068253
167	0xbf56aa9d	-0.83854085
168	0xbed4563a	-0.41472036
169	0xbed1a4e7	-0.40946123
170	0x4025f0a7	2.5928133
171	0x3fc464bf	1.5343245
172	0x3fd52865	1.6652952
173	0x3fc8292c	1.5637565
174	0x3fc811f6	1.5630481
175	0x3f80b91e	1.0056493
176	0x3fb80a38	1.4378119
177	0x3ed2317c	0.4105338
178	0x3faf4099	1.3691589
179	0x3f8537f9	1.0407706
180	0x3f6a2c07	0.9147343
181	0x3f990b1f	1.1956519
182	0x3f42eae2	0.7613965
183	0x3f3aec28	0.73016596
184	0x3f5889c5	0.8458522
185	0x3e627705	0.22115715
186	0x3e5d158b	0.21590249
187	0x402aefee	2.6708941
188	0x3fc1f437	1.5152653
189	0x3fdf3403	1.7437748
190	0x3faecb18	1.3655729
191	0x3fd071a3	1.6284679
192	0x3ef93e07	0.48680136
193	0x3fcb884c	1.590097
194	0xbda292a7	-0.07938128
195	0x3fb78b22	1.4339335
196	0x3f82b902	1.021271
197	0x3f653fc2	0.8955041
198	0x3f9c86d9	1.2228652
199	0x3f61b4ac	0.8816631
200	0x3e8e6eee	0.27819008
201	0x3f913766	1.1345031
202	0xbcc1c49b	-0.02365332
203	0xbcf25802	-0.029582981
204	0xbecaf529	-0.39640167
205	0xbfc04248	-1.5020227
206	0xbfc4b791	-1.536852
207	0xbfcc3ae3	-1.5955471
208	0xbfafd1c4	-1.373589
209	0xbfa49ce6	-1.2860382
210	0xbfa49633	-1.2858337
211	0xbef3763f	-0.47551152
212	0xbf9ffe77	-1.2499532
213	0xbf6f51ec	-0.9348438
214	0xbf80a324	-1.0049787
215	0xbf923b40	-1.1424332
216	0xbf468601	-0.77548224
217	0xbf58cf8f	-0.8469171
218	0xbf2510db	-0.64478844
219	0xbe92d2d7	-0.28676483
220	0xbeaabb01	-0.33345798
221	0xbf0da626	-0.5533165
222	0xbfccc22f	-1.599676
223	0xbfcdac02	-1.6068118
224	0xbfd365f0	-1.6515484
225	0xbfb42a2e	-1.4075372
226	0xbf98f019	-1.1948272
227	0xbfa0e471	-1.2569715
228	0xbf001a45	-0.50040084
229	0xbf9ca2cc	-1.2237182
230	0xbf94f158	-1.1636152
231	0xbf57de82	-0.84323895
232	0xbf93eb5f	-1.1556205
233	0xbf555311	-0.83329874
234	0xbf4a3548	-0.7898755
235	0xbf288b70	-0.65837765
236	0xbec34a72	-0.38142735
237	0xbdf9e391	-0.12201608
238	0xbf119a74	-0.568763
239	0xbfc9aa29	-1.5755054
240	0xbfd273b9	-1.6441566
241	0xbfcfb90b	-1.6228346
242	0xbfc34f36	-1.5258548
243	0xbf8f7758	-1.1208296
244	0xbfb0a9d9	-1.3801833
245	0xbeb523ab	-0.35378775
246	0xbfa00bdf	-1.2503623
247	0xbf92ca89	-1.1468059
248	0xbf5256cb	-0.82163686
249	0xbf96e847	-1.1789635
250	0xbf733be6	-0.9501327
251	0xbf429bc0	-0.76018906
252	0xbf46e6ff	-0.7769622
253	0xbec7f5bd	-0.3905467
254	0xbe84a6a9	-0.25908402
255	0x4021f7c6	2.530748

fcs.0.weight f4 [64, 12]
0	0xbd8333e2	-0.0640638
1	0xbd3b45b4	-0.04572077
2	0x3e2c75e8	0.16841853
3	0x3e1609cc	0.14652175
4	0x3d734ff8	0.059402436
5	0x3ea7fd4a	0.32810432
6	0xbcc95045	-0.024574408
7	0xbcb81d9b	-0.022475054
8	0x3b993001	0.004674912
9	0x3b265342	0.0025379215
10	0xba4f370f	-0.0007904628
11	0xbb004156	-0.0019570193
12	0xbbb4feae	-0.0055235242
13	0x3c9d1efc	0.019179814
14	0x3e801261	0.25014022
15	0xbc8fae38	-0.017539129
16	0x3d8849c0	0.06654692
17	0x3e7dccaf	0.24785112
18	0xbd033e5d	-0.032041896
19	0x3e2047d9	0.15652408
20	0x3d595a68	0.053064734
21	0x3afdd39b	0.0019365432
22	0x3aea1257	0.0017858249
23	0xbb82f75c	-0.0039967727
24	0xbc785257	-0.01515635
25	0x3db184e7	0.08667927
26	0xbcefaaeb	-0.029256305
27	0x3e32a654	0.17446262
28	0x3bf884fc	0.0075842123
29	0x3d1aded6	0.03781017
30	0xbac9e667	-0.0015403748
31	0x3ce8641a	0.028368045
32	0x3a397980	0.0007075295
33	0x3b5882d0	0.0033036955
34	0x3a5e28d9	0.00084747147
35	0xbb6a8b58	-0.0035788622
36	0xbd59edb5	-0.05320521
37	0x3bbc6c9a	0.005750251
38	0x3dd8dfe5	0.105895795
39	0x3d4e72d0	0.050402462
40	0x3e20866d	0.1567628
41	0x3e99b2f9	0.30019358
42	0xbd7c3a30	-0.06157893
43	0xbdb1ca60	-0.08681178
44	0x3ccd87b6	0.025089126
45	0x3b30d712	0.002698366
46	0xba657a70	-0.00087539013
47	0xbb4c1135	-0.0031138186
48	0xbd794c09	-0.06086353
49	0xbd92d207	-0.07168966
50	0x3e75740c	0.2397005
51	0x3e14cf28	0.14532149
52	0x3e21a7ec	0.15786713
53	0x3e0e773c	0.13912672
54	0xbd0923ba	-0.033481337
55	0x3e3eaec5	0.18621357
56	0xbaad14d4	-0.001320506
57	0x3a18d783	0.00058304536
58	0xba87d001	-0.0010361673
59	0x3a446a1d	0.0007492619
60	0xbd894d07	-0.06704145
61	0xbd59e823	-0.0531999
62	0x3e0267f7	0.12734972
63	0x3daba427	0.08380919
64	0x3e2ce898	0.16885602
65	0x3ece17a0	0.402524
66	0xbd2c72b4	-0.042101577
67	0x3e3863af	0.18006776
68	0xb9c5f2ca	-0.0003775566
69	0xba4c9fb9	-0.0007805783
70	0xbb05ae87	-0.0020398216
71	0x3b991bae	0.004672489
72	0x3d3413d2	0.043964215
73	0x3db2e8b0	0.08735788
74	0xbd761a0d	-0.060083438
75	0x3e0ddc26	0.13853511
76	0x3b0280f7	0.0019913295
77	0x3ccb7589	0.024836319
78	0xbd7a208c	-0.061066195
79	0x3cbbc879	0.022922741
80	0xbb13fc20	-0.0022580698
81	0xb7ed7410	-2.8306647e-05
82	0x3a152b0e	0.00056903146
83	0x3999fab2	0.00029369217
84	0xbdb9dacb	-0.090749346
85	0xbcf6c97d	-0.030125374
86	0xbd9f1cda	-0.07769175
87	0xbdaef249	-0.08542306
88	0x3df2e6b6	0.11860411
89	0x3e3714e1	0.17879058
90	0xbde33228	-0.11093551
91	0x3ee78500	0.45218658
92	0x3d6c4050	0.05767852
93	0xbc92eea0	-0.01793605
94	0x3bf13921	0.0073615466
95	0x3b3461c2	0.0027524089
96	0x3d862207	0.06549459
97	0xbc72b38f	-0.014813318
98	0xbc9fbf1c	-0.019500308
99	0xbc8ad36b	-0.016946515
100	0xbaad2859	-0.0013210877
101	0xbb7400c5	-0.0037231904
102	0xbc81413d	-0.015778178
103	0x3c02aa1e	0.007975129
104	0xba69d5e5	-0.00089201174
105	0x3b8b29b0	0.004246913
106	0x3b14fc38	0.0022733342
107	0x3a1a6273	0.0005889304
108	0x3dd8403f	0.10559129
109	0xbccb6e8f	-0.024832992
110	0xbc0e8d9a	-0.008700753
111	0xbd57881e	-0.052620046
112	0x3b6d851a	0.0036242665
113	0x3c27da73	0.010244953
114	0x3ca4ba71	0.020108433
115	0x3c2602f1	0.010132537
116	0xba27c505	-0.00063999026
117	0x3b863456	0.0040955944
118	0xba322929	-0.00067962945
119	0xbb184781	-0.002323598
120	0xbda3e063	-0.08001783
121	0xbc9b2578	-0.018938765
122	0x3e60dbb6	0.21958813
123	0x3e5852a1	0.2112527
124	0xbd04a5a2	-0.032384522
125	0x3dfd1210	0.12356961
126	0xbdd09684	-0.101849586
127	0x3e03d534	0.128743
128	0x3b7bb251	0.0038405845
129	0x3b602f61	0.0034207928
130	0x3a7ca853	0.00096381194
131	0x3a8556a3	0.0010172914
132	0xbd661191	-0.056169096
133	0xbd1fa986	-0.03898003
134	0x3e2d7aff	0.1694145
135	0x3d9cc1d5	0.07654158
136	0x3e7f58c8	0.24936211
137	0x3e7bb8a7	0.24582158
138	0xbc331b52	-0.010931807
139	0x3e27ef11	0.1639979
140	0x3c2aa285	0.010414724
141	0xbb145298	-0.0022632238
142	0x3aa1e101	0.0012350382
143	0xbb14fb24	-0.00227327
144	0x3d8201b0	0.06347978
145	0xbb984da6	-0.0046479283
146	0xbc410a57	-0.01178225
147	0x3da498df	0.0803697
148	0xbac3276e	-0.001488907
149	0xba3c1d74	-0.000717602
150	0xbc7b5752	-0.015340643
151	0xb7c384b2	-2.3307603e-05
152	0x3ad83fd8	0.0016498519
153	0x3ac7af5f	0.001523476
154	0xb8d831eb	-0.000103089806
155	0xbb855fde	-0.004070266
156	0x3d778fea	0.06043998
157	0x3e2f7a8f	0.17136596
158	0x3bd704bd	0.006561844
159	0x3e3c3fb6	0.18383679
160	0xbbb8498d	-0.0056240023
161	0x3ca04196	0.019562524
162	0xbd87fb05	-0.06639675
163	0x3c6c5ceb	0.01442645
164	0x3a48774d	0.0007647172
165	0x39e59d79	0.0004379561
166	0xbb4d1311	-0.0031291882
167	0xb9cf7d99	-0.00039575694
168	0x3d851631	0.06498373
169	0x3e0d2f18	0.13787496
170	0xba12884a	-0.00055897667
171	0x3da013ea	0.07816298
172	0x3b6ffab9	0.0036617948
173	0x3ced497e	0.028965708
174	0xbd613530	-0.054982364
175	0x3cdf4a3a	0.027257074
176	0x3b07fd01	0.0020750167
177	0xb8bc0d38	-8.967001e-05
178	0x3b630f89	0.003464671
179	0x3b4968f8	0.0030732732
180	0xbd44a91c	-0.048012838
181	0xbd86791b	-0.06566068
182	0x3e810672	0.2520023
183	0xbd33bf93	-0.04388387
184	0x3d0a42be	0.033755057
185	0x3e225ca1	0.15855648
186	0x3b0e4633	0.0021709322
187	0x3ebda913	0.37043056
188	0xba1266a1	-0.0005584751
189	0x3a211d16	0.0006145997
190	0x3ba4d04f	0.005029715
191	0x3b427083	0.0029669113
192	0xbdde673b	-0.108595334
193	0xbbd713c1	-0.006563634
194	0xbdf8a4cf	-0.1214081
195	0x3e3f21da	0.18665257
196	0xbcb6d00d	-0.022316003
197	0xbc23f150	-0.010006264
198	0xbd966a71	-0.07344521
199	0x3c6fb0b2	0.01462953
200	0x3c7852b1	0.015156434
201	0xbb02ea4c	-0.0019976078
202	0x3843e2df	4.6702913e-05
203	0xba13a765	-0.0005632549
204	0xbd9e962c	-0.07743487
205	0xbc9b09a2	-0.018925492
206	0x3e81af17	0.25328895
207	0x3d7cd765	0.061728854
208	0x3e084cbd	0.13310523
209	0x3e460388	0.19337285
210	0xbd9c2782	-0.07624723
211	0x3e44db49	0.19224276
212	0x3c1a9cfd	0.009436843
213	0x394c8977	0.00019506166
214	0xbac000a3	-0.0014648627
215	0xbaa9077a	-0.0012895905
216	0xbd8c76ff	-0.06858634
217	0xbd23b8fd	-0.03997134
218	0x3e8cc4f3	0.2749401
219	0x3e4c75e7	0.19966851
220	0x3d8a917f	0.067660324
221	0x3e255343	0.16145043
222	0x3bd1f3f5	0.006407256
223	0x3e238ed0	0.15972447
224	0x3a379d87	0.00070043694
225	0xbb1f660c	-0.00243223
226	0x3b8d0a6f	0.0043042223
227	0xb940a9a4	-0.00018373743
228	0xbd63d533	-0.055623244
229	0xbd55b25f	-0.05217206
230	0x3e3fdd07	0.18736659
231	0x3d87a014	0.06622329
232	0x3de89944	0.11357358
233	0x3e3c7216	0.18402895
234	0xbd91de0a	-0.07122429
235	0x3e7c5163	0.24640422
236	0x3be5571e	0.0069989106
237	0x3914cf44	0.00014191592
238	0xbae90845	-0.0017778954
239	0xbb52c91d	-0.003216333
240	0xbc8f9572	-0.017527316
241	0xbe2027ad	-0.15640135
242	0x3e0e44bb	0.13893406
243	0x3dddcb45	0.10829786
244	0xbbaf2d46	-0.005345973
245	0x3e3dbfad	0.1853015
246	0xbc5f47f6	-0.013627997
247	0x3dbd2c7a	0.09236999
248	0x3aaf5aa5	0.0013378455
249	0xbacd63e6	-0.0015670031
250	0xbac1643c	-0.0014754604
251	0x397372da	0.00023217071
252	0xbd575b81	-0.0525775
253	0xbc2b3a7d	-0.010450956
254	0x3e816713	0.25273952
255	0x3db44416	0.08802049

fcs.0.bias f4 [64]
0	0x3c94d45d	0.018167669
1	0x3d3bcc53	0.045849156
2	0xbba87bdf	-0.0051417197
3	0xbd7490dc	-0.05970846
4	0xbd32ee97	-0.04368457
5	0x3c93e138	0.018051729
6	0xba745f5e	-0.0009322072
7	0x3de1a8f7	0.110185556
8	0xbc208c06	-0.009799009
9	0xbad053bb	-0.0015894094
10	0xbd1dc617	-0.03851899
11	0x3d5faa1e	0.054605596
12	0xbb91716b	-0.0044385693
13	0xbd66bafa	-0.05633066
14	0xbb79b5b7	-0.0038102695
15	0x3d0f7522	0.035023816
16	0x3d929e1e	0.07159065
17	0xba190e7f	-0.0005838647
18	0xbd8d0dcb	-0.068873964
19	0xb9e8cfb7	-0.00044405248
20	0xbb289188	-0.002572151
21	0xbcb370b4	-0.021904327
22	0xbbc1e0e4	-0.0059167016
23	0x3e06c774	0.13162023
24	0xbbdd0499	-0.006744933
25	0x3e8bf57d	0.2733573
26	0xbc53aa32	-0.012918996
27	0xbc51847a	-0.0127879325
28	0xbc1203ae	-0.00891201
29	0xbbadcba7	-0.0053038183
30	0xbc596670	-0.013269052
31	0xbc959d86	-0.01826359
32	0xbbd41330	-0.006472014
33	0xbd1fdac2	-0.039026983
34	0xbd6f7e17	-0.058469858
35	0x3d7565d2	0.059911557
36	0x3dca11ee	0.09866701
37	0xbb3d160b	-0.002885225
38	0xbe32a7fe	-0.17446896
39	0x3d5a098a	0.053231753
40	0xb94a0306	-0.00019265348
41	0xbbe8cafe	-0.0071042767
42	0x3d9ce7b9	0.07661385
43	0x3c7c9105	0.015415435
44	0xbce2774f	-0.027644781
45	0x3ca051cd	0.019570256
46	0xbb4d58a9	-0.0031333363
47	0x3d8b0f09	0.06789977
48	0xbe0b7388	-0.1361829
49	0xbbbb6c62	-0.0057197073
50	0xbd0e9129	-0.034806404
51	0x39ba1b9e	0.0003549726
52	0xbc08e65c	-0.008355703
53	0xbc92a2dd	-0.017899925
54	0xbc1ec873	-0.0096913455
55	0x3d828886	0.06373696
56	0x3dc27611	0.09495176
57	0xbbdeff61	-0.006805346
58	0xb93e09b4	-0.00018123427
59	0xbd8de550	-0.069285035
60	0xbd1a3d7f	-0.037656303
61	0xbcf18a2a	-0.029484827
62	0xbe03e31d	-0.12879606
63	0xbced5e3b	-0.028975597

fcs.1.weight f4 [2, 64]
0	0xbf550c60	-0.8322201
1	0x3f2c0de4	0.67208695
2	0x3f554b3d	0.8331793
3	0xbf3b7d3f	-0.73237985
4	0x3f522dc4	0.8210108
5	0x3f31580f	0.6927499
6	0xbf4a7ee4	-0.7909987
7	0x3f3b79dd	0.73232824
8	0xbf3daa05	-0.74087554
9	0xbf400afc	-0.7501676
10	0x3f361b93	0.71135825
11	0x3f418c4a	0.7560469
12	0xbf4c161c	-0.79721236
13	0xbf359305	-0.7092746
14	0xbf4dc6d2	-0.803815
15	0x3f5a6dc2	0.8532373
16	0xbf407eab	-0.7519328
17	0x3f360f0b	0.71116704
18	0x3f556add	0.83366185
19	0x3f2d343f	0.67657846
20	0xbf2d49e5	-0.6769088
21	0x3f26c44c	0.65143275
22	0xbf4da178	-0.80324507
23	0x3f42649b	0.7593476
24	0xbf43eed1	-0.7653628
25	0x3f45f388	0.77324724
26	0xbf4445b7	-0.76668876
27	0x3f3bb668	0.73325205
28	0x3f5dc0aa	0.8662211
29	0x3f30f311	0.6912089
30	0x3f4306f6	0.76182497
31	0x3f50a999	0.81508785
32	0xbf49a52d	-0.78767663
33	0x3f4e1e12	0.80514634
34	0xbf530744	-0.8243296
35	0x3f33e2b7	0.70267814
36	0x3f583c80	0.84467316
37	0xbf4d4d81	-0.80196387
38	0xbf4048e3	-0.75111216
39	0x3f3d6dea	0.7399584
40	0x3f4f72a5	0.8103431
41	0xbf41e990	-0.75747013
42	0x3f43490a	0.76283324
43	0xbf45c27d	-0.7724989
44	0xbf2f04f8	-0.68366957
45	0x3f3fa733	0.748645
46	0xbf3110aa	-0.6916605
47	0x3f3a6c3f	0.7282142
48	0xbf2c97b1	-0.6741896
49	0x3f54a826	0.83069074
50	0xbf4ff6c5	-0.81235915
51	0xbf34cce5	-0.70625144
52	0xbf3c70a2	-0.73609364
53	0xbf3fafa5	-0.7487739
54	0xbf4a1abf	-0.7894706
55	0xbf4ead83	-0.8073351
56	0x3f5ce713	0.8629009
57	0xbf307c15	-0.68939334
58	0x3f4d71b2	0.8025161
59	0xbf50e5ec	-0.8160083
60	0x3f53bec2	0.8271295
61	0xbf49e455	-0.7886403
62	0xbf40ac67	-0.75263065
63	0xbf2d5622	-0.67709553
64	0x3f49b3f2	0.787902
65	0xbf5de0a5	-0.86670905
66	0xbf4945c9	-0.7862211
67	0x3f47973e	0.7796515
68	0xbf345044	-0.70434976
69	0xbf5c079a	-0.859491
70	0x3f4ef620	0.80844307
71	0xbf4a2718	-0.789659
72	0x3f4305b8	0.761806
73	0x3f501f46	0.8129772
74	0xbf529a08	-0.82266283
75	0xbf4dfcfb	-0.8046414
76	0x3f4b3a9d	0.7938631
77	0x3f48ee25	0.7848838
78	0x3f3775ff	0.7166442
79	0xbf555266	-0.83328855
80	0x3f3578bc	0.7088735
81	0xbf516221	-0.8179036
82	0xbf3a3557	-0.7273764
83	0xbf62b962	-0.8856412
84	0x3f4e262a	0.80526984
85	0xbf5d67c3	-0.8648645
86	0x3f35d840	0.71033096
87	0xbf53918f	-0.8264398
88	0x3f36334b	0.71172017
89	0xbf588b3d	-0.8458746
90	0x3f33d49a	0.7024628
91	0xbf4cd01d	-0.80005056
92	0xbf37f0a0	-0.7185154
93	0xbf5804c9	-0.843823
94	0xbf51edda	-0.8200356
95	0xbf427d1d	-0.7597216
96	0x3f44a1b6	0.7680925
97	0xbf543f4a	-0.8290907
98	0x3f37a411	0.7173472
99	0xbf501f1f	-0.8129749
100	0xbf5fde10	-0.87448215
101	0x3f3a32c8	0.72733736
102	0x3f3162e4	0.6929152
103	0xbf511b47	-0.81682247
104	0xbf301a90	-0.6879053
105	0x3f279184	0.65456414
106	0xbf44d4ac	-0.7688701
107	0x3f38fec4	0.7226374
108	0x3f4340c0	0.76270676
109	0xbf50f69c	-0.81626296
110	0x3f45f1f4	0.77322316
111	0xbf4fdef1	-0.81199557
112	0x3f4a9e13	0.7914745
113	0xbf423daa	-0.7587534
114	0x3f4a3a69	0.78995377
115	0x3f3a5527	0.7278618
116	0x3f31f130	0.6950865
117	0x3f35ae6a	0.7096926
118	0x3f2a36cd	0.6648987
119	0x3f3e737b	0.7439496
120	0xbf567760	-0.837759
121	0x3f41754b	0.755696
122	0xbf4405f2	-0.7657157
123	0x3f400cf9	0.75019795
124	0xbf3d9da9	-0.74068695
125	0x3f321ddd	0.6957682
126	0x3f49556c	0.7864597
127	0x3f49a0fa	0.78761256

fcs.1.bias f4 [2]
0	0x3ef64258	0.4809749
1	0xbf19559c	-0.59896255
