cache/ckpts/GATClenRes-genius_genius_trialNo1.pt (torch, 7131 bytes, 5 tensors)

alpha_params f4 [64, 5]
0	0x3f26fb6f	0.6522741
1	0x38d82d24	0.00010308091
2	0x38f7a0cb	0.00011807828
3	0x392bbab7	0.00016377388
4	0x38821c17	6.204115e-05
5	0x3f26f963	0.65224284
6	0x38d93101	0.00010356494
7	0x390bb3ce	0.00013323055
8	0x39b1e167	0.0003392801
9	0xb9117f16	-0.00013875621
10	0x3f26f75c	0.6522119
11	0x389fbed5	7.617256e-05
12	0x38b8e306	8.81609e-05
13	0x38786632	5.9222984e-05
14	0x38e2920a	0.00010803722
15	0x3f26f933	0.65224
16	0x389df959	7.532788e-05
17	0x393ebf28	0.00018191023
18	0x3976da64	0.00023541745
19	0xb82f23bd	-4.1756535e-05
20	0x3f26f8ce	0.65223396
21	0x392be0e2	0.00016391606
22	0x390b5fe8	0.00013291801
23	0x39bb40e6	0.00035715773
24	0xb93cf4ba	-0.00018020245
25	0x3f26f985	0.65224487
26	0x3901851e	0.00012351989
27	0x39d81cc0	0.0004122015
28	0x388f3844	6.829252e-05
29	0x3904e317	0.00012673099
30	0x3f26fc84	0.6522906
31	0x38ea6c78	0.000111781934
32	0x395beb17	0.00020973045
33	0x38dcf9e3	0.000105369625
34	0x3968ed3a	0.00022213618
35	0x3f26f1fb	0.6521298
36	0x38b3832b	8.559817e-05
37	0x3884bdc2	6.3295956e-05
38	0x38afe3aa	8.387056e-05
39	0xb8c5e761	-9.43679e-05
40	0x3f26fa8e	0.65226066
41	0xb6597d86	-3.2408584e-06
42	0xb67aa240	-3.7347345e-06
43	0x384381f0	4.6612637e-05
44	0x34c8f23e	3.7429157e-07
45	0x3f26fab1	0.65226275
46	0x391ce96e	0.00014964279
47	0x39800615	0.00024418594
48	0x390f9d8d	0.00013696235
49	0x391e2175	0.00015080518
50	0x3f26f937	0.6522402
51	0xb858b56d	-5.166738e-05
52	0x37fa12e6	2.9811123e-05
53	0xb910466c	-0.00013759144
54	0x39026060	0.00012433669
55	0x3f26f8b8	0.65223265
56	0xb7b65cf4	-2.1739375e-05
57	0x393a1ae7	0.00017748364
58	0x3955e15b	0.00020397214
59	0x38ef03d2	0.0001139712
60	0x3f26fc14	0.6522839
61	0x393afa75	0.00017831645
62	0x39212bfc	0.00015370542
63	0x391a8aab	0.00014738242
64	0x3798f2ba	1.823284e-05
65	0x3f26f9ce	0.6522492
66	0x391be546	0.00014867363
67	0x397e28cd	0.00024238527
68	0x39040610	0.0001259076
69	0x3981c74a	0.0002475328
70	0x3f26faaa	0.65226233
71	0x38ea034d	0.00011158604
72	0x3931e2fe	0.00016964597
73	0x36afdeb2	5.2413316e-06
74	0x391f9a94	0.00015221006
75	0x3f26f96d	0.65224344
76	0x38889ac7	6.513815e-05
77	0x3946fc1a	0.00018976667
78	0x3811b0b0	3.4735247e-05
79	0x3987fa87	0.00025935864
80	0x3f26f9cf	0.6522493
81	0x394dde9e	0.00019633255
82	0x3914c415	0.00014187426
83	0x38d13f33	9.9776684e-05
84	0x38daecf9	0.0001043919
85	0x3f26f882	0.6522294
86	0x39ab41ed	0.0003266478
87	0x39be2ec5	0.0003627447
88	0x39ac5fe6	0.00032877846
89	0xb940514c	-0.00018340832
90	0x3f26f7c8	0.65221834
91	0x39412756	0.00018420568
92	0x38fb688b	0.00011988085
93	0x39873d4a	0.0002579487
94	0x38432156	4.652267e-05
95	0x3f26f908	0.6522374
96	0xb86134af	-5.3693246e-05
97	0x39698af3	0.00022272374
98	0x390f23ef	0.00013650929
99	0x388b2609	6.635121e-05
100	0x3f26fa1c	0.65225387
101	0x381feebb	3.813089e-05
102	0x39e77664	0.0004414796
103	0xb9aadadb	-0.00032587987
104	0x39f916d5	0.00047509992
105	0x3f26f9fb	0.6522519
106	0x38c617f5	9.445838e-05
107	0x39d12f19	0.00039898677
108	0xb993b2d4	-0.00028171262
109	0x39d7dc99	0.00041172354
110	0x3f26faef	0.65226644
111	0x395ec827	0.00021246132
112	0x391b5d93	0.00014816811
113	0x3996cfc3	0.00028765024
114	0xb72c899e	-1.028404e-05
115	0x3f26f762	0.65221226
116	0x3919e9ff	0.00014678387
117	0x3933b1f3	0.00017137062
118	0x395807ba	0.00020602244
119	0x38493d07	4.797897e-05
120	0x3f26f990	0.6522455
121	0x3981127a	0.00024618563
122	0xb8134d04	-3.5119258e-05
123	0x39c352c4	0.00037254964
124	0xb9a5b09b	-0.00031602834
125	0x3f26f042	0.65210354
126	0x390c3fa0	0.00013375143
127	0x392a9dcb	0.00016271246
128	0x389aae1f	7.375725e-05
129	0x38e64ada	0.00010981197
130	0x3f26f931	0.65223986
131	0x382416da	3.912193e-05
132	0xb9031db5	-0.000125042
133	0x3919db74	0.0001467297
134	0xb6c344db	-5.8194687e-06
135	0x3f26f80a	0.6522223
136	0x396c2e66	0.00022523999
137	0x39155277	0.00014240468
138	0x3966a4dc	0.00021995924
139	0x38060e99	3.1961685e-05
140	0x3f26f7f7	0.65222114
141	0x3935a32a	0.00017322288
142	0x389869ac	7.267608e-05
143	0x390a4ba5	0.00013188885
144	0xb9326695	-0.00017013618
145	0x3f26f775	0.6522134
146	0x387555a2	5.8492304e-05
147	0xb58a9404	-1.032488e-06
148	0x38c65fc4	9.4592135e-05
149	0xb885ae7a	-6.374433e-05
150	0x3f26f8c6	0.6522335
151	0x39181990	0.00014505372
152	0x390ad1ce	0.00013238864
153	0x390ca7bd	0.00013413928
154	0x38930b2c	7.011587e-05
155	0x3f26f7d6	0.6522192
156	0x38b769e4	8.745844e-05
157	0x38a6ec17	7.959472e-05
158	0x3928413d	0.00016046032
159	0x3892fca4	7.0088805e-05
160	0x3f26fb11	0.65226847
161	0x3968f089	0.0002221485
162	0x394f9dd5	0.00019799855
163	0x392c10a6	0.000164094
164	0x38a6d6b4	7.9554884e-05
165	0x3f26f7b0	0.6522169
166	0x39380b05	0.00017551713
167	0x38dbb314	0.0001047609
168	0x38aaba7d	8.140968e-05
169	0x38b370c9	8.556393e-05
170	0x3f26fa5f	0.65225786
171	0x392ff9b3	0.00016782321
172	0x38d29913	0.000100420926
173	0x39217a3f	0.00015399697
174	0xb89f58e3	-7.598267e-05
175	0x3f26f974	0.65224385
176	0x3985c290	0.00025512697
177	0x3909e873	0.00013151932
178	0x39075e08	0.00012909633
179	0x3826f872	3.9808867e-05
180	0x3f26f715	0.6522077
181	0x39822c2d	0.00024828446
182	0x39631d0e	0.0002165923
183	0x394e42fd	0.00019670646
184	0x386a9f24	5.593816e-05
185	0x3f26fb00	0.65226746
186	0x39020cf8	0.00012402597
187	0x3937c552	0.00017525748
188	0x37fabac8	2.98893e-05
189	0x3906410d	0.00012803469
190	0x3f26f9b4	0.65224767
191	0x382932f4	4.0340194e-05
192	0x3987fb66	0.00025936513
193	0xb8567db3	-5.1138642e-05
194	0x3983579a	0.00025051535
195	0x3f26f86b	0.65222806
196	0x38a58230	7.8920624e-05
197	0x3954adaf	0.00020282598
198	0x38ff866a	0.00012184384
199	0x3927eb8e	0.00016014112
200	0x3f26f8eb	0.6522357
201	0x392065da	0.00015296732
202	0x39aa2ede	0.00032459846
203	0xb98a3f66	-0.00026368647
204	0x39b089d8	0.00033672038
205	0x3f26f9aa	0.6522471
206	0x390836d9	0.00012990403
207	0x3924bf7f	0.00015711597
208	0x39885edc	0.00026010617
209	0x38effb2b	0.00011443192
210	0x3f26f7c4	0.6522181
211	0x3933e41e	0.0001715575
212	0x3812277a	3.4845878e-05
213	0x396a8a6c	0.00022367545
214	0xb8deb570	-0.0001061958
215	0x3f26fa06	0.65225255
216	0x39805bfe	0.00024482602
217	0x392de8fe	0.00016585362
218	0x39103ae6	0.00013754852
219	0x38269f65	3.9725932e-05
220	0x3f26f961	0.6522427
221	0x39876fd4	0.00025832525
222	0x399fe85f	0.00030499973
223	0x37fc83c1	3.0102094e-05
224	0x39857c22	0.00025460223
225	0x3f26f88c	0.65223
226	0x38c4cee9	9.384548e-05
227	0x39a01a34	0.000305371
228	0xb756aa57	-1.2795054e-05
229	0x394a6006	0.00019299993
230	0x3f26fa59	0.6522575
231	0x39299da8	0.00016175827
232	0x38d6b5c0	0.00010238169
233	0x390cba1b	0.0001342077
234	0x373671f2	1.0874575e-05
235	0x3f26f8c7	0.65223354
236	0x39934e61	0.00028096422
237	0x3930c26e	0.00016857099
238	0x38f2b2d1	0.000115727664
239	0xb9104597	-0.00013758834
240	0x3f26fa29	0.65225464
241	0x39381337	0.00017554766
242	0x39bac53f	0.00035623644
243	0xb9593d48	-0.00020717562
244	0x3a2fa8a3	0.0006700849
245	0x3f26f965	0.65224296
246	0x3973edf3	0.00023262929
247	0x3721a941	9.635755e-06
248	0x3937aa89	0.0001751577
249	0xb7ebb1af	-2.8096923e-05
250	0x3f26fc63	0.6522886
251	0x386bba71	5.6202003e-05
252	0x390b464f	0.00013282265
253	0x38926f57	6.982561e-05
254	0x390baff6	0.00013321624
255	0x3f26f905	0.65223724

fcs.0.weight f4 [64, 12]
0	0x380bbcbf	3.3315966e-05
1	0xbbb151ec	-0.005411377
2	0x38fb4618	0.00011981669
3	0xba656353	-0.0008750457
4	0x3a38252c	0.0007024582
5	0x3a1290bc	0.0005591025
6	0x39ae6b52	0.00033267826
7	0x3933e848	0.00017157302
8	0xb5c642a1	-1.4771541e-06
9	0x33e2e8ca	1.0566289e-07
10	0x352b3aec	6.3788207e-07
11	0x338015fd	5.964464e-08
12	0x387df41f	6.0547256e-05
13	0x399e61c7	0.00030208958
14	0xba1bdad1	-0.0005945387
15	0x3a1a93ed	0.00058966764
16	0xb7f387f2	-2.9031162e-05
17	0xb59fb189	-1.1898093e-06
18	0x3902fde9	0.00012492355
19	0xb7a4f321	-1.966354e-05
20	0x345118ca	1.947366e-07
21	0xb40486b6	-1.2342466e-07
22	0xb429d27b	-1.5815924e-07
23	0xb20f4da6	-8.341351e-09
24	0x3b17aac9	0.0023142567
25	0xb99a19b8	-0.0002939233
26	0x3a493e27	0.0007676803
27	0x3973153b	0.00023182195
28	0xb700aece	-7.670094e-06
29	0xb8796359	-5.945875e-05
30	0xba31338b	-0.00067596947
31	0xb97459a9	-0.00023303054
32	0x367702cd	3.6807498e-06
33	0x34204373	1.4925699e-07
34	0x33fa7e50	1.1664508e-07
35	0xb17e2159	-3.698082e-09
36	0xba5fa7ba	-0.0008531768
37	0x3b2d5a2d	0.0026451454
38	0x3ab1eb41	0.001357414
39	0x3a2a3a07	0.0006493632
40	0x3a94454d	0.0011312157
41	0x395b0519	0.00020887367
42	0xb82f32e6	-4.1770654e-05
43	0xb810a190	-3.4482742e-05
44	0x369ff7f1	4.7674334e-06
45	0xb4221a00	-1.5096884e-07
46	0x34f50f1e	4.5645805e-07
47	0xb3bace1c	-8.698791e-08
48	0xb9c009f2	-0.00036628504
49	0xba29804c	-0.0006465956
50	0xb9c0330b	-0.00036659124
51	0x3a866df5	0.0010256158
52	0x3a1f4251	0.00060752506
53	0x3a016fc3	0.0004937613
54	0x3ad16de3	0.0015978183
55	0xb8772fe0	-5.8933976e-05
56	0x3681301f	3.8501016e-06
57	0x34aa809b	3.175854e-07
58	0xb3243bad	-3.82385e-08
59	0x32ec9074	2.7539706e-08
60	0xbb251334	-0.0025188448
61	0x3aaaf62c	0.0013043336
62	0x3ac39649	0.0014922108
63	0xbab0c18f	-0.0013485419
64	0x398c9c7e	0.00026819477
65	0x395c67d1	0.0002101951
66	0x3a7de22f	0.0009684888
67	0x39c41383	0.0003739857
68	0x370ccf7e	8.392961e-06
69	0x34d56d3b	3.9753817e-07
70	0x3505a58b	4.978726e-07
71	0x340274ff	1.2149756e-07
72	0xbc0d700f	-0.008632674
73	0xb88a0ca9	-6.582711e-05
74	0x3b15f732	0.0022882936
75	0x3c3aabb7	0.011393479
76	0x38ea5a21	0.00011174777
77	0x39be8b7d	0.0003634355
78	0x3a4f7280	0.0007913485
79	0x39ce4fb4	0.00039350765
80	0x36aa5afd	5.0769872e-06
81	0xb55862d6	-8.0610096e-07
82	0x34b7c622	3.4230567e-07
83	0x30b2df8a	1.3014738e-09
84	0x3c4320d7	0.011909685
85	0x3a5bf9e6	0.0008391425
86	0xba2bb9d4	-0.0006550823
87	0x399dcc2b	0.0003009749
88	0xb8c020c2	-9.161375e-05
89	0xb9d98de9	-0.00041495197
90	0x3a6c265c	0.00090084015
91	0xb7aa109a	-2.027331e-05
92	0x368e9f69	4.2504876e-06
93	0xb5176f62	-5.6413967e-07
94	0xb40892d0	-1.2719397e-07
95	0xb3e1d0ea	-1.051538e-07
96	0x3b884228	0.004158277
97	0xba9dda44	-0.0012043198
98	0xb8906414	-6.885096e-05
99	0xb9527feb	-0.00020074814
100	0x39d1e307	0.00040032735
101	0x377724f2	1.4730949e-05
102	0xb96f4ab4	-0.00022820645
103	0x36330160	2.667388e-06
104	0xb5e37127	-1.694575e-06
105	0xb3d89ebd	-1.0087158e-07
106	0x333f7853	4.4580087e-08
107	0x33362e86	4.241749e-08
108	0xbbb6aa46	-0.0055744974
109	0x3aaa0db3	0.0012974053
110	0x3ac77c05	0.0015219456
111	0xba1d640d	-0.00060039834
112	0x39413350	0.0001842503
113	0x397430ec	0.00023287878
114	0x3a2cedfa	0.00065967406
115	0x3903d73d	0.00012573316
116	0x3597db09	1.1314124e-06
117	0x34de4b04	4.1405303e-07
118	0x347556b4	2.2848945e-07
119	0x340ed150	1.3300928e-07
120	0xbb486b12	-0.0030581397
121	0x376d1d50	1.4133126e-05
122	0x388e83e7	6.7956564e-05
123	0xbaaab323	-0.0013023358
124	0x3779d71a	1.4891639e-05
125	0x3909b357	0.00013132147
126	0x3a0d3218	0.00053861877
127	0x37ead49e	2.7993981e-05
128	0x35a8a90a	1.2566172e-06
129	0x342b3f9c	1.5948757e-07
130	0x332228de	3.7755733e-08
131	0xb2138f24	-8.589073e-09
132	0xbb1c59d2	-0.0023857248
133	0x3a31489a	0.00067628326
134	0x3b5d0069	0.0033722168
135	0x38c3db8d	9.339219e-05
136	0x3883109c	6.2496605e-05
137	0x38c16a35	9.22274e-05
138	0xb966ed9a	-0.00022023023
139	0x3995e802	0.00028592354
140	0x35872453	1.0068856e-06
141	0x342b3cac	1.5947688e-07
142	0x3480bbb1	2.397842e-07
143	0x3182a185	3.8018606e-09
144	0x3aa481ea	0.0012550924
145	0x3aff18a3	0.0019462298
146	0xb6d7ca01	-6.4310157e-06
147	0xb9e781f6	-0.00044156582
148	0x380ac3b6	3.3084034e-05
149	0xb8212dca	-3.8428036e-05
150	0x3b1142c3	0.0022165037
151	0x38cfbf86	9.906203e-05
152	0xb6ea0d07	-6.97526e-06
153	0xb4ecc2ee	-4.4100256e-07
154	0xb4972bf4	-2.8157922e-07
155	0x3369ea81	5.446282e-08
156	0xbac3a22f	-0.0014925654
157	0x3b3e42a7	0.0029031427
158	0x3a86b8e3	0.0010278489
159	0xbafd03cb	-0.0019303499
160	0x3805a240	3.1860778e-05
161	0x3a003510	0.00048907194
162	0xba177286	-0.0005777258
163	0x38df0202	0.000106338426
164	0x37212458	9.60481e-06
165	0x354aeb5d	7.559336e-07
166	0x355b820a	8.177309e-07
167	0xb2d0c1b4	-2.4302473e-08
168	0x3b262d3c	0.0025356552
169	0xba12b147	-0.00055958744
170	0xba784184	-0.0009470212
171	0xba5c3b82	-0.00084012013
172	0x380146a7	3.0821797e-05
173	0xb90297d4	-0.00012454326
174	0x398cd6d5	0.00026862943
175	0xb71a4c03	-9.196813e-06
176	0xb62b506a	-2.5527793e-06
177	0x3537b440	6.843511e-07
178	0xb3c10978	-8.988985e-08
179	0x32c3a6b0	2.2776788e-08
180	0xbb8513bc	-0.0040611904
181	0x3b18ad9a	0.0023296834
182	0x3abbec21	0.001433734
183	0xbb7c7e6b	-0.00385275
184	0x38c7d964	9.5295516e-05
185	0x38286825	4.0151313e-05
186	0x3a325c4e	0.00068039156
187	0x39a6ae8f	0.00031792044
188	0x36b70018	5.453836e-06
189	0x330fe1d9	3.350019e-08
190	0x337f42b7	5.943249e-08
191	0x331614ae	3.4943405e-08
192	0x3b102b39	0.002199842
193	0x3b41a538	0.002954794
194	0xb9dac013	-0.00041723307
195	0xbbf6b39c	-0.0075287353
196	0xbabf3d8b	-0.0014590485
197	0x39bf9a9a	0.00036545546
198	0xb98dad5f	-0.00027022787
199	0xb997e937	-0.00028974723
200	0x36ec9876	7.051097e-06
201	0xb507eceb	-5.063618e-07
202	0xb51e263f	-5.891524e-07
203	0xb26bc0f7	-1.3722675e-08
204	0x38dbcd56	0.000104809806
205	0x3a3f578c	0.0007299117
206	0x3a9a00e6	0.0011749535
207	0xb9111612	-0.000138365
208	0x392ac268	0.00016284885
209	0x3922b01f	0.00015515134
210	0x3a45d22d	0.0007546272
211	0xb9a1acdd	-0.00030837106
212	0xb6ba9c70	-5.5614437e-06
213	0xb58f8574	-1.069317e-06
214	0xb578adfc	-9.264038e-07
215	0x3390304a	6.714306e-08
216	0x3bb785cf	0.005600668
217	0xbb13c90d	-0.0022550256
218	0xba286cd4	-0.0006424908
219	0x3a34de7a	0.00068996067
220	0x398d68bf	0.00026971658
221	0x38ee88ed	0.00011374229
222	0x39f8a71e	0.00047426758
223	0xb8eb6ffb	-0.00011226531
224	0xb7051a4f	-7.933543e-06
225	0x34d58f4e	3.977861e-07
226	0x330dd953	3.3026776e-08
227	0xb4f1f563	-4.506829e-07
228	0xbab28e43	-0.001362272
229	0x39e00012	0.00042724662
230	0x3bb21816	0.005435
231	0xbb073cb0	-0.0020635538
232	0xb82f9eb4	-4.1871055e-05
233	0x38ae044f	8.297769e-05
234	0x3a92e46b	0.001120699
235	0x378b5740	1.661072e-05
236	0xb5d72242	-1.6028719e-06
237	0x35597697	8.101137e-07
238	0xb49ba000	-2.8987415e-07
239	0x32bb0627	2.1772463e-08
240	0xbbffe1d9	-0.0078089056
241	0x3accf0db	0.0015635745
242	0x393bb4f2	0.00017901117
243	0xbaef5edc	-0.0018262523
244	0x39ec6565	0.00045088973
245	0x39c8125b	0.0003816065
246	0x39278a34	0.00015977846
247	0x39a64ae4	0.00031717785
248	0x37308056	1.0520298e-05
249	0xb4a8e387	-3.1457986e-07
250	0x3519e546	5.733058e-07
251	0xb46a5e0a	-2.182716e-07
252	0x389aad5a	7.3755815e-05
253	0x3acfa6cb	0.0015842555
254	0x3b62cd9d	0.0034607418
255	0x3a7ba7b1	0.0009599878

fcs.0.bias f4 [64]
0	0xba15dc9d	-0.0005716773
1	0xb920064a	-0.00015261132
2	0x385bd01e	5.2407493e-05
3	0xbaa0df90	-0.0012273658
4	0x394360ab	0.00018632661
5	0xb8faf931	-0.000119673445
6	0xb9045095	-0.0001261852
7	0xb959e1ba	-0.00020778822
8	0x3871400b	5.7518522e-05
9	0xba17f946	-0.00057973375
10	0xb9c691c6	-0.00037874113
11	0xb924e61e	-0.00015725984
12	0x3909fde9	0.00013159927
13	0xb8eb0941	-0.00011207397
14	0x394f8206	0.00019789496
15	0xb88a82c0	-6.604707e-05
16	0x3b0b43f6	0.0021250225
17	0x38fc5ca7	0.00012033554
18	0x3a587908	0.0008257781
19	0xb9609904	-0.00021419307
20	0x3967dd6e	0.00022112366
21	0xb8a4c6eb	-7.857181e-05
22	0xbb88f6b6	-0.004179801
23	0x3786f097	1.6086078e-05
24	0xb995e33e	-0.00028588803
25	0x35dbf6b3	1.638857e-06
26	0x3910f215	0.00013823093
27	0xb948d6c4	-0.00019153493
28	0xb958de30	-0.00020682137
29	0xb8fc3ed4	-0.00012027999
30	0xb894a185	-7.087275e-05
31	0xb99088f9	-0.00027567873
32	0xb90539a5	-0.00012705343
33	0xba1d673f	-0.00060044596
34	0x38a216fe	7.7290446e-05
35	0xb9a055cf	-0.0003058151
36	0xb9405254	-0.00018341216
37	0x382e5124	4.15604e-05
38	0xb91f73b4	-0.00015206524
39	0xba0c28fd	-0.0005346684
40	0x39b24334	0.00034000876
41	0xb922ff59	-0.00015544648
42	0xb88ffa8d	-6.86544e-05
43	0xb91f5277	-0.00015194142
44	0xb8058446	-3.183286e-05
45	0xb8c3642e	-9.3169845e-05
46	0x369c25e9	4.6535756e-06
47	0x3997a574	0.00028924237
48	0xbb10e8e5	-0.0022111472
49	0xbb25a7e9	-0.0025277084
50	0x370bc95d	8.331929e-06
51	0x38a664d7	7.93428e-05
52	0x39358244	0.00017310033
53	0xba1ac7fd	-0.00059044344
54	0x3874f0ea	5.8398502e-05
55	0xb7859996	-1.5926355e-05
56	0x3a532752	0.00080548704
57	0xb8758452	-5.8535785e-05
58	0xb88533b0	-6.351562e-05
59	0xb6bcbd0d	-5.624845e-06
60	0x391115a1	0.00013836335
61	0x39fa7fa4	0.00047778815
62	0x39f75f8d	0.00047182702
63	0xb782c6e0	-1.5589816e-05

fcs.1.weight f4 [2, 64]
0	0x3b0e9602	0.0021756892
1	0x3b523639	0.0032075776
2	0x3b8ad5a8	0.0042368956
3	0x3adb4a4b	0.0016730515
4	0x3b76f675	0.003768352
5	0x3ba091a7	0.0049001756
6	0x3b88d22b	0.0041754446
7	0x3b7b4a26	0.0038343756
8	0x3b938aa3	0.004502611
9	0x3baea178	0.005329307
10	0x399f47de	0.00030380388
11	0x3b9d7f4f	0.004806436
12	0x3b8d5a24	0.004313724
13	0x3c0158be	0.007894693
14	0x3b6fec5b	0.0036609385
15	0x3b933d27	0.004493374
16	0x3b90fd51	0.004424729
17	0x3b93dfbf	0.0045127566
18	0x3b5063e3	0.0031797818
19	0x3b488910	0.0030599274
20	0x3b97867b	0.0046241856
21	0x3b97d5bd	0.004633634
22	0x3ba377b2	0.004988634
23	0x3bae0e6f	0.005311779
24	0x3b60bc58	0.003429195
25	0x3b98c988	0.0046626963
26	0x3a7533ed	0.0009353746
27	0x3ab31c2f	0.0013665016
28	0x3b76fdc0	0.0037687868
29	0x3b318c0b	0.0027091529
30	0x3b438dc1	0.002983913
31	0x3b6f757e	0.0036538537
32	0x3b7bdfec	0.0038433028
33	0x3b9fc6e0	0.0048760027
34	0x3b546ac6	0.0032412275
35	0x3b67e70f	0.0035385524
36	0x3b645f9f	0.0034847034
37	0x3b9114ad	0.0044275136
38	0x3ba11209	0.00491548
39	0x3bac0137	0.0052491683
40	0x3bb9737d	0.005659519
41	0x3b976064	0.004619645
42	0x3b2fcd98	0.0026825424
43	0x3bb4c320	0.005516425
44	0x3b81ca76	0.003960903
45	0x3bacc544	0.0052725393
46	0x3b1a6734	0.002356005
47	0x3b90f79e	0.0044240495
48	0x3b4103be	0.0029451693
49	0x3b69dd81	0.0035685005
50	0x3b5f4021	0.0034065323
51	0x3b13f722	0.0022577723
52	0x3b7f4c65	0.0038955447
53	0x3b9d4e51	0.004800596
54	0x3b8e2bd2	0.00433872
55	0x3b6f275c	0.0036491966
56	0x3b854a4c	0.004067695
57	0x3aeda00f	0.0018129366
58	0x3baab180	0.005209148
59	0x3ba72e96	0.005101989
60	0x3b8d025b	0.0043032593
61	0x3bb9a57d	0.0056654797
62	0x3b5ee46e	0.0034010666
63	0x3b8f0d9c	0.004365636
64	0xba78fb36	-0.00094978826
65	0xbb65e6eb	-0.0035080265
66	0xbb836448	-0.004009757
67	0xbb5a3ad6	-0.003329923
68	0xbb8bcb80	-0.0042662024
69	0xbba5813a	-0.0050508054
70	0xbb8f1de9	-0.0043675792
71	0xbb7856ce	-0.0037893537
72	0xbb46b489	-0.003032001
73	0xbba90af6	-0.0051587773
74	0x38e40ed5	0.0001087465
75	0xbbb667be	-0.0055665663
76	0xbb8c82a6	-0.0042880354
77	0xbbb9a496	-0.005665372
78	0xbb3425df	-0.0027488393
79	0xbba0651e	-0.0048948666
80	0xbb7e7593	-0.0038827404
81	0xbb920052	-0.0044556046
82	0xbb9b5b62	-0.0047411183
83	0xbb4a9995	-0.0030914296
84	0xbb72d3a8	-0.0037052426
85	0xbb873759	-0.004126471
86	0xbb81a715	-0.0039566853
87	0xbb7b3d1c	-0.0038335985
88	0xbad18fad	-0.0015988253
89	0xbb939538	-0.0045038722
90	0xbb116864	-0.0022187466
91	0xbb6c4aa9	-0.0036055243
92	0xbb5c051d	-0.0033572384
93	0xbafa0522	-0.0019075016
94	0xbb9c0970	-0.004761867
95	0xbb9a95b4	-0.004717553
96	0xbb78c11b	-0.0037956897
97	0xbba77485	-0.0051103258
98	0xbb0b85ef	-0.0021289547
99	0xbb8a8105	-0.004226806
100	0xbbbc7863	-0.005751656
101	0xbb889ffb	-0.004169462
102	0xbbbb7940	-0.0057212412
103	0xbbdf5072	-0.0068150098
104	0xbb9c671a	-0.004773033
105	0xbb231c35	-0.002488864
106	0xbb52f156	-0.0032187304
107	0xbb90d566	-0.0044199703
108	0xbbd16a9f	-0.006390884
109	0xbb8fb6c7	-0.0043858024
110	0xbb6f7164	-0.0036536092
111	0xbb5c8fd0	-0.0033655055
112	0xbc0aedc9	-0.008479544
113	0xbbaab9fd	-0.00521016
114	0xbb64f7b5	-0.0034937684
115	0xbb7b66df	-0.0038360876
116	0xbb2211c7	-0.0024729834
117	0xbb9b1ce5	-0.004733669
118	0xbbac8805	-0.005265238
119	0xbb2fcfd7	-0.0026826763
120	0xbb71f901	-0.00369221
121	0xbb67395a	-0.0035281987
122	0xbbca4c2d	-0.0061736316
123	0xbba9b594	-0.0051791165
124	0xbb1fcd56	-0.0024383864
125	0xbbddab34	-0.006764794
126	0xbb3d5d96	-0.0028894893
127	0xbb83bbff	-0.0040202136

fcs.1.bias f4 [2]
0	0x3f47cd89	0.78047997
1	0xbf645ecb	-0.8920714
