cache/ckpts/woselfloop-genius_NormalNN-genius_trialNo73.pt (torch, 9627 bytes, 5 tensors)

alpha_params f4 [64, 13]
0.9600159 -0.015248989 -0.038226575 -0.03260493 -0.038974818 -0.03827693 -0.039865717 -0.037102927
-0.039836034 0.021795766 -0.03866153 -0.03546064 -0.034939345 0.9600175 -0.006329894 -0.0064741806
-0.007044296 -0.006502457 -0.006959085 -0.0053381906 -0.006657662 -0.006181305 -0.0069350135 -0.0075446786
-0.0075332937 -0.007661294 0.96001816 0.039514307 0.039939124 0.03877391 0.038134888 0.03465576
-0.0050289966 0.032698315 0.039419573 0.037988495 0.039834645 0.03975548 0.039757267 0.96001565
-0.0035068456 -0.005958954 -0.006176013 -0.008161987 -0.010541132 -0.016058793 -0.015351976 -0.015250006
-0.005363775 -0.012764841 -0.004769767 -0.012326858 0.9600179 0.03418988 0.03887334 0.03263862
0.03919517 0.018256994 0.035347976 0.01419331 0.03778736 0.016313879 0.035745453 0.014734413
0.035144065 0.9600161 -0.0019080536 -0.0063489317 -0.0048478376 -0.009073839 -0.0045059733 -0.009212233
-0.0042092465 -0.007214843 -0.0026282684 -0.0060679023 -0.0038675545 -0.0051368107 0.96001667 -0.03992565
-0.039011315 -0.0399152 -0.036536336 -0.036874875 -0.031524662 -0.03465568 -0.03694164 -0.039673157
-0.039986014 -0.032700896 -0.03999032 0.9600173 -0.0074137957 -0.007902408 -0.0074042883 -0.008363359
-0.0056020003 -0.007829686 -0.004668199 -0.0076334565 -0.005822347 -0.008251675 -0.006100365 -0.008295097
0.96001387 -0.039203975 -0.03886376 -0.03895623 -0.039100457 -0.026452348 -0.039507046 -0.008244709
-0.03974783 -0.02937472 -0.03965022 -0.034690138 -0.03873724 0.9600155 -0.009255354 -0.035309955
-0.02424896 -0.037152126 -0.029660126 -0.038170166 -0.03878865 -0.03964744 -0.03826041 -0.038967215
-0.037651964 -0.039704807 0.96001565 0.013745951 0.033736188 0.033446237 0.03676669 0.032234017
0.03792345 -0.003306177 0.03953467 -0.006477153 0.03884167 -0.0038709608 0.038930845 0.9600177
0.0353209 0.03870351 0.034343895 0.03916783 0.02213419 0.026322644 0.015704278 0.03673318
0.014923239 0.03613235 0.011959991 0.034321852 0.9600148 -0.039182816 -0.039858405 -0.03848084
-0.03958951 -0.03224064 -0.038314816 -0.026533464 -0.039918177 -0.03561836 -0.039585304 -0.039444637
-0.038991887 0.96001863 -0.03881728 -0.036174368 -0.039875723 -0.030500766 -0.033009253 -0.028215727
0.0063798265 -0.033001035 -0.033065334 -0.038474236 -0.02778931 -0.03826946 0.9600163 -0.03883924
-0.03949725 -0.038134016 -0.039925072 -0.035741646 -0.03644493 -0.034220017 -0.039854597 -0.035358503
-0.039358947 -0.034340806 -0.039284095 0.96001714 0.013203525 0.03755716 0.03920565 0.039468694
0.039798584 0.039072298 0.039792262 0.039742712 0.037190024 0.038663596 0.039491557 0.038543765
0.9600181 -0.034004692 -0.037159666 -0.03653259 -0.038346637 -0.02140467 -0.03779813 -0.011192265
-0.035879802 -0.029635966 -0.035355274 -0.03404897 -0.036357883 0.96001875 0.039202522 0.039090585
0.039371982 0.03898832 0.013204875 0.0386486 0.008287467 0.039061062 0.022814017 0.039719235
0.023532528 0.03911008 0.960019 0.039363306 0.039943267 0.038544487 0.03840644 0.03318951
-0.0050548376 0.027024634 0.038859345 0.03204631 0.039874874 0.037971698 0.03948659 0.9600176
0.039011326 0.035796292 0.03974934 0.023042211 0.038277496 0.0123298755 0.039007768 0.018698234
00000000: 9ac3 753f e5d6 79bc 7893 1cbd bf8c 05bd
00000010: 0fa4 1fbd 45c8 1cbd 3c4a 23bd 3df9 17bd
00000020: 1c2b 23bd 098d b23c 8d5b 1ebd 2d3f 11bd
00000030: 8f1c 0fbd b5c3 753f 006b cfbb 5d25 d4bb
00000040: d6d3 e6bb 9012 d5bb 0909 e4bb fdeb aebb
00000050: 8428 dabb 8b8c cabb 1c3f e3bb 5a39 f7bb
00000060: d9d9 f6bb 980b fbbb c0c3 753f c1d9 213d
00000070: 3597 233d 64d1 1e3d 5433 1c3d 33f3 0d3d
00000080: 48ca a4bb abee 053d 6b76 213d d399 1b3d
00000090: a729 233d a4d6 223d 84d8 223d 96c3 753f
000000a0: 1bd3 65bb 5443 c3bb 2760 cabb dbb9 05bc
000000b0: b6b4 2cbc bb8d 83bc db86 7bbc 29db 79bc
000000c0: 9bc2 afbb a023 51bc b54b 9cbb 97f6 49bc
000000d0: bcc3 753f b00a 0c3d a739 1f3d 13b0 053d
000000e0: 1d8b 203d b18f 953c 0ac9 103d 0f8b 683c
000000f0: ebc6 1a3d afa4 853c d369 123d 9b68 713c
00000100: 39f3 0f3d 9dc3 753f a817 faba b30a d0bb
00000110: 9cda 9ebb 70aa 14bc d8a6 93bb e8ee 16bc
00000120: b8ed 89bb 7d6a ecbb 073f 2cbb 41d5 c6bb
00000130: cc76 7dbb b152 a8bb a7c3 753f 1489 23bd
00000140: 54ca 1fbd 1f7e 23bd 20a7 15bd 1c0a 17bd
00000150: 0120 01bd 1df3 0dbd 1e50 17bd 5280 22bd
00000160: 60c8 23bd 60f1 05bd e4cc 23bd b2c3 753f
00000170: 6def f2bb 1a79 01bc ac9f f2bb 7806 09bc
00000180: fc90 b7bb 1548 00bc b1f7 98bb 1322 fabb
00000190: 63c9 bebb 0932 07bc 92e5 c7bb 29e8 07bc
000001a0: 78c3 753f 5994 20bd 9b2f 1fbd 9190 1fbd
000001b0: cd27 20bd 98b2 d8bc 24d2 21bd d114 07bc
000001c0: 9fce 22bd 41a3 f0bc 4568 22bd 3f17 0ebd
000001d0: f1aa 1ebd 93c3 753f c5a3 17bc 2ca1 10bd
000001e0: c1a5 c6bc d42c 18bd cbf9 f2bc 5258 1cbd
000001f0: d9e0 1ebd 5b65 22bd f3b6 1cbd 169c 1fbd
00000200: f238 1abd 82a1 22bd 96c3 753f b236 613c
00000210: f52e 0a3d ecfe 083d ab98 163d d107 043d
00000220: 9f55 1b3d 72ac 58bb 1bef 213d 4c3e d4bb
00000230: 7118 1f3d f2af 7dbb f375 1f3d b8c3 753f
00000240: a6ac 103d 9287 1e3d 2fac 0c3d 726e 203d
00000250: c352 b53c 96a2 d73c 42a6 803c 8875 163d
00000260: 9a80 743c 84ff 133d d7f3 433c 1295 0c3d
00000270: 88c3 753f 297e 20bd 9142 23bd 169e 1dbd
00000280: 9c28 22bd c30e 04bd ffef 1cbd b55c d9bc
00000290: 3e81 23bd 8fe4 11bd 3324 22bd b390 21bd
000002a0: f5b5 1fbd c8c3 753f defe 1ebd 932b 14bd
000002b0: ba54 23bd bedc f9bc b634 07bd ab24 e7bc
000002c0: dd0d d13b 182c 07bd 846f 07bd 2997 1dbd
000002d0: 68a6 e3bc 70c0 1cbd a1c3 753f e515 1fbd
000002e0: dec7 21bd 6a32 1cbd 7988 23bd d565 12bd
000002f0: 4747 15bd 4a2a 0cbd 933e 23bd 14d4 10bd
00000300: d936 21bd f2a8 0cbd 5ce8 20bd afc3 753f
00000310: 9953 583c 89d5 193d 1b96 203d eda9 213d
00000320: d703 233d 460a 203d 36fd 223d 41c9 223d
00000330: 9154 183d b85d 1e3d e6c1 213d 11e0 1d3d
00000340: bfc3 753f 8148 0bbd bc34 18bd 32a3 15bd
00000350: 5d11 1dbd d958 afbc 36d2 1abd c35f 37bc
00000360: b3f6 12bd 20c7 f2bc b1d0 10bd ef76 0bbd
00000370: 01ec 14bd cac3 753f d392 203d 731d 203d
00000380: 8444 213d 37b2 1f3d 4359 583c ff4d 1e3d
00000390: 28c8 073c 7efe 1f3d 76e4 ba3c a3b0 223d
000003a0: 4ac7 c03c e431 203d cec3 753f 6b3b 213d
000003b0: 8d9b 233d d3e0 1d3d 1250 1d3d b9f1 073d
000003c0: 0da3 a5bb c462 dd3c fa2a 1f3d fe42 033d
000003d0: d653 233d 3688 1b3d b1bc 213d b7c3 753f
000003e0: 57ca 1f3d 229f 123d 34d0 223d 05c3 bc3c
000003f0: ddc8 1c3d 3f03 4a3c 9cc6 1f3d 0a2d 993c

fcs.0.weight f4 [64, 12]
-0.254665 -0.019954652 0.13117382 0.27992707 -0.025744118 0.20699656 -0.16475616 -0.15955311
-0.09811186 -0.12813357 -0.25294703 0.15377112 0.08588463 0.07918013 0.24876568 -0.0086901365
-0.2477284 -0.1094453 -0.11296695 0.21166724 0.03268879 -0.26726136 0.2572975 -0.22403607
0.29736724 -0.18073386 0.08236043 0.14241269 0.24882987 0.0999846 -0.0024860958 0.14809242
0.013850056 0.19629598 0.082995705 -0.23773122 -0.12474009 0.09554285 -0.19903645 0.097757846
0.0015370596 0.15325898 -0.15499213 -0.27043968 0.1664479 -0.12578702 -0.037012003 -0.04133053
0.16620855 0.23927124 0.25056776 -0.1866498 0.0490475 -0.04298812 0.07896646 -0.24940668
0.09545024 -0.14847812 0.068949535 0.26701745 -0.10226512 -0.13319409 0.2786349 0.1726767
-0.13807523 0.24631818 0.1730506 -0.0072465404 -0.15195522 -0.20296398 0.14493878 0.23107868
0.20500661 -0.041248687 0.2453752 -0.021652913 0.24044017 0.049968906 -0.14921768 0.011056364
-0.18622184 -0.056824848 0.17303984 -0.27214918 0.07021368 -0.19243261 -0.034825712 -0.2230656
-0.16751339 -0.13107297 -0.25056764 -0.20515335 -0.061313543 0.11208037 -0.16969724 0.22012202
0.099466644 -0.16271465 -0.22222732 0.20629746 -0.04959536 0.15693194 0.08289174 0.12028628
0.06297061 0.21564685 -0.14752497 -0.03662076 -0.20849164 -0.17868978 -0.036864135 -0.17201433
-0.17598647 0.17347528 0.1902058 -0.26520565 0.07403965 0.22219984 -0.051820856 0.14630401
-0.035642814 -0.27104148 0.25712785 0.038028304 -0.26859957 0.077991046 0.29037392 -0.23946327
-0.11172689 0.23928873 0.107052326 -0.11922847 0.21398088 0.09689555 -0.05423418 0.23211247
0.22139843 0.16294672 0.04445797 0.12287253 0.19827797 -0.1888869 -0.06426333 0.14570089
0.096596435 0.24981114 -0.30048105 -0.19644906 -0.27342606 0.12785617 -0.03588585 -0.18028848
0.09107635 0.099196784 -0.07906465 -0.2287472 0.20983374 0.25801155 0.09829221 0.099688776
-0.060939677 -0.17993069 -0.037128188 0.08999822 0.17507392 0.0010370573 -0.2421724 -0.26734152
0.23736757 -0.24088849 -0.2077038 0.022057017 -0.19152364 0.2726403 -0.04419706 -0.17663348
0.253434 0.033135157 0.19818085 0.19405116 -0.073149495 -0.04397449 -0.059375994 -0.04437567
0.22158493 -0.17535658 0.1768156 -0.024510758 -0.16285191 -0.2570779 0.23467126 0.105454944
-0.007466951 -0.16569611 -0.15183534 0.2424132 0.001997741 0.135086 -0.20801379 -0.021030776
-0.051244028 -0.25897533 -0.01523614 0.16961505 0.22435357 -0.035691496 -0.25982776 0.016161393
0.16594045 -0.13389134 0.24486607 -0.11266055 -0.09165917 0.017621964 0.12297973 0.15545622
0.15678808 0.071271345 0.22612016 0.15522036 0.07264004 -0.108290195 0.14837378 0.20251836
-0.043960847 0.14891317 0.23187672 -0.023644593 0.028188903 0.093799025 0.00093978486 -0.07661524
0.23839533 -0.08650738 -0.023795072 0.03689581 -0.23756437 -0.014791956 -0.19654174 -0.20598264
0.031790614 -0.007663209 0.105575815 0.26954386 0.029138269 -0.14153844 -0.2694329 -0.24591912
-0.21657878 0.041901864 -0.22518885 -0.07750615 0.17336975 0.1323805 -0.025832431 0.2464762
00000000: 7363 82be f077 a3bc 6e52 063e 9a52 8f3e
00000010: 54e5 d2bc e8f6 533e d7b5 28be e461 23be
00000020: dfee c8bd 7235 03be 4682 81be 2d76 1d3e
00000030: 48e4 af3d 3129 a23d 6ebc 7e3e 1361 0ebc
00000040: 84ac 7dbe dc24 e0bd 375b e7bd 4cbf 583e
00000050: aee4 053d 7bd6 88be 7fbc 833e b669 65be
00000060: 8540 983e 4c12 39be 96ac a83d a2d4 113e
00000070: 42cd 7e3e bac4 cc3d c4ed 22bb 8aa5 173e
00000080: 58eb 623c d001 493e a7f9 a93d d06f 73be
00000090: bb77 ffbd f8ab c33d 36d0 4bbe 4435 c83d
000000a0: 2977 c93a ecef 1c3e 42b6 1ebe 1277 8abe
000000b0: 5171 2a3e 50ce 00be e699 17bd 344a 29bd
000000c0: 9332 2a3e 8503 753e 6b4a 803e 2021 3fbe
000000d0: 08e6 483d 5014 30bd 2bb9 a13d 7764 7fbe
000000e0: 6a7b c33d a60a 18be 6a35 8d3d 83b6 883e
000000f0: 6070 d1bd 0864 08be 3ca9 8e3e 29d2 303e
00000100: 9863 0dbe d53a 7c3e 2d34 313e 6374 edbb
00000110: 269a 1bbe cad5 4fbe d56a 143e e49f 6c3e
00000120: 41ed 513e 62f4 28bd a343 7b3e 7361 b1bc
00000130: f335 763e 32ac 4c3d 85cc 18be c025 353c
00000140: f0b0 3ebe 2cc1 68bd 5b31 313e 2357 8bbe
00000150: 31cc 8f3d 0e0d 45be 68a5 0ebd 4f6b 64be
00000160: a188 2bbe fe37 06be 674a 80be b813 52be
00000170: e923 7bbd 658a e53d 1dc5 2dbe ab67 613e
00000180: 2bb5 cb3d ab9e 26be 8f8f 63be a43f 533e
00000190: 8124 4bbd c4b2 203e 25c3 a93d a758 f63d
000001a0: bcf6 803d 87d2 5c3e c910 17be a6ff 15bd
000001b0: d57e 55be 74fa 36be d9fe 16bd 8624 30be
000001c0: cc35 34be 81a3 313e 4fc5 423e 09c9 87be
000001d0: 1aa2 973d 5b88 633e 1b42 54bd b8d0 153e
000001e0: 33fe 11bd f3c5 8abe 43a6 833e 91c3 1b3d
000001f0: e285 89be c5b9 9f3d e4ab 943e dc35 75be
00000200: 11d1 e4bd 1b08 753e 403e db3d 0e2e f4bd
00000210: ce1d 5b3e 2d71 c63d a924 5ebd e4ae 6d3e
00000220: 45b6 623e 81db 263e 8f19 363d 98a4 fb3d
00000230: 6109 4b3e 916b 41be 7e9c 83bd 9d32 153e
00000240: 5ad4 c53d 7ece 7f3e a7d8 99be f129 49be
00000250: 80fe 8bbe baec 023e 0bfd 12bd 8b9d 38be
00000260: 3d86 ba3d af27 cb3d a6ec a1bd b53c 6abe
00000270: a8de 563e 171a 843e 6d4d c93d a129 cc3d
00000280: e29b 79bd c03f 38be ba13 18bd fd50 b83d
00000290: 9446 333e deed 873a 0bfc 77be fde0 88be
000002a0: 7c10 733e 79ab 76be 4eb0 54be ebb0 b43c
000002b0: c61e 44be 8297 8b3e fa07 35bd 68df 34be
000002c0: 1ac2 813e bbb8 073d ecef 4a3e 59b5 463e
000002d0: 67cf 95bd 981e 34bd 3e34 73bd 43c3 35bd
000002e0: 29e7 623e ad90 33be 260f 353e c9ca c8bc
000002f0: a7c2 26be b79f 83be aa4d 703e c3f8 d73d
00000300: 53ad f4bb 3eac 29be b97a 1bbe 2a3b 783e
00000310: 88ec 023b fc53 0a3e 9101 55be bc48 acbc
00000320: 42e5 51bd 6a98 84be 01a1 79bc 91af 2d3e
00000330: f1bc 653e 3f31 12bd 2508 85be e664 843c
00000340: 4bec 293e d01a 09be 2cbe 7a3e 93ba e6bd
00000350: ceb7 bbbd f05b 903c ccdc fb3d ea2f 1f3e
00000360: 0e8d 203e b6f6 913d 0b8c 673e 16f2 1e3e
00000370: 4dc4 943d 40c7 ddbd 4cef 173e f960 4f3e
00000380: 4a10 34bd b27c 183e 1771 6d3e 4eb2 c1bc
00000390: 6aec e63c b419 c03d e55b 763a 73e8 9cbd
000003a0: e81d 743e c82a b1bd e2ed c2bc 1020 173d
000003b0: 1344 73be f659 72bc 3d42 49be 1ded 52be
000003c0: e036 023d a81b fbbb 2238 d83d a701 8a3e
000003d0: 61b3 ee3c 74ef 10be 1cf3 89be 39d2 7bbe
000003e0: d4c6 5dbe 4aa1 2b3d e897 66be 8bbb 9ebd
000003f0: d787 313e c18e 073e 899e d3bc 4264 7c3e

fcs.0.bias f4 [64]
0.1750058 0.015414315 0.19914874 -0.08117004 -0.096078545 0.07333702 -0.20751978 0.22600788
-0.16669486 0.018383758 0.14079985 0.27325147 0.12208318 -0.15286325 0.1377364 0.010321555
0.045962743 0.23321924 -0.038699802 -0.27039558 0.108944885 0.176116 0.023922699 0.22964421
-0.099988595 0.20791009 -0.15378277 -0.16273749 0.040414736 0.06564428 0.16383536 -0.086084366
-0.11904495 -0.003338183 -0.12797788 -0.017971115 0.020780964 -0.19837463 -0.20015882 0.20336385
-0.008851203 0.21800421 0.2001012 0.2882292 0.20808208 -0.14334142 -0.022331119 -0.13040327
-0.05576862 0.032262813 -0.15758248 -0.1603767 0.14592041 -0.0038241711 -0.2365102 0.27208164
0.11565691 0.18011293 0.25340998 -0.22995868 -0.19979866 -0.19414404 -0.02990601 -0.08406266
00000000: b834 333e 538c 7c3c a6ed 4b3e 7a3c a6bd
00000010: d4c4 c4bd b831 963d 1180 54be 9c6e 673e
00000020: 0fb2 2abe 8999 963c d62d 103e 9ee7 8b3e
00000030: bf06 fa3d 2f88 1cbe c50a 0d3e bd1b 293c
00000040: 6e43 3c3d 06d1 6e3e af83 1ebd 4a71 8abe
00000050: 7f1e df3d c157 343e 89f9 c33c da27 6b3e
00000060: d2c6 ccbd 62e6 543e 3b79 1dbe a8a4 26be
00000070: ec89 253d 8270 863d 75c4 273e 004d b0bd
00000080: d7cd f3bd 6bc5 5abb a20c 03be 2938 93bc
00000090: d73c aa3c b822 4bbe 6ff6 4cbe 9d3e 503e
000000a0: a304 11bc 7f3c 5f3e 54e7 4c3e c792 933e
000000b0: 7813 553e 18c8 12be c0ef b6bc 6f88 05be
000000c0: a36d 64bd 0326 043d 4d5d 21be ca39 24be
000000d0: 296c 153e f29e 7abb bb2f 72be 494e 8b3e
000000e0: 88dd ec3d 866f 383e f4be 813e 4a7a 6bbe
000000f0: 0598 4cbe b2cd 46be 73fd f4bc 0b29 acbd

fcs.1.weight f4 [2, 64]
-0.1166861 -0.07883502 0.13019155 0.016237145 0.08777252 -0.07425799 -0.08725238 -0.016025364
-0.03595987 -0.049611222 -0.008695513 0.007764939 -0.08623898 0.012226081 -0.093610615 0.10631179
-0.046558186 -0.010689257 0.124560736 -0.068216376 0.07756439 -0.09407004 -0.08674234 0.051113743
-0.06398417 0.024676476 -0.03818645 0.02865531 0.13904421 -0.019907555 0.041243378 0.12257024
-0.0737277 0.10113183 -0.07995184 -0.0033922195 0.091200516 -0.09382807 -0.04921231 -0.009558945
0.08807683 -0.08866347 0.07396 -0.08577496 0.037976217 -0.012659323 0.012797906 -0.019359132
0.057942834 0.12099259 -0.10597713 0.007260158 -0.034039054 -0.008330861 -0.104990795 -0.07139059
0.1358257 0.033854038 0.100375384 -0.07204068 0.11148117 -0.08072253 -0.04852171 0.07259031
0.07129379 -0.117272906 -0.082753494 0.032914992 0.029957447 -0.092858456 0.1054066 -0.045621887
0.05744323 0.115147345 -0.103608996 -0.056798264 0.08266946 0.06574675 0.002809696 -0.086069934
0.0019939297 -0.09733057 -0.01709356 -0.14260301 0.05887272 -0.130358 -0.009888008 -0.11724824
0.00840878 -0.07428102 -0.029503493 -0.096208274 0.010191781 -0.13413301 -0.10014708 -0.06641392
0.05320196 -0.12530804 -0.030720638 -0.10820064 -0.12091957 0.015975924 -0.0108964555 -0.0676551
0.035682645 -0.01674565 -0.07956738 0.034460083 0.044175774 -0.05534681 0.071711615 -0.0650218
0.06407548 -0.047669616 0.08278261 0.01533937 -0.008259561 -0.03342057 -0.023803217 0.0071138283
-0.11044915 0.03517469 -0.063118696 0.003088828 -0.02400598 -0.0149659915 0.0837365 0.05020345
00000000: 1ff9 eebd 4174 a1bd ef50 053e c303 853c
00000010: 14c2 b33d 9314 98bd 60b1 b2bd a047 83bc
00000020: a84a 13bd 2335 4bbd a077 0ebc 0871 fe3b
00000030: 109e b0bd e74f 483c ecb6 bfbd ffb9 d93d
00000040: ccb3 3ebd fe21 2fbc b319 ff3d 07b5 8bbd
00000050: 14da 9e3d cba7 c0bd f8a5 b1bd a55c 513d
00000060: 220a 83bd 5226 ca3c 6569 1cbd 8abe ea3c
00000070: 9b61 0e3e 2b15 a3bc d1ee 283d 1b06 fb3d
00000080: 8cfe 96bd 341e cf3d cabd a3bd 0050 5ebb
00000090: 56c7 ba3d ee28 c0bd d992 49bd 1f9d 1cbc
000000a0: a061 b43d 3195 b5bd 5778 973d c8aa afbd
000000b0: f38c 1b3d 0d69 4fbc 4fae 513c 0b97 9ebc
000000c0: 7755 6d3d f7ca f73d 8a0a d9bd 9fe6 ed3b
000000d0: 896c 0bbd 2a7e 08bc 6a05 d7bd 3b35 92bd
000000e0: e415 0b3e 88aa 0a3d 9c91 cd3d 108a 93bd
000000f0: 3d50 e43d db51 a5bd b3be 46bd 3aaa 943d
00000100: 7b02 923d c72c f0bd aa7a a9bd dfd1 063d
00000110: 5269 f53c 932c bebd 6adf d73d 04de 3abd
00000120: 9849 6b3d 5fd2 eb3d f430 d4bd 4ca5 68bd
00000130: 9b4e a93d 3ba6 863d e022 383b 6f45 b0bd
00000140: 97ac 023b 4055 c7bd cb07 8cbc 8606 12be
00000150: 8524 713d 917c 05be 5001 22bc d81f f0bd
00000160: fbc4 093c a620 98bd 4fb1 f1bc d808 c5bd
00000170: 6efb 263c 2a5a 09be ea19 cdbd 0504 88bd
00000180: 4cea 593d c050 00be d9a9 fbbc 4c98 ddbd
00000190: aea4 f7bd f1df 823c 0c87 32bc c28e 8abd
000001a0: f727 123d 2c2e 89bc 39f4 a2bd 0426 0d3d
000001b0: a8f1 343d 56b3 62bd 8add 923d 262a 85bd
000001c0: 013a 833d 3741 43bd ee89 a93d fb51 7b3c
000001d0: 1c53 07bc 02e4 08bd f7fe c2bc 1e1b e93b
000001e0: 2a33 e2bd 5613 103d 6044 81bd ef6d 4a3b
000001f0: 30a8 c4bc eb33 75bc 0b7e ab3d 22a2 4d3d

fcs.1.bias f4 [2]
-0.050252583 -0.06773754
00000000: a7d5 4dbd fbb9 8abd
