cache/ckpts/woselfloop-genius_NormalNN-genius_trialNo4.pt (torch, 7131 bytes, 5 tensors)

alpha_params f4 [64, 5]
-0.11986132 -1.1086361 -1.1485927 -1.0935459 -1.1390338 -0.24462159 -1.324621 -1.3292143
-1.3146938 -1.1710454 2.1250691 1.157596 1.1312094 1.1235511 0.9902784 -0.23143077
-1.2780157 -1.2987007 -1.2189493 -1.2771726 2.234455 1.2738324 1.2580281 1.2299811
1.0687588 -0.23577233 -1.2777029 -1.3472466 -1.2666649 -1.2971352 -0.1077887 -1.1245867
-1.1327486 -1.0728792 -0.9586481 -0.23389642 -1.3333433 -1.3173602 -1.3014972 -1.0836734
-0.12844364 -1.172469 -1.1380231 -1.1458101 -0.9886574 -0.054821327 -1.1036886 -1.1269587
-1.1137019 -1.1055924 2.1380577 1.2047639 1.2013879 1.1396252 1.1045777 2.2134275
1.2691603 1.2526654 1.229445 1.0774401 -0.118611656 -1.1384717 -1.1244198 -1.0908055
-0.9205818 -0.14444168 -1.1735703 -1.1651559 -1.1070037 -0.99869573 -0.13583682 -1.1572556
-1.1431849 -1.1181058 -0.88289833 2.0594263 1.1105949 1.1756698 1.102923 1.149567
-0.11773139 -1.1343558 -1.1842982 -1.1038954 -1.0938764 2.1887271 1.2147648 1.2137669
1.1735348 0.88686156 2.1263974 1.1744833 1.1481091 1.1501359 0.95016277 2.222948
1.2406039 1.2552265 1.1683148 0.960497 -0.23584394 -1.3103586 -1.2942426 -1.2331686
-1.0018301 -0.25066322 -1.332484 -1.3280289 -1.3190997 -1.0998282 -0.13860035 -1.1367309
-1.1717783 -1.075341 -1.0518099 2.1589956 1.1408632 1.1645497 0.92459553 1.1233554
-0.16090657 -1.1411889 -1.1925108 -1.0788916 -1.1593612 2.1934357 1.1771452 1.2090683
-0.026152644 1.1739546 -0.17974977 -1.2252792 -1.2072517 -1.1841174 -1.0851853 2.1523674
1.180238 1.1756862 1.1229708 1.0087692 2.1492536 1.1856421 1.1632841 1.1564288
1.0150554 2.192408 1.1695884 1.178584 1.0682857 1.1349075 2.1430306 1.1672498
1.1606839 1.1181157 0.9882149 2.1357524 1.1517591 1.1476574 1.0798215 0.9637265
-0.10757902 -1.1404121 -1.1315279 -1.1023942 -0.9514698 2.1317852 1.1093589 1.142796
1.0483248 1.0814438 -0.13502714 -1.1716166 -1.170746 -1.1271664 -0.94476235 2.0609264
1.1710815 1.1952114 1.205613 1.155602 2.1439369 1.1169481 1.139802 0.85386026
1.0661242 -0.12010496 -1.1654856 -1.120595 -1.1444339 -0.93317 -0.15776253 -1.1710093
-1.2163513 -1.1547474 -1.1433996 2.266499 1.2695557 1.2871265 1.1186509 1.1573563
2.2162802 1.2879795 1.2751676 1.2497809 1.1001774 -0.2172557 -1.2201893 -1.2643534
-1.1149027 -1.2615328 2.1444263 1.1661847 1.1596069 0.75527346 1.1490808 -0.105824515
-1.110236 -1.1696962 -1.0974135 -1.1306174 -0.16882457 -1.2218449 -1.2209482 -1.176146
-0.9439068 1.8371136 1.2922548 1.3242716 1.1915166 1.2358279 -0.13940436 -1.1701524
-1.1647701 -1.1300832 -1.0306911 2.0358748 1.3187342 1.3302127 1.1834027 1.2965618
-0.16808029 -1.2668252 -1.3239998 -1.3024665 -1.2704238 2.1217282 1.1270773 1.1620035
1.1180544 1.1394717 -0.11640499 -1.1416004 -1.1245875 -1.041088 -1.117638 -0.17247765
00000000: da79 f5bd cae7 8dbf 1605 93bf 50f9 8bbf
00000010: dccb 91bf 157e 7abe 2e8d a9bf b223 aabf
00000020: e347 a8bf d1e4 95bf 2201 0840 1b2c 943f
00000030: 78cb 903f 86d0 8f3f e382 7d3f 30fc 6cbe
00000040: 0596 a3bf d33b a6bf 8806 9cbf 647a a3bf
00000050: 5001 0f40 f10c a33f 1107 a13f 0570 9d3f
00000060: 17cd 883f 4d6e 71be c58b a3bf 9472 acbf
00000070: 1322 a2bf 8708 a6bf 52c0 dcbd 75f2 8fbf
00000080: e8fd 90bf 1b54 89bf f669 75bf 8b82 6fbe
00000090: feaa aabf 429f a8bf 7697 a6bf cfb5 8abf
000000a0: bb86 03be 7713 96bf beaa 91bf e8a9 92bf
000000b0: a718 7dbf 548c 60bd ab45 8dbf 2f40 90bf
000000c0: c98d 8ebf 0d84 8dbf f0d5 0840 b435 9a3f
000000d0: 14c7 993f 3ddf 913f cd62 8d3f cca8 0d40
000000e0: d873 a23f 5757 a03f 745e 9d3f 8fe9 893f
000000f0: abea f2bd 71b9 91bf fdec 8fbf 849f 8bbf
00000100: 40ab 6bbf 85e8 13be 8d37 96bf d423 95bf
00000110: 4cb2 8dbf 86aa 7fbf cf18 0bbe f420 94bf
00000120: e253 92bf 171e 8fbf a005 62bf a4cd 0340
00000130: f927 8e3f 597c 963f 952c 8d3f 0325 933f
00000140: 281d f1bd 9232 91bf 1597 97bf 724c 8dbf
00000150: 2404 8cbf 1b14 0c40 6a7d 9b3f b75c 9b3f
00000160: 6336 963f 5c09 633f e516 0840 7855 963f
00000170: 3df5 923f a737 933f de3d 733f c844 0e40
00000180: 1ccc 9e3f 43ab a03f 578b 953f 22e3 753f
00000190: 1381 71be d5b9 a7bf bea9 a5bf 78d8 9dbf
000001a0: f83b 80bf ee56 80be d68e aabf dafc a9bf
000001b0: 42d8 a8bf 2cc7 8cbf 40ed 0dbe 6680 91bf
000001c0: d5fc 95bf c6a4 89bf b5a1 86bf fc2c 0a40
000001d0: ce07 923f f70f 953f 4bb2 6c3f 1cca 8f3f
000001e0: b1c4 24be 7a12 92bf 32a4 98bf 1f19 8abf
000001f0: f365 94bf 4061 0c40 b2ac 963f c0c2 9a3f
00000200: 123e d6bc 2544 963f 5310 38be f3d5 9cbf
00000210: 3987 9abf 2991 97bf 5ae7 8abf 63c0 0940
00000220: 0a12 973f e37c 963f 82bd 8f3f 591f 813f
00000230: 5f8d 0940 1fc3 973f 7ee6 943f dc05 943f
00000240: 56ed 813f 6a50 0c40 13b5 953f d7db 963f
00000250: 96bd 883f a644 913f 6a27 0940 7168 953f
00000260: 4a91 943f 6a1e 8f3f a7fb 7c3f 2bb0 0840
00000270: d86c 933f 70e6 923f 9737 8a3f c8b6 763f
00000280: 6452 dcbd 06f9 91bf e8d5 90bf 411b 8dbf
00000290: 8693 73bf 2b6f 0840 79ff 8d3f 2447 923f
000002a0: 822f 863f c06c 8a3f 8e44 0abe 88f7 95bf
000002b0: 01db 95bf fd46 90bf f2db 71bf 38e6 0340
000002c0: 00e6 953f b0fc 983f 8751 9a3f c4ea 933f
000002d0: 4336 0940 28f8 8e3f 08e5 913f 9696 5a3f
000002e0: c276 883f 97f9 f5bd a22e 95bf a86f 8fbf
000002f0: cf7c 92bf 3be4 6ebf 808c 21be a2e3 95bf
00000300: 66b1 9bbf c3ce 93bf eb5a 92bf 520e 1140
00000310: cd80 a23f 90c0 a43f f42f 8f3f 4024 943f
00000320: 89d7 0d40 83dc a43f b138 a33f d2f8 9f3f
00000330: 9dd2 8c3f 4778 5ebe 2a2f 9cbf 55d6 a1bf
00000340: 22b5 8ebf e879 a1bf 483e 0940 8a45 953f
00000350: 006e 943f 9a59 413f 1415 933f 86ba d8bd
00000360: 371c 8ebf 9bb8 95bf 0c78 8cbf 12b8 90bf
00000370: 59e0 2cbe 6a65 9cbf 0848 9cbf f48b 96bf
00000380: e0a3 71bf 8a26 eb3f 9b68 a53f bb81 a93f
00000390: 9e83 983f 9c2f 9e3f 04c0 0ebe 8ec7 95bf
000003a0: 3017 95bf 91a6 90bf b0ed 83bf c64b 0240
000003b0: 48cc a83f 6944 aa3f bd79 973f bdf5 a53f
000003c0: 3d1d 2cbe 5427 a2bf d378 a9bf 39b7 a6bf
000003d0: 3f9d a2bf 65ca 0740 1244 903f 88bc 943f
000003e0: 681c 8f3f 35da 913f bd65 eebd f61f 92bf
000003f0: 7cf2 8fbf 5f42 85bf c30e 8fbf fb9d 30be

fcs.0.weight f4 [64, 12]
-0.23374332 0.0074851164 0.16116443 0.25399262 -0.027270213 0.21744722 -0.16152242 -0.14835125
-0.09383931 -0.12445552 -0.24762467 0.14907172 0.06920891 0.088828966 0.2489521 -0.0094434675
-0.24213262 -0.105112895 -0.10838806 0.20735276 0.030872785 -0.26162535 0.25171715 -0.2186995
0.263595 -0.17097132 0.0938398 0.16512275 0.24429886 0.10043895 0.0061494336 0.14711164
0.013023048 0.19119006 0.07957181 -0.23229061 -0.13480814 0.11218289 -0.20795184 0.07803373
-0.00093572604 0.15632677 -0.17786129 -0.2560794 0.16153102 -0.12190172 -0.035511263 -0.03931568
0.1520382 0.2635639 0.26134473 -0.17504461 0.048006997 -0.039237224 0.0908437 -0.24307922
0.09178413 -0.14391656 0.065888055 0.2613786 -0.11277138 -0.13469328 0.29299265 0.16346617
-0.135926 0.24764235 0.13800484 0.009516692 -0.14749873 -0.19794363 0.14020753 0.22566725
0.19856068 -0.017104356 0.25440738 -0.036052078 0.23558463 0.050482932 -0.12278533 0.019544665
-0.1812017 -0.054150943 0.1681701 -0.2664805 0.06460649 -0.17718011 -0.025243068 -0.21995574
-0.16270812 -0.12677296 -0.2446214 -0.1994048 -0.058480687 0.10806494 -0.16487731 0.21481602
0.11945443 -0.13411805 -0.18800694 0.19542019 -0.045653954 0.1545772 0.09353213 0.12136759
0.060130343 0.21036564 -0.14298251 -0.03464943 -0.21568532 -0.17122217 -0.03202272 -0.16889341
-0.17161143 0.20659609 0.19225553 -0.25231102 0.082668096 0.21687464 -0.050944 0.1421555
-0.046385333 -0.27626318 0.2673521 0.029690184 -0.27012286 0.10288938 0.24192418 -0.22305958
-0.10655301 0.23338503 0.102484696 -0.11508695 0.19959301 0.1148514 -0.046014905 0.23922446
0.21654373 0.15970428 0.05638157 0.12061241 0.19317365 -0.18386397 -0.06134525 0.14117202
0.07305839 0.26969558 -0.26875666 -0.20003834 -0.26717877 0.12708904 -0.02361894 -0.16756348
0.0875592 0.09538199 -0.07578171 -0.22337855 0.18307295 0.27369052 0.10749444 0.107861556
-0.057946023 -0.17476986 -0.028491126 0.08968864 0.17019938 0.00093051034 -0.23670287 -0.26170188
0.24213462 -0.20511979 -0.19038072 0.0140946945 -0.18613729 0.26756325 -0.027001262 -0.17071229
0.24788928 0.03128819 0.19306049 0.18897437 -0.098028466 -0.045678206 -0.049420495 -0.030120037
0.2382318 -0.16309923 0.13590409 0.0028588832 -0.15473494 -0.25165406 0.22826481 0.10225807
0.0015032098 -0.15464558 -0.14375961 0.22917834 0.011933981 0.14958999 -0.18744795 0.010357685
-0.048238017 -0.25353652 -0.014876092 0.16475041 0.21109486 -0.025514266 -0.2525275 0.035641883
0.16170216 -0.12906499 0.25040314 -0.10763894 -0.088041104 0.016522586 0.11878287 0.15080097
0.14294516 0.08484894 0.25169647 0.18383455 0.0738243 -0.10186064 0.17175579 0.20097832
-0.04161757 0.14433143 0.22647245 -0.022247618 0.011922313 0.10987931 0.014535768 -0.06485458
0.23755817 -0.079132155 -0.014463531 0.047662556 -0.23205033 -0.013916349 -0.19145629 -0.2007987
0.034102 0.009797851 0.11485424 0.26871794 0.028649736 -0.13659011 -0.26217946 -0.23918289
-0.2112992 0.03969296 -0.2198489 -0.07422963 0.16153474 0.14007668 -0.021088975 0.24370863
00000000: 695a 6fbe b545 f53b 4a08 253e 520b 823e
00000010: c865 dfbc 7caa 5e3e 2266 25be 64e9 17be
00000020: d32e c0bd 89e2 febd 5291 7dbe 42a6 183e
00000030: 67bd 8d3d f6eb b53d 4ded 7e3e c6b8 1abc
00000040: 9df1 77be 6e45 d7bd 8ffa ddbd 4854 543e
00000050: ece8 fc3c c2f3 85be 12e1 803e c3f2 5fbe
00000060: edf5 863e 1b13 2fbe 152f c03d f015 293e
00000070: 7b29 7a3e f0b2 cd3d 3081 c93b 6fa4 163e
00000080: 9f5e 553c 54c7 433e 8cf6 a23d 97dd 6dbe
00000090: 250b 0abe 25c0 e53d 54f1 54be 26d0 9f3d
000000a0: 834b 75ba 2014 203e 4521 36be d71c 83be
000000b0: 6368 253e 9ca7 f9bd 4274 11bd 7a09 21bd
000000c0: e7af 1b3e d9f1 863e face 853e e53e 33be
000000d0: fca2 443d 36b7 20bd 430c ba3d c2e9 78be
000000e0: 51f9 bb3d dd5e 13be 51f0 863d 6ad3 853e
000000f0: aef4 e6bd 09ed 09be 2203 963e ad63 273e
00000100: 2f30 0bbe f595 7d3e 2451 0d3e e6eb 1b3c
00000110: e809 17be bcb1 4abe 9092 0f3e 5115 673e
00000120: 7e53 4b3e 6f1e 8cbc af41 823e 58ab 13bd
00000130: 193d 713e 31c7 4e3d e076 fbbd 221c a03c
00000140: f08c 39be 61cd 5dbd c834 2c3e 2270 88be
00000150: 6850 843d b46e 35be 8dca cebc 143c 61be
00000160: f59c 26be c5d0 01be 087e 7abe c630 4cbe
00000170: 7289 6fbd 2751 dd3d 99d5 28be bbf8 5b3e
00000180: 86a4 f43d 3e56 09be e484 40be 3b1c 483e
00000190: a4ff 3abd 7c49 1e3e c68d bf3d 928f f83d
000001a0: 3c4b 763d 176a 573e 026a 12be 90ec 0dbd
000001b0: 9ddc 5cbe dd54 2fbe 412a 03bd 65f2 2cbe
000001c0: e8ba 2fbe ed8d 533e a2de 443e e92e 81be
000001d0: e44d a93d 6314 5e3e a8aa 50bd 3691 113e
000001e0: 8cfe 3dbd 5e72 8dbe 60e2 883e d438 f33c
000001f0: 8b4d 8abe abb7 d23d f9ba 773e bb69 64be
00000200: 7738 dabd 7cfc 6e3e 7fe3 d13d b5b2 ebbd
00000210: 1c62 4c3e 3637 eb3d 207a 3cbd 42f7 743e
00000220: a4bd 5d3e 8589 233e 5cf0 663d a403 f73d
00000230: 50cf 453e d646 3cbe 2845 7bbd 668f 103e
00000240: a39f 953d 8a15 8a3e 799a 89be dad6 4cbe
00000250: a8cb 88be a123 023e 827c c1bc c395 2bbe
00000260: 3d52 b33d a257 c33d 7133 9bbd 59bd 64be
00000270: 7a77 3b3e 2a21 8c3e 0c26 dc3d 85e6 dc3d
00000280: cf58 6dbd dff6 32be 3966 e9bc adae b73d
00000290: bf48 2e3e 7eed 733a 3d62 72be cafd 85be
000002a0: 23f2 773e ec0a 52be 2af3 42be 6fed 663c
000002b0: c69a 3ebe 0dfe 883e c031 ddbc 34cf 2ebe
000002c0: b0d6 7d3e 0c28 003d a6b1 453e 7f82 413e
000002d0: 26c3 c8bd 1219 3bbd 256d 4abd 4cbe f6bc
000002e0: 09f3 733e 7c03 27be 712a 0b3e 1a5c 3b3b
000002f0: d672 1ebe cdd8 80be 40be 693e ae6c d13d
00000300: 5a07 c53a 695b 1ebe b835 13be baad 6a3e
00000310: bf86 433c 1e2e 193e 5bf2 3fbe 48b3 293c
00000320: 3a95 45bd 8acf 81be daba 73bc 55b4 283e
00000330: 4029 583e 4b03 d1bc 494b 81be 39fd 113d
00000340: 4095 253e 9d29 04be d734 803e ce71 dcbd
00000350: e54e b4bd 605a 873c 6f44 f33d 926b 1a3e
00000360: 3760 123e 48c5 ad3d 5cde 803e 203f 3c3e
00000370: 3231 973d 509c d0bd c0e0 2f3e 43cd 4d3e
00000380: 2f77 2abd 9ecb 133e 65e8 673e a340 b6bc
00000390: ce55 433c 6708 e13d 6e27 6e3c 7ad2 84bd
000003a0: 7342 733e 0a10 a2bd 72f8 6cbc d039 433d
000003b0: 9a9e 6dbe 6601 64bc 1e0d 44be 2d9e 4dbe
000003c0: 8aae 0b3d 2a87 203c b338 eb3d 6695 893e
000003d0: dab2 ea3c 47de 0bbe 633c 86be 5cec 74be
000003e0: d15e 58be 1695 223d 1220 61be b405 98bd
000003f0: 5d69 253e 4370 0f3e c9c2 acbc c18e 793e

fcs.0.bias f4 [64]
0.20106661 0.031402405 0.22314258 -0.06401088 -0.08761487 0.1177408 -0.18612784 0.23482057
-0.137991 0.022174869 0.17756075 0.27756178 0.15544902 -0.14108008 0.15264185 0.045373414
0.08827567 0.23835754 -0.027890908 -0.25791347 0.12576145 0.17858855 0.04739813 0.28393364
-0.074565575 0.2589802 -0.14549807 -0.15463945 0.05665113 0.119947985 0.18857893 -0.07717986
-0.09396019 0.04075075 -0.118047506 -0.0007272563 0.071591735 -0.1869163 -0.17887916 0.25465053
-0.002549788 0.25123835 0.2528061 0.3020047 0.20843576 -0.12778306 0.0028965834 -0.11325206
-0.035161868 0.08230192 -0.119458094 -0.15232477 0.18026993 0.0016489029 -0.19888239 0.2985211
0.13161856 0.2141769 0.27851307 -0.21901093 -0.18409133 -0.15754971 0.009094202 -0.0772752
00000000: 68e4 4d3e cf9f 003d 7d7f 643e 2318 83bd
00000010: 6d6f b3bd 1722 f13d 4c98 3ebe ce74 703e
00000020: 834d 0dbe 12a8 b53c 7cd2 353e 941c 8e3e
00000030: 072e 1f3e 4c77 10be 254e 1c3e 79d9 393d
00000040: e0c9 b43d 0014 743e 797b e4bc 3c0d 84be
00000050: 9cc7 003e ebdf 363e 8b24 423d c05f 913e
00000060: d6b5 98bd 0e99 843e 72fd 14be ce59 1ebe
00000070: 040b 683d 4aa7 f53d d61a 413e 7910 9ebd
00000080: 336e c0bd 42ea 263d e4c2 f1bd 58a5 3eba
00000090: b09e 923d fd66 3fbe 192c 37be 8e61 823e
000000a0: 581a 27bb 50a2 803e cd6f 813e 5ca0 9a3e
000000b0: 2f70 553e 90d9 02be 9bd4 3d3b b2f0 e7bd
000000c0: e405 10bd e98d a83d 72a6 f4bd 06fb 1bbe
000000d0: ae98 383e 0020 d83a d3a7 4bbe c2d7 983e
000000e0: 04c7 063e 3051 5b3e 4499 8e3e 6744 60be
000000f0: 7082 3cbe b654 21be d9ff 143c 7642 9ebd

fcs.1.weight f4 [2, 64]
-0.14990091 -0.12616749 0.14419971 -0.016442962 0.10205502 -0.1128015 -0.13442342 -0.062580496
-0.084232666 -0.087040536 0.0053823013 0.022062972 -0.13395016 -0.03508925 -0.1409613 0.121543
-0.09142613 0.0036378654 0.13863449 -0.05384816 0.029645309 -0.1408051 -0.13416137 0.066461675
-0.09703657 0.04016737 -0.086158074 0.042644937 0.15298158 -0.0048518023 0.05534176 0.13673794
-0.12102191 0.116143964 -0.12666096 0.011533246 0.10559561 -0.1404903 -0.08517172 0.006152164
0.102339484 -0.10201341 0.08913636 -0.1203668 -0.008954823 0.0020225476 -0.033907197 -0.004330784
0.02157296 0.13822922 -0.1432103 -0.040185746 -0.068156354 -0.05573314 -0.13881354 -0.10524685
0.15007958 -0.012879842 0.11453577 -0.11850536 0.12702899 -0.11548359 -0.08530834 0.025646735
0.10414681 -0.069892034 -0.096744135 0.06554888 0.015688853 -0.054888703 0.15258452 0.0009791867
0.105716534 0.15229207 -0.11771268 -0.07107612 0.13038127 0.11307292 0.050238334 -0.10134895
0.046993487 -0.11164202 -0.0311523 -0.1569569 0.10677548 -0.083545685 0.03753135 -0.13415
0.04137761 -0.11316656 0.018503228 -0.11018815 -0.0037409414 -0.1493867 -0.11422727 -0.08056726
0.100536674 -0.1403501 0.01609176 -0.12316274 -0.13556083 0.062710345 0.024793444 -0.08342202
0.021436354 -0.004690213 -0.095225655 0.068624966 0.09109709 -0.070031986 0.118429005 -0.08007783
0.10036496 -0.06554451 0.119828224 0.06281319 0.02549716 0.01399874 0.009869546 0.039624535
-0.12468424 0.08193302 -0.07726479 0.04961427 -0.039603125 0.019621696 0.12027444 0.09716254
00000000: a07f 19be 0d32 01be 17a9 133e 64b3 86bc
00000010: 3902 d13d 7904 e7bd 4ba6 09be 342a 80bd
00000020: 2d82 acbd 4f42 b2bd 045e b03b 68bd b43c
00000030: 3b2a 09be bfb9 0fbd 2958 10be 89eb f83d
00000040: 9f3d bbbd 4169 6e3b 33f6 0d3e e38f 5cbd
00000050: b8da f23c 362f 10be 9961 09be 0f1d 883d
00000060: 1cbb c6bd 8a86 243d a573 b0bd 75ac 2e3d
00000070: 34a7 1c3e defb 9ebb 0bae 623d 0805 0c3e
00000080: 56da f7bd e3dc ed3d 69b3 01be f1f5 3c3c
00000090: 8342 d83d b0dc 0fbe 836e aebd 1898 c93b
000000a0: 5d97 d13d 68ec d0bd 208d b63d de82 f6bd
000000b0: 40b7 12bc b88c 043b 46e2 0abd 40e9 8dbb
000000c0: c7b9 b03c f68b 0d3e b9a5 12be cf99 24bd
000000d0: 8f95 8bbd 6f48 64bd 2325 0ebe a98b d7bd
000000e0: 76ae 193e f905 53bc bb91 ea3d f0b2 f2bd
000000f0: e313 023e a982 ecbd 24b6 aebd 1a19 d23c
00000100: ec4a d53d 8e23 8fbd ca21 c6bd 7e3e 863d
00000110: e985 803c fad2 60bd 1e3f 1c3e 0e58 803a
00000120: e981 d83d 74f2 1b3e 5813 f1bd 5b90 91bd
00000130: ab82 053e c692 e73d b6c6 4d3d 0a90 cfbd
00000140: 3e7c 403d 92a4 e4bd 1c33 ffbc 4fb9 20be
00000150: 1aad da3d 001a abbd 79ba 193d 9e5e 09be
00000160: 927b 293d dfc3 e7bd 1594 973c 53aa e1bd
00000170: 952a 75bb d4f8 18be fdef e9bd 7300 a5bd
00000180: 2ce6 cd3d f0b7 0fbe ded2 833c bf3c fcbd
00000190: 75d0 0abe 486e 803d 9f1b cb3c 2ad9 aabd
000001a0: 4b9b af3c 5cb0 99bb ab05 c3bd 3f8b 8c3d
000001b0: 1c91 ba3d ee6c 8fbd e88a f23d d8ff a3bd
000001c0: 258c cd3d 333c 86bd 8068 f53d 34a4 803d
000001d0: 6cdf d03c f95a 653c e0b3 213c 564d 223d
000001e0: 735a ffbd 80cc a73d 013d 9ebd 5538 4b3d
000001f0: e336 22bd aebd a03c 7252 f63d 27fd c63d

fcs.1.bias f4 [2]
-0.042347737 -0.07563484
00000000: d274 2dbd 70e6 9abd
