cache/ckpts/woselfloop-genius_NormalNN-genius_trialNo94.pt (torch, 9627 bytes, 5 tensors)

alpha_params f4 [64, 13]
0	0x3f90dce1	1.1317407
1	0x3e942182	0.28931814
2	0xbfa4f297	-1.2886533
3	0x3d8b7976	0.06810276
4	0x3e9fe4a9	0.3122914
5	0xbd8cdd92	-0.06878199
6	0xbf8616da	-1.0475724
7	0xbe90fee6	-0.28319472
8	0xbebedc56	-0.37277478
9	0xbf04d9e3	-0.5189497
10	0xbee010cd	-0.43762818
11	0xbef7afcd	-0.48376313
12	0x3d2aee2e	0.041731052
13	0x3eb26bf3	0.34847984
14	0x3e49eb58	0.19718683
15	0x3faa916e	1.3325632
16	0xbf023099	-0.50855404
17	0x3fbab23a	1.458564
18	0xbf3321fa	-0.6997372
19	0x3f61ada9	0.8815561
20	0xbe1c79c2	-0.15280822
21	0x3eca2e7f	0.394886
22	0x3d97a5ac	0.07404646
23	0x3e56a04f	0.2095959
24	0xbd4e6ddb	-0.050397735
25	0x3ddb03b7	0.10694068
26	0x3e1d37a2	0.15353253
27	0x3f1064c0	0.5640373
28	0x3ec87681	0.3915291
29	0x3f15732c	0.58378863
30	0x3e7e8d15	0.24858506
31	0x3ed65f20	0.4186945
32	0x3de0f155	0.109835304
33	0x3e82e481	0.2556496
34	0x3e6260cd	0.22107239
35	0x3da11709	0.07865722
36	0x3ebc616c	0.36793077
37	0xbe1df900	-0.15427017
38	0x3e8bb7e3	0.27288732
39	0xbc4c1fef	-0.012458785
40	0xbd03871e	-0.03211128
41	0xbdacdc93	-0.08440509
42	0xbd802706	-0.06257443
43	0xbe8799a4	-0.26484406
44	0xbe53ad63	-0.2067161
45	0xbef8659c	-0.48515022
46	0xbec3e10b	-0.38257632
47	0xbed428be	-0.41437334
48	0xbe1477a4	-0.14498764
49	0xbebb733a	-0.36611348
50	0x3cde61d7	0.027146263
51	0xbea5b4f8	-0.3236463
52	0x3ea6629d	0.3249711
53	0x3e0a1d6c	0.13487786
54	0x3fa894da	1.3170426
55	0xbec3ddd5	-0.38255182
56	0x3fb1b554	1.3883462
57	0xbf0a607d	-0.5405348
58	0x3f521dfb	0.82076997
59	0xbde871ab	-0.113498054
60	0x3ecb497c	0.39704502
61	0x3d816131	0.06317366
62	0x3e666fe3	0.22503619
63	0xbd43720a	-0.047716178
64	0x3e0c981b	0.13729899
65	0x3eb1a4fe	0.34696192
66	0x3dd8a39c	0.10578081
67	0x3faf3b1f	1.3689917
68	0xbf036093	-0.51319236
69	0x3fb2af4e	1.3959749
70	0xbf041816	-0.5159925
71	0x3f34e955	0.70668536
72	0xbdbd4762	-0.09242131
73	0x3eb51ad8	0.35372043
74	0x3c88d1f6	0.01670168
75	0x3e677637	0.22603689
76	0xbdb47f71	-0.0881337
77	0x3e15a367	0.14613114
78	0xbe0e69fe	-0.1390762
79	0xbf190e51	-0.5978747
80	0xbeca7d2d	-0.39548627
81	0xbf2e3a41	-0.6805764
82	0xbe5c7786	-0.2152997
83	0xbf0fea9a	-0.5621735
84	0xbd8f1b3c	-0.069876164
85	0xbe86e0c0	-0.26343346
86	0xbe863cf4	-0.2621838
87	0xbe1e39dd	-0.1545176
88	0xbe9a26b5	-0.30107656
89	0x3d72e205	0.05929758
90	0xbe536ff9	-0.20648183
91	0x3e1ce906	0.15323266
92	0x3f05039c	0.5195863
93	0x3ecb1ca1	0.3967028
94	0x3f107eba	0.5644337
95	0x3e8232c4	0.25429356
96	0x3eb1746d	0.34659138
97	0x3e0f03fd	0.13966365
98	0x3e63272a	0.22182909
99	0x3e49cc35	0.19706805
100	0x3db0ffe7	0.086425595
101	0x3e97e8c0	0.29669762
102	0xbd92e5fd	-0.07172773
103	0x3e56e00f	0.20983909
104	0xbc47860e	-0.012177957
105	0xbd2292dd	-0.03969084
106	0xbdffde04	-0.12493518
107	0xbdd45320	-0.10367417
108	0xbe49325a	-0.19648114
109	0xbe53c7cc	-0.20681685
110	0xbedf4981	-0.43610767
111	0xbed4fa94	-0.41597426
112	0xbf0244aa	-0.50886023
113	0xbe7f7fac	-0.24951047
114	0xbecaf72d	-0.39641705
115	0x3c35d02c	0.011096995
116	0xbea43707	-0.32073233
117	0x3f8d90dc	1.1059833
118	0x3e920f5f	0.28527352
119	0xbfa19ce0	-1.2626
120	0x3d8e904b	0.069611154
121	0x3ec032c6	0.37538737
122	0xbd7cabc4	-0.061687246
123	0xbf8521ea	-1.0400975
124	0xbe8ccac4	-0.27498448
125	0xbeaddbf6	-0.3395688
126	0xbefe8e16	-0.49717778
127	0xbee85702	-0.45378882
128	0xbef3071f	-0.4746637
129	0x3d56d16c	0.052445814
130	0x3e32e816	0.17471346
131	0x3debf0bc	0.11520526
132	0x3f9beb71	1.2181226
133	0xbea07fb9	-0.31347445
134	0x3fc296d3	1.5202278
135	0xbf38d2c0	-0.7219658
136	0x3f7441b6	0.95412767
137	0xbe8b9ee9	-0.27269676
138	0x3e9b9c56	0.30392712
139	0x3e4f3750	0.20235944
140	0xbd0c2e9c	-0.034224138
141	0x3e815e67	0.25267336
142	0xbdd9e59b	-0.10639497
143	0x3eb5982f	0.3546767
144	0x3dc20c15	0.09474961
145	0x3fb550b9	1.416526
146	0xbef697ca	-0.4816268
147	0x3fb65b30	1.4246578
148	0xbf1d15bf	-0.61361307
149	0x3f5691ec	0.8381641
150	0xbe29468a	-0.16530815
151	0x3ec93b72	0.39303166
152	0xbc5f8c8e	-0.013644351
153	0x3e839468	0.25699162
154	0xbd37f116	-0.04490765
155	0x3df46529	0.11933357
156	0xbe222559	-0.1583456
157	0xbf0f56e1	-0.5599194
158	0xbedd8126	-0.43262595
159	0xbf0b2dc6	-0.5436672
160	0xbea059c3	-0.31318483
161	0xbeadb63d	-0.339281
162	0xbe4b5b00	-0.19858932
163	0xbe314600	-0.17311859
164	0xbe8bf40d	-0.27334633
165	0xbdd1dfce	-0.102477655
166	0xbe91fd28	-0.28513455
167	0x3cdc96da	0.0269274
168	0xbe299ec3	-0.16564469
169	0x3eb21241	0.34779552
170	0x3d90f923	0.07078769
171	0x3fb9ba11	1.4509908
172	0xbf0733a4	-0.5281317
173	0x3fb8ad2a	1.4427845
174	0xbf090faa	-0.53539526
175	0x3f431262	0.76199925
176	0xbe095376	-0.13410744
177	0x3ec80c0a	0.39071685
178	0x3d60def4	0.054900125
179	0x3e47d6d0	0.19515538
180	0xbd13ed96	-0.03611525
181	0x3e019826	0.12655696
182	0xbe0bcbf4	-0.1365202
183	0xbf12cf04	-0.5734713
184	0xbea8e7a7	-0.32989237
185	0xbf3b2a59	-0.7311149
186	0xbe2e82d0	-0.17042089
187	0xbf091686	-0.53549993
188	0xbd75b810	-0.05998999
189	0xbe7a16df	-0.24422787
190	0xbec15135	-0.3775727
191	0x3e496ec4	0.1967116
192	0xbf158f4c	-0.5842178
193	0x3e91c9c9	0.28474262
194	0xbeba1ad8	-0.36348605
195	0x3e14f834	0.14547807
196	0x3f070877	0.5274729
197	0x3ec96338	0.3933351
198	0x3f15bdc3	0.5849268
199	0x3e80e819	0.25177076
200	0x3ed21528	0.41031766
201	0x3e0a1c26	0.134873
202	0x3e4c8d99	0.1997589
203	0x3e9bc6e8	0.3042519
204	0xbdbb6638	-0.09150356
205	0x3ed93668	0.4242432
206	0xbe2e2fc9	-0.17010416
207	0x3e8d1dad	0.27561703
208	0x3fc025f7	1.5011586
209	0x3eaadd78	0.33372092
210	0xbfb633ad	-1.423452
211	0xbccaac15	-0.024740258
212	0xbee15d7b	-0.44016632
213	0xbe0dfe2c	-0.1386649
214	0xbf629b8a	-0.88518584
215	0xbec5a4c7	-0.38602278
216	0xbec21209	-0.37904385
217	0xbf0a322d	-0.5398281
218	0xbe83b96e	-0.2572741
219	0xbee1e6e5	-0.4412147
220	0xbdad3059	-0.08456487
221	0x3eaeabdf	0.34115502
222	0x3e73b72c	0.23800343
223	0x3fa62301	1.2979432
224	0xbef8e859	-0.48614767
225	0x3fba2066	1.4541137
226	0xbf360f43	-0.7111704
227	0x3f6817b8	0.9066119
228	0xbe1a717b	-0.15082352
229	0x3eba5e76	0.36400193
230	0x3e0a8737	0.13528143
231	0x3e3fd27d	0.18732639
232	0xbc1327a8	-0.008981623
233	0x3db7b991	0.08970941
234	0x3e967007	0.29382345
235	0xbd8d2ca3	-0.068932794
236	0x3fad0624	1.3517499
237	0xbeb33f09	-0.3500903
238	0x3fb86435	1.4405581
239	0xbee01927	-0.4376919
240	0x3f4298cf	0.7601442
241	0xbd413f78	-0.04717967
242	0x3e5613ad	0.20905943
243	0x3df54890	0.11976731
244	0x3d095022	0.033523686
245	0x3e03a5fb	0.12856285
246	0x3c2face0	0.010722369
247	0x3eb1d47a	0.3473242
248	0x3e8b3993	0.27192363
249	0x3f9e9f06	1.239228
250	0xbf0c2275	-0.5474008
251	0x3fb69c6d	1.4266487
252	0xbf33e41c	-0.7026994
253	0x3f5e15b7	0.86751884
254	0xbe50ede6	-0.20403251
255	0x3eee7854	0.46576178

fcs.0.weight f4 [64, 12]
0	0xbd2bb248	-0.04191807
1	0xbeda2e1a	-0.42613298
2	0x3d62e143	0.055390608
3	0xbd53ef0b	-0.05174164
4	0xbcacd42c	-0.021097265
5	0x3d581bb4	0.052760795
6	0xbf3cd5b1	-0.7376357
7	0x3a8a1732	0.0010535477
8	0x3e039737	0.12850653
9	0x3ea81bbb	0.32833657
10	0x3e922cbd	0.28549758
11	0x39c60656	0.00037770224
12	0xbcb0efcd	-0.02159872
13	0x3eca030f	0.3945546
14	0x3f832516	1.0245693
15	0xbe2daabc	-0.16959661
16	0x3f0b3ed0	0.5439272
17	0x3e2ab2ca	0.16669765
18	0xbe2f8206	-0.17139444
19	0x3f84d15b	1.037639
20	0xbd138c68	-0.036022574
21	0xbd7fc8d6	-0.06244739
22	0x3ce2fe2b	0.027709087
23	0xbcd7d00d	-0.026344324
24	0x3d5b02b2	0.053469367
25	0xbdd64c42	-0.10463764
26	0xbd8b6630	-0.068066
27	0xbf0148ed	-0.505019
28	0xbe3bd042	-0.18341163
29	0xbf0aa609	-0.541596
30	0x3f211a79	0.6293102
31	0xbeea3065	-0.45740047
32	0x3c34e7b9	0.011041575
33	0x3cdbcd1e	0.026831206
34	0xb9e04c4b	-0.00042781452
35	0x3b7690f5	0.0037623022
36	0xbe4e9e70	-0.20177627
37	0xbcd4db7c	-0.025983565
38	0xbe071883	-0.13192944
39	0x3ecf64f1	0.405067
40	0x3e268709	0.1626245
41	0xbd804b42	-0.06264354
42	0x3c8cf40d	0.017206216
43	0xbd04fa33	-0.03246517
44	0x3d9de81f	0.07710289
45	0x3e9bc10b	0.30420718
46	0x3e8e8221	0.27833655
47	0x389d73cd	7.507913e-05
48	0xbcf7b4fd	-0.03023767
49	0x3f333ef7	0.7001795
50	0x3f8fd3dc	1.1236529
51	0xbeaf883f	-0.34283635
52	0x3f3b7ecf	0.7324037
53	0x3eb802b8	0.35939574
54	0xbe6d0a4d	-0.2314846
55	0x3f6e6325	0.9312003
56	0xbd31df44	-0.043425813
57	0xbdb3c8c1	-0.08778525
58	0x3b56a102	0.0032749777
59	0xbd063044	-0.032760873
60	0xbc0a35d4	-0.008435685
61	0x3ef7f0cb	0.48425898
62	0x3f802967	1.0012635
63	0x3e49cb68	0.197065
64	0x3f1f9390	0.6233454
65	0x3f4cab04	0.7994845
66	0xbe8fe88d	-0.2810711
67	0x3f90aebc	1.1303325
68	0xbdf3742f	-0.11887395
69	0xbdb4109c	-0.087922305
70	0x3bce9694	0.0063045714
71	0xbd3faeb4	-0.04679747
72	0x3cb1b17e	0.02169108
73	0xbee1cc62	-0.44101244
74	0x3d40a7a3	0.04703487
75	0xbf660c74	-0.8986275
76	0x3c770a5c	0.015078153
77	0xbed91547	-0.42399046
78	0x3f09c536	0.53816545
79	0xbf2dea8b	-0.6793601
80	0x3d10398e	0.03521114
81	0x3d91b1e2	0.071140066
82	0x3c50ab64	0.012736175
83	0x3ca0f0c9	0.019646065
84	0x3d975133	0.073885344
85	0x3de48233	0.11157646
86	0x3e17c5db	0.1482157
87	0xbf1ed6ba	-0.62046397
88	0xbe55e266	-0.20887145
89	0xbec1779a	-0.3778656
90	0x3e84bf8d	0.25927392
91	0xbdea1e7a	-0.11431594
92	0x3bd38309	0.0064548296
93	0x3ba7f2ac	0.0051253643
94	0x3a21d1c4	0.000617292
95	0x39d7f45d	0.0004119006
96	0xbdb204be	-0.08692311
97	0xbf10c46b	-0.5654971
98	0xbcd100a8	-0.025513008
99	0x3e737d65	0.23778303
100	0xbc86540d	-0.0163975
101	0x3ca57cc6	0.020201098
102	0x3c3b9efb	0.011451478
103	0x3e90af63	0.2825881
104	0x3f3a3b07	0.7274632
105	0x3f305277	0.6887583
106	0x3f23d214	0.6399243
107	0x388cc52b	6.7124456e-05
108	0xbd949e49	-0.07256753
109	0xbee741e7	-0.45167467
110	0x3d7e8386	0.06213715
111	0xbd52ca8e	-0.051462702
112	0xbd6c222f	-0.057649788
113	0xbe2816d4	-0.16414958
114	0xbe9ecf3a	-0.31017476
115	0xbe46c251	-0.19410063
116	0x3d90711c	0.07052824
117	0x3efa7dd8	0.48924136
118	0x3eec8545	0.46195427
119	0x39b657f8	0.00034779287
120	0xbbd91188	-0.0066244043
121	0xbe6c2e41	-0.2306452
122	0x3f8b3e9e	1.0878484
123	0xbe272e07	-0.16326152
124	0x3e156eda	0.14593068
125	0x3f80a8b1	1.005148
126	0xbe35fb02	-0.17771533
127	0x3f16e5e3	0.5894453
128	0xbe9695a8	-0.29411054
129	0xbd806e77	-0.062710695
130	0xbd2b8dbe	-0.041883223
131	0xbce44473	-0.02786467
132	0xbc8ceff3	-0.01720426
133	0x3f2833ba	0.6570393
134	0x3f6e4521	0.9307423
135	0x3ed8bf59	0.42333487
136	0x3f458232	0.7715179
137	0x3f22d001	0.6359864
138	0xbe8c2499	-0.27371672
139	0x3f95599a	1.1667969
140	0xbd76f2d9	-0.06029019
141	0xbd969423	-0.073524736
142	0x3c9218d8	0.017834112
143	0xbc98655d	-0.018603021
144	0x3d915b1d	0.070974566
145	0xbe02ec81	-0.12785532
146	0xbede5c10	-0.43429613
147	0xbf1bfe8c	-0.6093528
148	0x3c5edbac	0.013602179
149	0xbe3d9d20	-0.1851697
150	0x3e9fd57a	0.31217557
151	0xbf022b96	-0.50847757
152	0x3a8aad6c	0.0010580248
153	0x3bb9b9d9	0.0056679067
154	0xba0c0b0b	-0.00053422217
155	0x3a60d685	0.0008576888
156	0xbc36a970	-0.0111487955
157	0x3ec5b2db	0.38613018
158	0x3f576b2d	0.8414791
159	0x3da1c1f6	0.07898323
160	0x3f251c33	0.64496154
161	0x3f067cc7	0.52534145
162	0xbea1026e	-0.31447166
163	0x3f83656d	1.0265328
164	0xbd5f9843	-0.054588567
165	0xbdb22694	-0.086987644
166	0x3cecce94	0.028907098
167	0xbd3fb285	-0.04680111
168	0x3c9a6d0a	0.018850822
169	0xbef01731	-0.46892694
170	0xbe6f6424	-0.23378044
171	0xbf41e695	-0.75742465
172	0xbee658ca	-0.44989616
173	0xbf4dfa30	-0.8045988
174	0x3f1dff22	0.61717427
175	0xbf6043a5	-0.8760322
176	0x3cb3768e	0.021907117
177	0x3d555a31	0.052087966
178	0x3c1d5772	0.009603368
179	0x3c407b50	0.01174815
180	0x3cf93ff7	0.030426009
181	0xbe405f7c	-0.18786424
182	0xbd9ce4a5	-0.07660798
183	0xbee0aaa4	-0.43880188
184	0x3e5e7147	0.217229
185	0xbf14a5c9	-0.5806547
186	0x3ef3d643	0.47624406
187	0xbed7b628	-0.42131162
188	0x3d040d19	0.032239053
189	0x3d52f53d	0.05150341
190	0x3c1e688a	0.009668479
191	0x3c83c6bc	0.016085975
192	0xbd30e613	-0.043188166
193	0xbf2d9fac	-0.67821765
194	0xbf67119e	-0.90261257
195	0xbd9b2d87	-0.07577043
196	0xbf2b4ca5	-0.66913825
197	0xb9c0e20b	-0.0003678951
198	0xbf48b110	-0.78395176
199	0xbe76b586	-0.24092683
200	0xbe75bea0	-0.23998499
201	0x3ed4b0f6	0.4154126
202	0x3ee068c4	0.4382993
203	0x39d4c1eb	0.0004058027
204	0xbc5cff25	-0.013488566
205	0x3f223de2	0.63375676
206	0x3f4e43a7	0.8057198
207	0x3bea4582	0.0071493993
208	0x3f4e89ce	0.80679023
209	0x3ecfb23d	0.40565673
210	0xbe38ce3e	-0.18047425
211	0x3f5d7ff9	0.86523396
212	0xbc3d4314	-0.011551637
213	0xbd80ada0	-0.06283116
214	0x3cf238f3	0.029568171
215	0xbcbf5d05	-0.023359785
216	0xbc48acce	-0.012248231
217	0x3eebd9f7	0.4606473
218	0x3f94e43c	1.1632152
219	0x3dcbde96	0.09954564
220	0x3f55fcfd	0.83589154
221	0x3f0277dd	0.50964147
222	0xbe20238f	-0.15638565
223	0x3fa137d1	1.2595159
224	0xbda0ec6a	-0.078575924
225	0xbdb13da1	-0.08654333
226	0x3c10a2e8	0.008827902
227	0xbcfa76d9	-0.03057425
228	0xbc0a3b0f	-0.008436932
229	0x3efc66fe	0.49297327
230	0x3f601fd4	0.87548566
231	0x3e7691e7	0.24079095
232	0x3f347308	0.70488024
233	0x3f203b6c	0.6259067
234	0xbe71f87a	-0.23629943
235	0x3f91b13a	1.138221
236	0xbe191c98	-0.14952314
237	0xbdbaa2e8	-0.09113103
238	0x3c901369	0.01758738
239	0xbce9b932	-0.02853069
240	0xbc8c9b5a	-0.017163921
241	0x3f0eb9ef	0.5575246
242	0x3f886aa2	1.0657542
243	0x3d0e5f58	0.034758896
244	0x3f1b82e2	0.60746586
245	0x3f07d187	0.5305409
246	0xbeb8363e	-0.35978884
247	0x3f73e1e4	0.95266557
248	0xbdc72074	-0.09722987
249	0xbd82dfd1	-0.06390346
250	0x3bb290d1	0.0054493924
251	0xbcd5e02c	-0.02610787
252	0xbd0d7e21	-0.034544114
253	0x3f0a27d1	0.53967005
254	0x3f5ead51	0.8698321
255	0x3eb35f35	0.35033575

fcs.0.bias f4 [64]
0	0x3f37ad28	0.7174859
1	0x3e3a57fd	0.18197627
2	0x3f3e6744	0.7437632
3	0xbc98cce6	-0.01865239
4	0x3e7e0aae	0.24808761
5	0x3da8028e	0.08203612
6	0xbd66a778	-0.056312054
7	0x3f2bde3a	0.67135966
8	0xbc587d01	-0.013213397
9	0x3f2f9398	0.68584585
10	0x3e568dd3	0.20952539
11	0x3e8cbff7	0.27490208
12	0x3ed98e0c	0.42491186
13	0x3d24436b	0.040103357
14	0x3f467c19	0.7753311
15	0x3f0f1bf0	0.55902004
16	0x3f458706	0.77159154
17	0x3ef5a2a3	0.47975644
18	0x3e4c4145	0.19946773
19	0x3e520361	0.20509101
20	0x3e59a8c1	0.21255781
21	0x3e91c557	0.2847087
22	0x3f569f9a	0.8383728
23	0x3e285a51	0.16440703
24	0x3c3aebc9	0.011408755
25	0x3d0ea554	0.034825638
26	0x3eea258d	0.45731774
27	0x3ed9917a	0.42493802
28	0x3e8c8c32	0.2745071
29	0x3f03bacb	0.514569
30	0x3e882328	0.26589322
31	0x3e88a0be	0.26685137
32	0x3f0e2f4c	0.5554092
33	0x3e9a711b	0.30164418
34	0x3ec2d79b	0.3805512
35	0x3e2a4c85	0.16630752
36	0xbc447706	-0.011991268
37	0x3e1ba93a	0.15201274
38	0x39241c0e	0.0001565071
39	0x3e2e1112	0.169987
40	0x3f4771ea	0.77908194
41	0x3f124ef9	0.5715175
42	0x3de73d69	0.1129101
43	0x3f684eca	0.9074522
44	0x3e26ecf0	0.16301322
45	0x3bd363a1	0.0064510857
46	0x3c6e06f2	0.014528023
47	0xbcb59033	-0.022163486
48	0x3df07a24	0.117420465
49	0x3b0bd560	0.0021336898
50	0xbcdfcae0	-0.027318418
51	0x3ed66e11	0.4188085
52	0xbc528a92	-0.012850421
53	0x3efdce3a	0.495714
54	0xbcc238d2	-0.023708735
55	0xbc264f3d	-0.010150728
56	0x3e03a9dc	0.12857765
57	0x3f1ea84c	0.6197555
58	0x3f1224d6	0.5708746
59	0x3f0804ee	0.5313252
60	0x3f0ed964	0.5580046
61	0xbc592e98	-0.013255738
62	0xbcab24db	-0.020891597
63	0x3edbb537	0.42911693

fcs.1.weight f4 [2, 64]
0	0xbfbfc73d	-1.4982678
1	0x3fb2e36c	1.3975654
2	0x3fa4678a	1.2844098
3	0xbf9c9299	-1.2232238
4	0x3fc488f7	1.5354298
5	0x3fab995d	1.3406178
6	0xbfab5a35	-1.3386904
7	0x3f98cc02	1.1937258
8	0xbfa81c1b	-1.3133577
9	0xbfbb290b	-1.46219
10	0x3fad4517	1.353671
11	0x3fb7c87d	1.4358059
12	0xbfa3e4b4	-1.280417
13	0x3fc42487	1.5323647
14	0xbfaf6d50	-1.3705235
15	0x3fa1759d	1.2614018
16	0xbfc7cc8f	-1.5609301
17	0x3fb8f725	1.4450423
18	0x3fc62985	1.5481421
19	0x3fa62a45	1.298165
20	0x3fbc7b2e	1.4725091
21	0x3fae8ee6	1.3637359
22	0xbfb3522e	-1.4009454
23	0x3fc11a81	1.5086213
24	0xbfa892ba	-1.3169777
25	0x3f95f8d5	1.1716563
26	0x3f9ff830	1.2497616
27	0x3f9e54f9	1.2369682
28	0x3fc1d6dd	1.5143696
29	0x3fab800c	1.3398452
30	0x3fbc88af	1.4729213
31	0x3fc3472b	1.5256094
32	0xbfae3b8f	-1.3611926
33	0x3fc0f821	1.5075723
34	0xbfb37fa4	-1.4023328
35	0x3fc1314a	1.5093167
36	0x3f9a0027	1.2031296
37	0xbfaa847b	-1.332168
38	0xbfa576cc	-1.2926879
39	0x3fb4a43d	1.4112622
40	0x3fb1b685	1.3883826
41	0xbfc19a40	-1.5125198
42	0x3fb8c29f	1.4434394
43	0xbfc0b689	-1.5055705
44	0x3fc296ec	1.5202308
45	0x3f9d3163	1.2280697
46	0xbfbf5653	-1.4948219
47	0x3f9727f5	1.1809069
48	0x3fcd3e24	1.6034589
49	0x3f9e038f	1.2344836
50	0xbfad3dde	-1.3534505
51	0x3fa0c722	1.256077
52	0xbf9e8da1	-1.2386972
53	0x3f9ae4b1	1.2101041
54	0xbfa91b4d	-1.3211457
55	0xbf9bee61	-1.2182122
56	0x3fbe38d2	1.486109
57	0xbfa9770b	-1.3239454
58	0x3fc307fd	1.5236813
59	0xbfb87ec6	-1.4413688
60	0x3fab539e	1.3384893
61	0xbfa79b7b	-1.3094324
62	0xbf99ee51	-1.2025853
63	0x3fad59f9	1.3543082
64	0x3fbe8f26	1.4887435
65	0xbfcbf91f	-1.5935401
66	0xbf9c2ee1	-1.2201806
67	0x3fa0fbb5	1.2576815
68	0xbfb56b32	-1.4173338
69	0xbfc0e218	-1.5068998
70	0x3fac5a1f	1.3465003
71	0xbf9e7706	-1.2380073
72	0x3fa94b94	1.322619
73	0x3fc4d8b7	1.5378636
74	0xbfbba924	-1.4660993
75	0xbfbe31d0	-1.4858952
76	0x3fa1419c	1.2598147
77	0xbfbb7171	-1.4643995
78	0x3fa1f9c2	1.2654345
79	0xbf9cc4e6	-1.2247589
80	0x3fc2625d	1.5186268
81	0xbfc6e67c	-1.5539088
82	0xbfb8503d	-1.4399487
83	0xbfc0e194	-1.5068841
84	0xbfab082f	-1.3361872
85	0xbfcb8101	-1.5898744
86	0x3fa56233	1.2920593
87	0xbfc7bbfa	-1.5604241
88	0x3f9ecaca	1.2405636
89	0xbf991df3	-1.1962265
90	0xbfa758b1	-1.3073941
91	0xbfa5390c	-1.2908034
92	0xbfaeb25c	-1.3648181
93	0xbfbf0f55	-1.4926554
94	0xbfc412ce	-1.5318239
95	0xbfbc04db	-1.4688982
96	0x3fa9fad1	1.3279668
97	0xbfc44d94	-1.5336175
98	0x3fa2cbae	1.2718408
99	0xbfd0024d	-1.6250702
100	0xbf9b0155	-1.2109782
101	0x3f9eb306	1.2398384
102	0x3f9a6e26	1.2064865
103	0xbfbead14	-1.4896569
104	0xbfa033d8	-1.2515821
105	0x3fb3502f	1.4008845
106	0xbfb99376	-1.4498127
107	0x3fbb7752	1.4645789
108	0xbfb87d71	-1.4413282
109	0xbfa33e02	-1.2753298
110	0x3fc9d296	1.5767391
111	0xbf9f4c66	-1.244519
112	0xbfbe781b	-1.4880403
113	0xbf91abe8	-1.1380587
114	0x3fa66582	1.2999728
115	0xbf9c1a3f	-1.219551
116	0x3f96dd9c	1.178638
117	0xbf9e3acb	-1.2361692
118	0x3f952526	1.1651962
119	0x3f90e4d2	1.131983
120	0xbfbb1911	-1.4617025
121	0x3fbdc2e8	1.4825106
122	0xbfbe6206	-1.4873664
123	0x3fae32ef	1.3609294
124	0xbf9e3ef4	-1.2362962
125	0x3f97f736	1.1872318
126	0x3f9b5d18	1.2137785
127	0xbf9bc7af	-1.2170314

fcs.1.bias f4 [2]
0	0x3f5402c3	0.82816714
1	0xbf6b7e02	-0.9198915
