cache/ckpts/woselfloop-genius_NormalNN-genius_trialNo71.pt (torch, 9627 bytes, 5 tensors)

alpha_params f4 [64, 13]
0.17195264 -0.067399815 -0.31676775 -0.21017694 -0.45492792 -0.2369621 -0.7640677 -0.055318315
-0.6242714 -0.022954974 -0.4557158 -0.024808623 -0.26183477 0.24035023 0.08893279 0.78999907
-0.008286691 0.7987989 -0.08929307 0.5197278 0.06698398 0.24953745 0.12239394 0.1938
0.075858735 0.2117383 0.21819754 0.42776838 0.5004643 0.45507404 0.38620678 0.26132026
0.28589034 0.10547995 0.39871815 0.022047257 0.45733672 0.050582204 0.3428286 0.1690346
-0.023879074 -0.13089956 -0.09669008 -0.3564857 -0.19522978 -0.62919223 -0.15361561 -0.50030637
-0.044813983 -0.35030288 -0.0439861 -0.24871841 0.25562912 0.20526919 0.85984075 -0.06544096
0.83972526 -0.28132498 0.59083605 -0.027915783 0.41249502 0.07553574 0.39387158 0.036205154
0.33201504 0.23981355 0.16669804 0.69968075 -0.08547767 0.6200655 -0.17946157 0.49106362
-0.06889195 0.3955345 0.081118196 0.29887304 0.06943422 0.22324894 0.1389037 -0.48028576
-0.39044458 -0.5382325 -0.2603706 -0.3686979 -0.15454316 -0.22867304 -0.25408465 -0.15232106
-0.4239486 -0.057739727 -0.35808003 0.21095975 0.4406214 0.3785717 0.48475394 0.26241133
0.31354213 0.15299262 0.21489891 0.24190274 0.14319152 0.4052158 0.032302953 0.36139902
0.16091228 -0.10326664 -0.3989752 -0.1686583 -0.6732526 -0.04176188 -0.6053481 -0.04302736
-0.32600823 -0.111826666 -0.18610379 -0.15464073 -0.18563765 0.17944741 -0.06923102 -0.5776349
-0.20554526 -0.63535184 -0.08160552 -0.7023479 -0.0005044096 -0.37170923 0.0042490517 -0.49158233
-0.061939552 -0.19493406 0.22432804 0.103029974 0.8449702 -0.0063728634 0.9831351 -0.37018266
0.75794 -0.09557554 0.24088804 0.25894517 0.02289082 0.3153053 0.034625895 0.2473416
0.14297761 0.8447661 -0.10055633 0.7942199 -0.28434062 0.5936141 -0.05271231 0.36488304
0.05100842 0.34318963 0.061037198 0.3056134 0.13763818 -0.44867647 -0.38947394 -0.45215684
-0.3958789 -0.20643896 -0.29363155 -0.09878408 -0.34666923 -0.009626932 -0.51028526 0.06551591
-0.43749505 0.19147591 0.32821435 0.25443676 0.34269938 0.13118415 0.25560418 0.0539962
0.17532694 0.15281378 0.059804935 0.30583397 -0.014604867 0.2584184 0.14395519 -0.40582615
-0.3625423 -0.5175898 -0.26858574 -0.3778375 -0.14731695 -0.21364284 -0.2626505 -0.041966297
-0.48030233 0.04040739 -0.44440117 0.25917208 0.2745602 0.7779813 0.065182604 0.67630893
-0.13773443 0.54412484 -0.047178484 0.4620595 0.112908006 0.33540437 0.08619311 0.29587075
0.18130206 -0.028484391 -0.3052563 -0.0327786 -0.2832164 -0.15475963 -0.68684256 -0.09742507
-0.44169545 -0.055599105 -0.29749832 -0.13964173 -0.101432614 0.21603784 0.4295756 0.44449633
0.39462087 0.37051046 0.2037741 0.27547643 0.08353656 0.3399635 0.13578989 0.36389884
0.11364798 0.2974556 0.24776325 0.24046998 0.70820963 0.08720197 0.60181946 -0.07267337
0.46010047 -0.010645791 0.43090537 0.07851489 0.34893543 0.07506856 0.2925023 0.23028985
0.011702992 0.7052712 0.077860706 0.80952054 -0.011132553 0.59542525 0.037629776 0.3376134
00000000: 5a14 303e ea08 8abd 622f a2be a038 57be
00000010: 50ec e8be 31a6 72be f199 43bf 7595 62bd
00000020: 40d0 1fbf 120c bcbc 9553 e9be 743b cbbc
00000030: 350f 86be 5f1e 763e 6522 b63d 613d 4a3f
00000040: e7c4 07bc 167e 4c3f 49df b6bd e20c 053f
00000050: e62e 893d bf86 7f3e ada9 fa3d 8273 463e
00000060: d35b 9b3d edd1 583e 2d6f 5f3e 7504 db3e
00000070: 6e1e 003f 77ff e83e e5bc c53e c5cb 853e
00000080: 3860 923e df05 d83d c924 cc3e 739c b43c
00000090: 0a28 ea3e 492f 4f3d 3b87 af3e 6817 2d3e
000000a0: 0c9e c3bc 890a 06be 7305 c6bd 4b85 b6be
000000b0: 51ea 47be be12 21bf 694d 1dbe 1414 00bf
000000c0: de8e 37bd e65a b3be c52a 34bd 0ab0 7ebe
000000d0: d2e1 823e 1632 523e 861e 5c3f e905 86bd
000000e0: 3cf8 563f d409 90be 0841 173f a4af e4bc
000000f0: 8c32 d33e 7bb2 9a3d 89a9 c93e db4b 143d
00000100: e0fd a93e af91 753e e4b2 2a3e 471e 333f
00000110: eb0e afbd 9dbc 1e3f c6c4 37be b16c fb3e
00000120: 3917 8dbd 7f83 ca3e 4c21 a63d e305 993e
00000130: 8733 8e3d 5f9b 643e c63c 0e3e 04e8 f5be
00000140: 5ae8 c7be 9bc9 09bf 4c4f 85be f9c5 bcbe
00000150: 9040 1ebe 4429 6abe 6217 82be 0dfa 1bbe
00000160: ca0f d9be 7e80 6cbd 4456 b7be d505 583e
00000170: 2199 e13e 26d4 c13e ab31 f83e c75a 863e
00000180: 9888 a03e 19aa 1c3e 760e 5c3e 5ab5 773e
00000190: cca0 123e 7278 cf3e 1a50 043d 4b09 b93e
000001a0: 30c6 243e 767d d3bd 7a46 ccbe c3b4 2cbe
000001b0: 485a 2cbf 810e 2bbd 18f8 1abf 753d 30bd
000001c0: 8dea a6be 6105 e5bd fe91 3ebe 245a 1ebe
000001d0: cc17 3ebe 10c1 373e fec8 8dbd e1df 13bf
000001e0: 757a 52be 6ba6 22bf cb20 a7bd 12cd 33bf
000001f0: 5b3a 04ba ac50 bebe a13b 8b3b aeb0 fbbe
00000200: 54b4 7dbd cb9c 47be 40b6 653e 6101 d33d
00000210: f84f 583f 74d3 d0bb beae 7b3f 9588 bdbe
00000220: 5b08 423f 1cbd c3bd 5bab 763e 7694 843e
00000230: 8785 bb3c b26f a13e e2d3 0d3d 1e47 7d3e
00000240: b968 123e 9742 583f 7af0 cdbd ff51 4b3f
00000250: 1895 91be 18f7 173f dde8 57bd f3d1 ba3e
00000260: 34ee 503d 8db6 af3e 2402 7a3d 5c79 9c3e
00000270: 06f1 0c3e ecb8 e5be 2169 c7be 1a81 e7be
00000280: a4b0 cabe bc64 53be e056 96be 4f4f cabd
00000290: a17e b1be 48ba 1dbc 0ea2 02bf 352d 863d
000002a0: 5aff dfbe 4312 443e b60b a83e 8945 823e
000002b0: 4b76 af3e 2355 063e 8dde 823e 1f2b 5d3d
000002c0: e888 333e 377b 1c3e 05f6 743d 4596 9c3e
000002d0: 4149 6fbc 6b4f 843e fd68 133e 72c8 cfbe
000002e0: 259f b9be c480 04bf 1284 89be eb73 c1be
000002f0: 41da 16be 30c5 5abe 207a 86be dae4 2bbd
00000300: 30ea f5be 3882 253d 8d88 e3be 34b2 843e
00000310: 2893 8c3e c829 473f 757e 853d 9522 2d3f
00000320: 410a 0dbe c44b 0b3f 3a3e 41bd 1093 ec3e
00000330: 503c e73d 1fba ab3e 0386 b03d 5f7c 973e
00000340: 3fa7 393e 1958 e9bc 8e4a 9cbe da42 06bd
00000350: bd01 91be 4f79 1ebe ead4 2fbf cc86 c7bd
00000360: e825 e2be e3bb 63bd b351 98be 3efe 0ebe
00000370: e7bb cfbd 0639 5d3e 55f1 db3e 0695 e33e
00000380: bf0b ca3e 8cb3 bd3e 28aa 503e 3f0b 8d3e
00000390: 3715 ab3d b20f ae3e 810c 0b3e f350 ba3e
000003a0: 46c0 e83d 1a4c 983e a6b5 7d3e c33d 763e
000003b0: 3a4d 353f f296 b23d d710 1a3f c7d5 94bd
000003c0: 4a92 eb3e af6b 2ebc a19f dc3e 6acc a03d
000003d0: aaa7 b23e 8cbd 993d ddc2 953e 1ad1 6b3e
000003e0: e8bd 3f3c a78c 343f 6f75 9f3d bd3c 4f3f
000003f0: 5065 36bc ca6d 183f ae21 1a3d aadb ac3e

fcs.0.weight f4 [64, 12]
-0.47731614 -0.032367755 0.31087214 0.07593808 0.11475535 0.002342645 0.04804975 0.06527065
0.074397676 0.10313461 0.04646181 -0.0060194046 -0.010541558 0.30660868 0.552066 0.02879836
0.23184282 0.2605557 -0.19030082 0.5487931 0.009299296 -0.049066402 0.02893772 -0.022208396
0.024123505 -0.13326891 0.12012067 -0.3040862 -0.032275643 -0.18987048 0.43556002 -0.16994815
0.019507518 0.01002968 0.0002454273 -0.009458057 -0.19698004 0.038679704 -0.061830807 0.2275105
0.06560379 -0.019564267 0.012324067 -0.079726264 -0.0057641147 0.026148424 0.001536958 0.0018752753
-0.015000836 0.48587078 0.5683044 -0.24531266 0.32378295 0.18883528 -0.04820183 0.25924587
0.025575234 -0.015554053 0.004740951 0.013562682 -0.02092262 0.29107377 0.56540036 -0.03237825
0.1663853 0.3703857 -0.054255 0.366047 0.029981762 -0.017087849 0.0038431284 -0.0008516579
0.04715256 -0.3285257 -0.08860379 -0.20531036 -0.14411288 -0.25056162 0.13010086 -0.24633987
-0.0077031627 0.00835363 -0.0035284287 -0.023054961 0.04260952 -0.110678844 0.05224593 -0.38032383
-0.08643365 -0.12919523 0.047681827 -0.16699307 0.015264655 0.0017771677 0.005654178 0.006019583
0.0016787122 -0.46809196 -0.46278992 0.16254075 -0.21556346 -0.078260206 0.07306418 0.40750688
0.033717725 0.05371479 0.05537558 -0.0059962724 -0.22512332 -0.13262974 0.3106509 0.055111583
0.14958163 0.014832882 0.024378868 0.14060499 0.2962527 0.31166112 0.27673596 -0.006537674
-0.009312128 -0.1472739 0.7339941 -0.049485125 0.1440634 0.4785024 -0.07246969 0.24850757
-0.018502858 0.008676324 0.005946212 -0.015087593 -0.01501519 0.49497044 0.3792043 0.08562762
0.3250839 0.22321288 0.008863035 0.34988216 0.034559432 -0.010633753 0.01835606 -0.014889657
0.0067141536 -0.10462847 -0.5994968 -0.46239436 -0.16129425 -0.19826652 0.11507823 -0.21264943
-0.017208586 -0.001181827 0.0056520286 -0.008060663 0.007614115 0.090985544 0.065438226 -0.23398952
-0.047063775 -0.09945645 0.19307892 -0.05701213 -0.0011252462 0.0034129643 -0.012095269 -0.021121368
0.028244413 -0.49308327 -0.2710886 -0.28471446 -0.20320417 -0.19191848 0.24149722 -0.30295295
0.011791113 0.008240262 0.0010784548 0.0016317243 -0.003084649 0.3288378 0.3085419 -0.09081313
0.50442255 -0.12154191 -0.022940949 0.31654143 0.07048257 -0.025664227 0.028575977 -0.017626386
-0.1877262 -0.10997267 -0.07356049 0.12678023 0.011970531 0.043773983 -0.15075053 0.06311499
0.11062028 0.07024565 0.12670608 -0.004392489 0.06489181 0.004446287 -0.0033313779 -0.36066875
-0.08441175 -0.2821528 0.41391152 -0.14612919 0.029974405 0.017969798 -0.003149777 -0.0026120613
-0.013092782 0.4583017 0.5948503 -0.06258065 0.1727193 -0.07262891 0.06042597 0.47388592
0.034168974 -0.016635599 0.016429296 -0.011133489 -0.008731846 0.27276054 0.46547896 0.06734758
0.43640327 0.048515756 -0.13166885 0.5070826 -0.044692274 -0.042076472 0.0013913866 -0.01693245
0.025513925 0.17596635 0.35275018 -0.19758669 -0.14405392 -0.28738877 0.042610884 -0.1487999
-0.0002545525 4.291383e-05 -0.00685893 0.005644142 -0.01310031 0.38546318 0.45341158 0.15095927
00000000: c862 f4be 0d94 04bd a22a 9f3e 6d85 9b3d
00000010: da04 eb3d 1087 193b d1cf 443d 9eac 853d
00000020: cf5d 983d 3d38 d33d bd4e 3e3d 6d3e c5bb
00000030: 80b6 2cbc d0fb 9c3e 3354 0d3f 8aea eb3c
00000040: 3468 6d3e 8f67 853e 38de 42be b47d 0c3f
00000050: 135c 183c daf9 48bd cc0e ed3c 62ee b5bc
00000060: a89e c53c a577 08be d301 f63d 30b1 9bbe
00000070: 7733 04bd 686d 42be b901 df3e e306 2ebe
00000080: 3bce 9f3c 8753 243c b2ac 8039 f7f5 1abc
00000090: 23b5 49be 9c6e 1e3d 4d42 7dbd 83f8 683e
000000a0: 485b 863d 3e45 a0bc e2ea 493c 8647 a3bd
000000b0: e6e0 bcbb 3835 d63c c173 c93a cccb f53a
000000c0: 11c6 75bc 0ec4 f83e 667c 113f 3e33 7bbe
000000d0: e1c6 a53e 095e 413e 486f 45bd e0bb 843e
000000e0: 2783 d13c 6dd6 7ebc fb59 9b3b 0336 5e3c
000000f0: ea65 abbc 9f07 953e 14be 103f 0e9f 04bd
00000100: e860 2a3e 32a3 bd3e 7e3a 5ebd 836a bb3e
00000110: 509c f53c d1fb 8bbc ffdc 7b3b cb41 5fba
00000120: 0b23 413d 8534 a8be e775 b5bd e13c 52be
00000130: 5492 13be 9d49 80be 2939 053e 8540 7cbe
00000140: d06a fcbb aadd 083c 363d 67bb c2dd bcbc
00000150: 5287 2e3d 97ab e2bd d4ff 553d ceb9 c2be
00000160: 2004 b1bd c14b 04be 054e 433d 3b00 2bbe
00000170: 9b18 7a3c daef e83a af46 b93b ec3f c53b
00000180: 3c08 dc3a c0a9 efbe cdf2 ecbe 1571 263e
00000190: abbc 5cbe e346 a0bd aca2 953d bea4 d03e
000001a0: 991b 0a3d 0a04 5c3d 81d1 623d 617c c4bb
000001b0: ba86 66be 17d0 07be a20d 9f3e afbc 613d
000001c0: ed2b 193e 9e05 733c 31b6 c73c c1fa 0f3e
000001d0: 6fae 973e 0c92 9f3e 56b0 8d3e fc39 d6bb
000001e0: e591 18bc f8ce 16be 0ae7 3b3f eab0 4abd
000001f0: 5b85 133e 44fe f43e fd6a 94bd c578 7e3e
00000200: 4e93 97bc 2427 0e3c 71d8 c23b f431 77bc
00000210: 4502 76bc c46c fd3e 1127 c23e 895d af3d
00000220: 6671 a63e eb91 643e 4336 113c c123 b33e
00000230: 318e 0d3d 3139 2ebc 735f 963c bff3 73bc
00000240: 6702 dc3b 7447 d6bd 9f78 19bf f4be ecbe
00000250: 522a 25be 6106 4bbe 23ae eb3d c6c0 59be
00000260: 05f9 8cbc 89e7 9aba a734 b93b df10 04bc
00000270: d37f f93b a156 ba3d 7a04 863d f39a 6fbe
00000280: f2c5 40bd d3af cbbd 7bb6 453e 8d85 69bd
00000290: ff7c 93ba 0aac 5f3b 3c2b 46bc b806 adbc
000002a0: d460 e73c 6975 fcbe 20cc 8abe 18c6 91be
000002b0: c114 50be 4786 44be 0c4b 773e a61c 9bbe
000002c0: 832f 413c 2a02 073c f05a 8d3a 95df d53a
000002d0: d327 4abb 6e5d a83e 34f9 9d3e 3cfc b9bd
000002e0: d621 013f f7ea f8bd a8ee bbbc b811 a23e
000002f0: 2a59 903d c93d d2bc 2b18 ea3c 3665 90bc
00000300: 4c3b 40be 5a39 e1bd e2a6 96bd add2 013e
00000310: 0c20 443c 594c 333d 595e 1abe 6f42 813d
00000320: e38c e23d f4dc 8f3d 3dbf 013e deee 8fbb
00000330: ffe5 843d 29b2 913b 3f53 5abb 93a9 b8be
00000340: 11e0 acbd 5576 90be 36ec d33e e4a2 15be
00000350: e28c f53c 6635 933c 7d6c 4ebb 1e2f 2bbb
00000360: 1c83 56bc 85a6 ea3e 1c48 183f 492a 80bd
00000370: 54dd 303e 77be 94bd 3981 773d 2da1 f23e
00000380: c4f4 0b3d 6147 88bc bb96 863c 3d69 36bc
00000390: 0410 0fbc 45a7 8b3e 4253 ee3e 87ed 893d
000003a0: 4070 df3e 75b8 463d 33d4 06be 2ad0 013f
000003b0: 3f0f 37bd 6158 2cbd 305f b63a ecb5 8abc
000003c0: 9402 d13c 8630 343e ac9b b43e 2a54 4abe
000003d0: df82 13be 9f24 93be c088 2e3d 005f 18be
000003e0: 7575 85b9 60fe 3338 e0c0 e0bb 7ff2 b83b
000003f0: afa2 56bc 6e5b c53e 9025 e83e 1195 1a3e

fcs.0.bias f4 [64]
0.092325196 0.26056007 0.48473847 0.026893843 0.36609295 0.23724231 0.08666941 0.52460766
0.2592834 0.19657053 0.25631297 0.46021602 0.47223815 0.19075033 0.3538026 0.27218843
0.11330862 0.41702113 0.3020544 0.16082141 0.5245435 0.44995052 0.39118394 0.10697625
0.038685836 0.12340441 0.25240508 0.3409193 0.2545978 0.44281638 0.47177628 0.41266125
0.34374824 0.3769323 0.29107937 0.04582659 0.059968416 0.16901436 0.06251657 0.39357662
0.4679506 0.36425743 0.11213661 0.44244683 0.39620468 0.04918765 0.031655833 0.047950316
0.32156962 0.045045614 -0.31396523 0.3612373 0.115919836 0.40713173 0.024211353 0.31575537
0.2388855 0.3123544 0.57076335 -0.030977981 0.021069393 0.06677337 0.051906385 0.32211313
00000000: fe14 bd3d 2168 853e a42f f83e 7a50 dc3c
00000010: 8970 bb3e a6ef 723e bb7f b13d b04c 063f
00000020: cbc0 843e c949 493e 743b 833e 6fa1 eb3e
00000030: 33c9 f13e 0e54 433e 9d25 b53e 485c 8b3e
00000040: 5a0e e83d cb83 d53e e0a6 9a3e 5eae 243e
00000050: 7c48 063f ea5f e63e 4349 c83e 5d16 db3d
00000060: 0a75 1e3d 74bb fc3d 3d3b 813e f98c ae3e
00000070: a55a 823e d4b8 e23e a98c f13e 5648 d33e
00000080: c5ff af3e 45fd c03e 5b08 953e aab4 3b3d
00000090: 71a1 753d 1a12 2d3e b008 803d e082 c93e
000000a0: 3997 ef3e f37f ba3e e1a7 e53d 6488 e23e
000000b0: 57db ca3e fd78 493d 8ca9 013d 8d67 443d
000000c0: c6a4 a43e c081 383d 0dc0 a0be 18f4 b83e
000000d0: 6167 ed3d 9273 d03e e356 c63c b0aa a13e
000000e0: 679e 743e eaec 9f3e 8c1d 123f 89c5 fdbc
000000f0: b899 ac3c 7ac0 883d ca9b 543d 03ec a43e

fcs.1.weight f4 [2, 64]
-0.67771983 0.4965433 0.6664124 -0.5472076 0.67791605 0.48647675 -0.610225 0.5480963
-0.5691768 -0.6227792 0.5761252 0.5925694 -0.61283106 0.436056 -0.63666797 0.6751425
-0.5981789 0.54182863 0.67956245 0.504998 0.64256096 0.49887148 -0.59514403 0.61525625
-0.64577514 0.5857326 0.53499377 0.5769069 0.71704614 0.5574761 0.58222425 0.6676921
-0.6082889 0.63384044 -0.59396696 0.5730113 0.6456784 -0.62860763 -0.62004954 0.58025855
0.65087616 -0.66960126 0.6407954 -0.64799714 0.59719414 0.5794059 -0.41016048 0.5639051
0.5760718 0.6786128 -0.6841819 0.56668085 -0.60605127 0.55230707 -0.6851058 -0.6357244
0.69769055 -0.41195476 0.6408753 -0.6026988 0.67550826 -0.6665264 -0.6155995 0.63436854
0.6300025 -0.6915785 -0.6160546 0.59518015 -0.5595813 -0.6505673 0.62505233 -0.60816824
0.5864204 0.6869102 -0.68820053 -0.640682 0.6054112 -0.3687351 0.54256123 -0.6535589
0.550827 -0.6472637 -0.57004654 -0.7141743 -0.5044098 -0.7232196 0.4929433 -0.67880917
0.5878387 -0.6292049 -0.6029283 -0.64219964 -0.5669579 -0.7106165 -0.63809574 -0.60976934
0.58441335 -0.6555728 0.47621408 -0.6829541 -0.6723365 0.5475542 0.557869 -0.6570098
-0.52494353 0.56297284 -0.6454007 0.5952525 -0.5133786 -0.64551055 0.4819757 -0.6461331
-0.4543493 -0.6024932 0.66026735 -0.5435891 0.5627925 -0.5923502 0.5537383 0.5707202
-0.67148215 0.5624236 -0.6008892 0.5296836 -0.5845213 0.5686569 0.6482946 -0.5096013
00000000: 0c7f 2dbf ec3a fe3e 019a 2a3f cc15 0cbf
00000010: e88b 2d3f 7b13 f93e b537 1cbf 0a50 0c3f
00000020: 92b5 11bf 756e 1fbf f17c 133f a1b2 173f
00000030: 7fe2 1cbf bb42 df3e acfc 22bf 24d6 2c3f
00000040: 4122 19bf 48b5 0a3f cef7 2d3f 8d47 013f
00000050: e07e 243f 156c ff3e 5c5b 18bf 6f81 1d3f
00000060: 8551 25bf 92f2 153f 5af5 083f 2cb0 133f
00000070: 5690 373f c1b6 0e3f a60c 153f dfed 2a3f
00000080: d2b8 1bbf 5e43 223f 380e 18bf deb0 123f
00000090: 2e4b 253f 6eec 20bf 91bb 1ebf d38b 143f
000000a0: d29f 263f fd6a 2bbf 2b0b 243f 24e3 25bf
000000b0: b7e1 183f f253 143f 8e00 d2be 165c 103f
000000c0: 7179 133f 92b9 2d3f 8c26 2fbf ff11 113f
000000d0: 2d26 1bbf ff63 0d3f 1863 2fbf d6be 22bf
000000e0: d99b 323f bceb d2be 6710 243f 784a 1abf
000000f0: 1cee 2c3f 79a1 2abf ee97 1dbf fa65 223f
00000100: d847 213f 4a0b 31bf c1b5 1dbf ba5d 183f
00000110: b840 0fbf 948b 26bf 6e03 203f eab0 1bbf
00000120: a61f 163f 59d9 2f3f e92d 30bf bc03 24bf
00000130: 3afc 1a3f d9ca bcbe 4be5 0a3f a34f 27bf
00000140: 0003 0d3f 13b3 25bf 92ee 11bf 20d4 36bf
00000150: 0021 01bf eb24 39bf 1063 fc3e 70c6 2dbf
00000160: 997c 163f 9313 21bf 8259 1abf 3267 24bf
00000170: 2724 11bf f7ea 35bf 3e5a 23bf d819 1cbf
00000180: 1d9c 153f 9ed3 27bf 55d2 f33e 14d6 2ebf
00000190: 3f1e 2cbf 832c 0c3f 81d0 0e3f cb31 28bf
000001a0: b362 06bf fd1e 103f fb38 25bf 7862 183f
000001b0: c86c 03bf 2e40 25bf 85c5 f63e fb68 25bf
000001c0: 79a0 e8be ff3c 1abf 4807 293f a828 0bbf
000001d0: 2b13 103f 43a4 17bf cbc1 0d3f b81a 123f
000001e0: 41e6 2bbf fefa 0f3f e0d3 19bf 5899 073f
000001f0: 30a3 15bf 8093 113f a3f6 253f 3b75 02bf

fcs.1.bias f4 [2]
0.40802008 -0.52258193
00000000: 02e8 d03e eec7 05bf
