cache/ckpts/woselfloop-genius_NormalNN-genius_trialNo6.pt (torch, 7131 bytes, 5 tensors)

alpha_params f4 [64, 5]
000000 87 b4 c7 3e 80 af f2 3c ea ac 0b 3e 8f 88 16 bd
       0.3900492 0.0296247 0.1364018 -0.036751326
000010 87 d4 e6 3d 80 0f ce 3e 33 5f cd bd 43 77 6d 3e
       0.11271005 0.402462 -0.100279234 0.23190026
000020 82 d2 e1 bc 05 e0 f6 3d 45 1a c8 3e 98 c2 81 3d
       -0.027566198 0.12054447 0.39082542 0.06335944
000030 fb 04 e4 3d de d9 c5 bc ca 50 ec 3d a2 83 c6 3e
       0.111337624 -0.024151739 0.11538847 0.38772303
000040 70 0d 5d 3d 9f dd 56 3d 24 ee 46 3d 3b b0 18 3d
       0.053967893 0.052457448 0.048566952 0.03727744
000050 5d 5f c7 3e 7b 7c 38 3d db c1 c6 3d fa 2e e3 bb
       0.38939944 0.04504059 0.09704944 -0.0069330903
000060 67 c6 cc 3d 38 a3 c6 3e 17 eb 78 3d 60 52 5c 3d
       0.0999878 0.387964 0.060771074 0.053789496
000070 93 0e 6f 3d 67 1d da 3c 62 b3 c7 3e 07 3b 5c 3d
       0.05836351 0.026625348 0.39004046 0.05376723
000080 e9 f6 b5 3d 2c 05 2f ba 1c 5b c0 3d c0 2d c8 3e
       0.08884985 -0.0006676491 0.09392378 0.39097404
000090 40 50 31 3d 07 21 ec 3d 9e 2d f1 bc 2c f4 f6 3d
       0.043289423 0.11529737 -0.029440697 0.12058291
0000a0 38 86 c7 3e d9 5d 3f 3d ee 22 c8 3d bb e5 d1 bb
       0.38969588 0.04672036 0.09772287 -0.00640556
0000b0 0f 15 ca 3d 44 08 c8 3e 28 ef 9c 3c 59 b6 20 3e
       0.09867298 0.39068806 0.019157007 0.1569456
0000c0 d5 8e 51 bd fc 8b c9 3d 34 50 cd 3e c2 1c be bd
       -0.051161606 0.09841153 0.40100253 -0.09282829
0000d0 8b 8f 7c 3e b5 8d 49 bc cd 0b 7c 3b eb 97 c8 3e
       0.24664132 -0.012301852 0.0038459182 0.39178404
0000e0 d3 63 58 3d 1e fc dc 3d 71 25 10 bd ad 23 fc 3d
       0.052829575 0.10790275 -0.035191957 0.12311492
0000f0 cf 95 c7 3e 6d 17 3a 3d 75 af b2 3d f2 92 1a 3c
       0.38981482 0.045432497 0.08724872 0.009434449
000100 9c 82 b9 3d b7 e0 c7 3e d9 eb 63 3d 96 e5 61 3d
       0.09058115 0.3903863 0.055644844 0.05515059
000110 b2 77 6e 3d 6b d7 2a 3d c9 6e c7 3e 4a df 6c 3d
       0.05821962 0.041709345 0.3895171 0.057830133
000120 1b 49 c8 3d 33 a5 f4 bb 19 fe d8 3d 8b 30 cf 3e
       0.09779569 -0.0074659823 0.1059534 0.40466723
000130 f4 4f da bd 21 80 87 3e 13 fa 10 bd b9 ff b2 3d
       -0.10659781 0.26464942 -0.03539474 0.087401815
000140 06 ee cb 3e 9f ba d5 bd 6f d8 83 3e 6c 92 e5 bb
       0.39830035 -0.10435986 0.25751063 -0.0070059802
000150 2b 00 dc 3b 92 9d c7 3e 26 6f 07 3d d6 32 d4 3d
       0.006713887 0.38987404 0.033064984 0.10361259
000160 64 bd 4c 3b 34 19 b2 3d 90 96 c7 3e 61 c3 1a 3d
       0.0031240815 0.08696213 0.38982058 0.037783984
000170 9a d9 ce 3d 9f 47 eb bb 84 f9 bb 3d 69 9d c7 3e
       0.10100098 -0.0071801688 0.09178451 0.38987282
000180 e0 00 74 3c 96 36 12 3e f9 c3 52 bd 88 55 a1 3d
       0.014892787 0.14278635 -0.051456425 0.07877642
000190 9e 78 c7 3e 2d 5a 02 3d 12 41 f2 3d 2c e3 0a bd
       0.3895921 0.03182428 0.118288174 -0.033908054
0001a0 b9 b2 b8 3d 7d e0 c7 3e 5e a5 13 3d ac 3b ea 3d
       0.09018464 0.39038458 0.03604638 0.11437163
0001b0 d5 53 d1 bc 91 bb ca 3d 63 f4 c7 3e 83 1c 2e 3d
       -0.02555267 0.09899057 0.3905364 0.04250766
0001c0 aa ff e1 3d 41 f5 b0 bc 3e ea e7 3d b4 2d c4 3e
       0.11035092 -0.021601321 0.11323975 0.3831612
0001d0 fa 5e 30 3d 54 a8 19 3d f6 54 3d 3d b9 36 a5 3c
       0.043059327 0.037514046 0.046223603 0.020167695
0001e0 51 95 c7 3e e5 d5 13 3d e7 1e e5 3d ca e6 a1 bc
       0.38981107 0.036092658 0.11187535 -0.01976337
0001f0 b7 f6 c6 3d 30 0f c3 3e b2 bd 1c 3d 18 43 ff 3c
       0.09715026 0.38097525 0.038266845 0.031159922
000200 f0 e6 25 3d 0b 62 8b 3c 9a 38 c8 3e ad 97 5e 3d
       0.040503442 0.017014524 0.39105684 0.054343868
000210 98 6e c1 3d 64 4d a8 bb 17 d2 c8 3d 91 34 c8 3e
       0.09444922 -0.005136179 0.098056965 0.39102605
000220 f7 49 41 3d 99 fc ce 3d f1 c1 49 bb 20 f6 d0 3d
       0.04718968 0.10106773 -0.0030785764 0.102031946
000230 e9 61 c8 3e 4c 19 0e 3d db 6f f7 3d eb 5e f4 bc
       0.391372 0.034692094 0.120818816 -0.029830417
000240 c4 92 b7 3d 6c fa cf 3e 77 49 d8 bd b7 02 77 3e
       0.0896354 0.40620744 -0.10560887 0.2412213
000250 04 12 03 bd 79 7e fe 3d f0 3a c8 3e d3 30 3a 3d
       -0.031999603 0.124264665 0.39107466 0.04545672
000260 e0 91 e5 3d f0 36 99 bc 71 4a db 3d ad 59 c8 3e
       0.11209464 -0.018702954 0.10707558 0.39130917
000270 99 17 63 3d 81 c3 db 3d fc fb b5 bc ab d0 fb 3d
       0.055442426 0.10730649 -0.022214882 0.1229566
000280 19 c0 c7 3e 4f 9a 42 3d eb d9 c9 3d ef 41 82 bc
       0.39013746 0.04751044 0.09856018 -0.01590058
000290 8c b5 ea 3d 53 ac c7 3e c2 51 88 3c 26 c2 0b 3e
       0.114604086 0.3899866 0.016640548 0.1364828
0002a0 c8 19 3a bd f4 4b a7 3d 1b d4 c7 3e 5a 6f 63 3d
       -0.045434743 0.08168784 0.3902901 0.055526115
0002b0 46 ee b6 3d 7d 6b 75 ba 5f e7 c3 3d c3 b6 c7 3e
       0.08932166 -0.00093620253 0.09565615 0.39006624
0002c0 9b b5 83 3d 4c a5 75 3d cf f6 88 3d 2e fe 0a 3d
       0.06431123 0.059972093 0.066877 0.03393381
0002d0 15 f4 d0 3e 84 ed b8 bd a2 3f 5e 3e ca 60 af bc
       0.4081122 -0.090296775 0.21703961 -0.021408457
0002e0 53 f5 0f 3e 8d d2 c7 3e 59 8f 59 3d dc d9 bc 3d
       0.14058428 0.39027825 0.053115223 0.09221241
0002f0 30 dd d3 3a c7 de bd 3d e5 7c c6 3e cf 66 6e 3d
       0.0016163941 0.09271007 0.38767162 0.058203515
000300 8e c6 42 3d 2c ef 7d 3d ac 1d be 3c 47 1c c5 3e
       0.047552638 0.06199567 0.023207508 0.38498136
000310 ac 2d 23 3d 88 8e 1e 3d ec 71 3d 3d 5d e8 b7 3c
       0.039838478 0.038710147 0.046251222 0.022449667
000320 59 e0 c7 3e 98 3a 3d 3d b5 d3 d7 3d 0c 1a 0f bc
       0.3903835 0.046198457 0.10538427 -0.008734237
000330 f1 c7 e0 3d 81 0b d1 3e dc fb b5 bd fa f5 68 3e
       0.10975636 0.4082909 -0.08885929 0.22750083
000340 ec cd f9 bc 71 14 06 3e 6d 63 c4 3e ed dc 20 3d
       -0.030493699 0.13093735 0.38357106 0.03927319
000350 5e 87 09 3d ac eb 30 3d 11 9a 83 3c 38 e5 cd 3e
       0.03357636 0.043193504 0.016064676 0.40213943
000360 22 0d cb bd 43 39 81 3e 99 ad 93 bc b7 40 75 ba
       -0.09914614 0.25239 -0.018027114 -0.00093556516
000370 ba 36 c8 3e c7 55 32 3d e6 87 dd 3d 75 2c 87 bc
       0.39104253 0.043538835 0.10816936 -0.016500691
000380 06 7a c2 3d 8f 11 c9 3e 63 1a 7a 3d 2c 17 51 3d
       0.094959304 0.3927121 0.06106032 0.05104749
000390 f0 cd 5d 3d 1b ff 47 3d 9e 13 c8 3e 1e f8 3a 3d
       0.054151475 0.048827272 0.39077467 0.04564678
0003a0 fe 6c b0 3d 4a 73 6f 3b b2 fe a3 3d d2 8a d2 3e
       0.086145386 0.0036537223 0.08007564 0.41121536
0003b0 f7 95 d8 bd 50 63 7e 3e 12 9f a9 bc ce bf 0c 3e
       -0.105754785 0.24842572 -0.020705733 0.13745043
0003c0 73 3d c8 3e dc f3 85 3d 77 d4 85 3d a8 d7 8c 3d
       0.39109382 0.06540653 0.06534665 0.06877071
0003d0 7c a7 19 3d f3 34 c6 3e 51 c0 67 3d 34 6a 4b 3d
       0.03751324 0.38712272 0.05657989 0.04966183
0003e0 f4 83 70 3d 80 55 f0 3c 0e 81 cb 3e c9 65 bf bd
       0.05871959 0.029337645 0.39746898 -0.09345586
0003f0 5f ad 6d 3e ea a1 c6 bc 40 3e 13 3e 21 db c7 3e
       0.23210667 -0.024247129 0.14379215 0.3903437

fcs.0.weight f4 [64, 12]
000000 d1 e0 ba bc 3d f3 be 3d e7 ec 0c 3e b0 d7 c8 bd
       -0.022812279 0.09323738 0.13762246 -0.09806764
000010 48 b9 21 3e 67 11 e2 3d d6 12 fe be 89 93 e5 3f
       0.15793335 0.110384755 -0.49623746 1.7935649
000020 52 4b 3e 3f 6a 13 a4 be 1d 01 ea bc 22 81 cd bd
       0.7433368 -0.32046062 -0.028564984 -0.10034396
000030 4b 3a a4 bc 16 13 4a bc f7 ca ff bb 22 67 7c bc
       -0.020047328 -0.012333652 -0.0078061777 -0.015405448
000040 67 c3 2d 3c 84 a5 24 bd b4 f9 cf bd fb c4 0b 40
       0.01060567 -0.04019691 -0.10155049 2.1838977
000050 93 24 9e 3f a7 1c 98 be cf 0a e2 3e e6 ba 6a be
       1.2354912 -0.2970936 0.4414887 -0.22922859
000060 70 43 84 bc fe fb cc 3e 58 c6 67 3f 62 b7 71 3d
       -0.016145438 0.40036005 0.90537024 0.059012778
000070 a1 eb 13 3f dd 3c e1 3e 3c a0 f7 be b4 f7 e5 3f
       0.57781416 0.43991747 -0.48364437 1.7966218
000080 19 5a 9c 3e ea 95 46 bd 9d 0a e5 3c be 80 d8 bd
       0.3053749 -0.048482813 0.027959162 -0.105714306
000090 39 74 81 3d 57 2f 40 bc c0 07 4d 3d d4 f7 d4 ba
       0.06320996 -0.011730037 0.05005622 -0.0016248175
0000a0 a2 ba 57 3d 33 25 bc 3c b4 b2 cf bd e0 ed 5c 3f
       0.05266822 0.022966957 -0.10141507 0.8630047
0000b0 94 a3 3f 3f 4e f5 dc bd cf b3 a8 3d 05 01 a4 bd
       0.74858975 -0.10788976 0.08237421 -0.08008007
0000c0 40 4c 75 bd 5c f7 cf 3e eb 8e 52 3f 15 8a d9 be
       -0.05988717 0.40618408 0.82249326 -0.4248816
0000d0 b4 df ea 3e c6 af 72 3e 0d 7a 4d bf b9 98 cd 3f
       0.45873797 0.23699865 -0.8026436 1.6062232
0000e0 fa 6b ab 3e 6b 2b 23 be 60 76 e3 3c b4 f7 d8 3c
       0.33480817 -0.15934531 0.027766407 0.026485302
0000f0 7f 3f b1 3d af f0 cf 3d 55 a5 29 3c d5 6c 46 3d
       0.08654689 0.101533286 0.01035436 0.048443634
000100 12 a3 97 be 20 29 95 bc 4f 35 63 bd 89 7d ab 3f
       -0.296166 -0.018208086 -0.05547076 1.3397685
000110 3d 62 0d 3f 33 8d 1d be d0 16 df 3d b8 cc 86 3b
       0.55228025 -0.15385894 0.10893023 0.00411376
000120 cb 98 b4 bc b1 c6 e4 3e 6d 46 84 3f 43 f4 4d 3d
       -0.022045514 0.4468284 1.0333992 0.050281774
000130 08 d6 0d 3f 79 ac b2 3e af bb 27 bf ae ba c5 3f
       0.5540471 0.3489721 -0.6552076 1.5447595
000140 51 74 0e 3e 0b 9e c3 bd db 7d 5a 3d 15 0a d3 bd
       0.13911559 -0.09551629 0.05334268 -0.10304657
000150 a3 59 ca bc 58 e5 39 3e 73 b5 6a 3e 9f 56 68 be
       -0.024700945 0.18153894 0.2292078 -0.22689293
000160 14 93 79 3e 20 3c 1b 3d 4f 8a a8 be 8b 12 da 3f
       0.24372512 0.037899137 -0.3291802 1.7036909
000170 0b ef 45 3f a3 89 77 be 26 27 3e 3c ba 6d 9f bd
       0.77317876 -0.24173598 0.011606013 -0.077846006
000180 d6 0f 27 bc 30 9d 38 3f 46 b5 71 3f 78 24 9b 3d
       -0.010196647 0.7211485 0.94417226 0.07575315
000190 a5 70 44 3f 55 41 43 3f 15 ee 89 be 4e 4e db 3f
       0.7673438 0.76271564 -0.26939455 1.7133272
0001a0 a9 e7 52 3e c7 60 b6 3b 4f b8 fe bc de a1 fd bc
       0.20596184 0.005565736 -0.031093745 -0.030960973
0001b0 18 e0 c3 bd 6c 42 5c 3d 3f 38 71 3d 79 28 d4 3c
       -0.09564227 0.053774282 0.05889153 0.025898205
0001c0 f0 c6 30 3d 77 9e 16 3e 38 c0 a6 be 43 1d e1 3f
       0.04315847 0.14708887 -0.32568526 1.7587055
0001d0 f4 0b 71 3f db db 55 be c3 f7 38 3d 92 8f c1 bd
       0.94158864 -0.2088465 0.04515816 -0.09451212
0001e0 aa d9 4d bc 87 1b 34 3b 9d c0 71 bb 5f 3b c7 bc
       -0.012564102 0.0027482228 -0.0036888488 -0.024320303
0001f0 6a 4e 68 bd bb 1d 9d 3b 37 d4 dd b9 23 b2 f2 3f
       -0.056715406 0.004794804 -0.00042310517 1.8960613
000200 50 52 9d 3f 2b bc a4 bd 5a ab f6 3e 40 73 55 be
       1.2290745 -0.08043703 0.48177606 -0.20844746
000210 06 c9 37 bc c0 e3 51 3e 65 52 23 3f 02 aa 58 bd
       -0.011217361 0.20497036 0.637976 -0.052896507
000220 0f 66 c0 3e 02 fe 1d 3e 77 0b 14 bf a9 c2 04 40
       0.37577865 0.15428928 -0.57829994 2.074381
000230 40 b3 c3 3e e3 67 4e be c2 7c 8a 3b 49 b1 99 bc
       0.38222694 -0.20156817 0.004226298 -0.018761294
000240 67 ea 99 bd 4d 67 26 3f 4f fb 46 3f d3 2c a5 3d
       -0.07515412 0.65001374 0.77727216 0.0806519
000250 28 28 05 3f ab 60 27 3f db b5 17 bf fd 8d bd 3f
       0.520144 0.6538188 -0.59261864 1.4808956
000260 e7 1e 51 3e 72 2a 1e bd 1b e3 50 bc 2a 9e aa bd
       0.20421945 -0.038614698 -0.012749459 -0.08330949
000270 45 7c 3e bc 80 f9 d2 3e c2 7b 67 3f c8 9f 7e 3d
       -0.011626308 0.41205978 0.90423214 0.062164098
000280 20 1b e6 3e ac e7 8f 3e 81 4f 1f bf 92 bf e7 3f
       0.4494257 0.2810644 -0.6223069 1.8105338
000290 1d e6 a4 3e 2f f8 c4 bd b8 6b 69 bd 28 a4 dd bd
       0.32206813 -0.0961765 -0.056987494 -0.10822326
0002a0 d1 e2 02 bd ce 11 47 3f 2b eb 86 3f 74 b6 81 3d
       -0.03195459 0.7776154 1.0540518 0.06333628
0002b0 6e 96 07 3f 0e ba 35 3f b8 5a a4 be 90 37 ad 3f
       0.5296391 0.7098702 -0.32100463 1.3532581
0002c0 03 5d 4e 3e 56 b3 38 bd f6 24 6a 3d 1d b2 0a 3d
       0.20152669 -0.045092903 0.057164155 0.03386127
0002d0 65 5a ad bc 76 76 16 bc c8 c2 24 bc 0b 45 d8 bc
       -0.021161268 -0.009183517 -0.010056205 -0.02640011
0002e0 88 05 04 3c 08 0b 26 bd fd d4 ee bb 0c 27 ff 3f
       0.008057959 -0.040537864 -0.007288574 1.9933791
0002f0 bb 53 95 3f e8 fb 6c be 1f 6e 17 3f 77 ee 5b be
       1.1666178 -0.2314297 0.59152406 -0.21477686
000300 07 ef 24 bd 95 6c a0 3b db e1 21 bc 52 07 5e bd
       -0.040267017 0.0048957565 -0.009880508 -0.0542062
000310 90 38 28 b9 b0 a0 94 3c 92 a0 07 bc 23 c2 0a 40
       -0.000160428 0.018143028 -0.008278029 2.1680992
000320 2d 98 9b 3f b7 9d 75 be 84 a4 a2 3e 8c 13 eb bd
       1.2155815 -0.23985945 0.3176614 -0.11478338
000330 72 f0 7a bb b9 d3 98 3e b0 89 34 3f d7 c8 98 3d
       -0.003829029 0.29849032 0.70522594 0.07460182
000340 aa ef b9 3e fb d2 30 3e e0 f3 b6 be f4 76 cf 3f
       0.36315662 0.17267983 -0.35732937 1.6208177
000350 da aa a3 3e a2 d9 e3 bd b9 ff 3c 3d d3 d8 df bb
       0.31966287 -0.111254945 0.046142314 -0.0068312674
000360 7c 58 b7 bd 0b f4 4a 3e 8d b5 fc 3e 36 cf dc bc
       -0.08952424 0.19819658 0.49357262 -0.026954275
000370 83 e7 96 3e 28 0b e7 3d 6b c1 24 bf 8b 2b 0c 40
       0.29473504 0.11281425 -0.6435763 2.1901577
000380 c6 5a e3 3e 36 19 10 be 1a d8 a2 3d 55 c2 b2 bd
       0.44405192 -0.14072117 0.07951374 -0.08728472
000390 f7 d6 af bc d5 1e 72 3d 28 21 e6 3d f7 b9 13 bd
       -0.021464808 0.059111435 0.11236793 -0.03606602
0003a0 a6 1a 32 3e be b6 ca 3d 50 1d 05 bf b1 b0 0a 40
       0.17392978 0.098981366 -0.5199785 2.1670344
0003b0 94 57 2c 3f 62 e8 8d be 44 00 a4 3b 65 7f 4c be
       0.67321134 -0.27716357 0.0050049145 -0.19970472
0003c0 71 14 5f bd 28 9f d4 3d da aa 67 3e 93 c6 66 3d
       -0.054462854 0.10381919 0.22623768 0.05634172
0003d0 e4 14 1c 3e 0d 2e f2 3d d6 cb 22 bf f9 b6 e4 3f
       0.15242344 0.1182519 -0.6359228 1.7868339
0003e0 d2 29 18 3f eb 89 74 be fc 1b de bc 18 34 12 be
       0.5943881 -0.23880737 -0.027112953 -0.14277685
0003f0 5e 1c c2 bb 01 f2 3f 3e 99 92 39 3f 3c ba 10 3d
       -0.005923792 0.18744661 0.72489315 0.035333857

fcs.0.bias f4 [64]
000000 de c1 38 3f 3a a7 f1 bd 95 f4 e2 3f 37 64 57 3f
       0.7217082 -0.11799474 1.773089 0.8413729
000010 39 6f b0 3f 17 ca 84 3f 47 3c a7 3f 31 bb 86 3f
       1.3783942 1.0374173 1.306527 1.0525876
000020 a5 3a b4 3f 06 d2 1e 3f d0 0e 02 3e eb a1 f6 3f
       1.4080397 0.6203922 0.12700963 1.9268163
000030 13 71 cd 3f 96 ca b7 3f d6 09 d4 3f 23 de 8d bd
       1.6050133 1.4358699 1.6565502 -0.06927135
000040 62 83 0c 3e 07 df d4 3f 29 78 af 3f e6 2d 28 3f
       0.13721994 1.6630563 1.3708545 0.65695035
000050 e7 35 98 3f 36 d0 c9 3f 38 f7 ca 3f ed d3 54 3f
       1.189145 1.5766666 1.5856695 0.83135873
000060 16 67 8b 3f af a1 29 3f 66 4f b6 3f 15 10 b6 3f
       1.0890834 0.66262335 1.424298 1.4223658
000070 fd 55 be 3f 1d 26 f3 bd fb 9d d8 3f b1 01 c6 3f
       1.4869992 -0.11872504 1.6923212 1.5469266
000080 31 2a bc 3f 5d c1 5e 3f c3 f0 b8 3f 3d fa 44 3f
       1.4700376 0.870138 1.4448475 0.76944333
000090 9e 7a f7 bd 73 b7 b0 3f 5c 68 fe 3e 1d e7 50 3f
       -0.12083934 1.3805984 0.49688995 0.8160265
0000a0 5c 3a d5 3f 27 9f da bd bf ad 2d 3f 59 21 0b 3e
       1.6658435 -0.10674887 0.6784324 0.1358694
0000b0 04 7d d5 3f 3f 0a 53 3e 7d ee bc 3f b8 7d d6 bd
       1.6678777 0.20609377 1.4760281 -0.10473198
0000c0 b0 e5 32 3f a4 df 70 3f d8 99 0e be 7b cc be 3f
       0.69881725 0.9409125 -0.13925874 1.4906152
0000d0 de 49 c3 3c f9 72 d5 3f dd d8 b0 bd 70 86 6d 3f
       0.023838934 1.6675712 -0.086351134 0.9278326
0000e0 a7 8a 65 3f b9 17 5b 3f 13 5c e6 3f 4b 46 a7 3f
       0.8966469 0.8558307 1.7996849 1.3068327
0000f0 4f af 61 3f d2 18 f3 bd dd 47 6c 3f 48 77 b4 3f
       0.88158125 -0.118699685 0.92297155 1.4098902

fcs.1.weight f4 [2, 64]
000000 96 43 d0 3f 53 8d c7 3f 03 bb c5 3f 57 0e a5 3f
       1.6270626 1.5590004 1.5447696 1.2895001
000010 37 63 bc 3f fe 02 9c 3f 7b 31 b6 3f 63 5e c3 3f
       1.4717778 1.2188413 1.423385 1.526318
000020 63 09 b8 3f f1 ba e2 3f 31 15 d2 3f 73 9e bf 3f
       1.4377865 1.77133 1.6412717 1.497023
000030 d0 1c b6 3f 2e 14 bd 3f d2 62 b2 3f 19 37 e7 3f
       1.4227543 1.4771783 1.3936408 1.806369
000040 2f 74 e5 3f 6e 23 b4 3f b6 92 c5 3f 8f 48 ad 3f
       1.7926081 1.4073312 1.5435398 1.3537768
000050 13 63 c3 3f c5 06 af 3f 80 c0 b2 3f e0 a2 6a 3f
       1.526461 1.3673941 1.3964996 0.9165478
000060 c4 f0 ba 3f af ab 46 3f 08 c6 b8 3f 12 0b bf 3f
       1.4604726 0.7760572 1.4435434 1.4925253
000070 91 5e cf 3f dc 38 d2 3f b7 ab c3 3f 51 4c cb 3f
       1.6200734 1.6423602 1.5286778 1.5882665
000080 13 1e b5 3f b4 9b bf 3f cc 44 b3 3f 25 74 af 3f
       1.4149803 1.4969392 1.400537 1.370732
000090 7f 5f c4 3f b1 69 b3 3f bb 51 9e 3f 9c 6a 77 3f
       1.5341643 1.401663 1.2368692 0.9664705
0000a0 26 8c c8 3f 92 b2 c4 3f eb 7e 5d 3f 50 70 df 3f
       1.566777 1.5366995 0.86521786 1.745615
0000b0 77 0b c5 3f 16 c4 b3 3f 9f 80 bd 3f 8a 86 d7 3f
       1.5394124 1.4044216 1.4804877 1.6837933
0000c0 57 37 c7 3f 17 78 a7 3f f1 8b d6 3f 8e 23 bc 3f
       1.5563763 1.3083524 1.6761457 1.469835
0000d0 a6 0c cf 3f 09 10 ba 3f 88 f8 db 3f 6d d6 90 3f
       1.6175735 1.4536144 1.7185221 1.1315438
0000e0 df e4 a7 3f ce 99 96 3f ef 5d c5 3f d7 58 b0 3f
       1.3116721 1.1765687 1.5419291 1.3777112
0000f0 22 e8 b7 3f 9d b8 e2 3f fe d5 b2 3f b4 0c c6 3f
       1.4367716 1.771259 1.3971555 1.5472627
000100 b7 7f d2 bf a1 45 dc bf f6 ff bd bf 49 63 9e bf
       -1.6445225 -1.7208749 -1.4843738 -1.237405
000110 c5 86 ab bf 8d 9f af bf 25 59 b2 bf ee 49 c7 bf
       -1.3400503 -1.3720566 -1.3933455 -1.5569437
000120 b6 e4 b3 bf 6b 0c d7 bf b2 a0 da bf e2 51 c4 bf
       -1.4054172 -1.6800665 -1.708029 -1.5337489
000130 b5 3a b5 bf 93 9c b1 bf a9 a9 bc bf bb 46 e0 bf
       -1.4158541 -1.3875908 -1.4739276 -1.7521585
000140 8a 85 e6 bf f0 12 c0 bf 90 67 b5 bf 76 01 c5 bf
       -1.8009503 -1.5005779 -1.417223 -1.5391071
000150 ab 42 ae bf 15 8e c9 bf 06 af bd bf ff 96 7e bf
       -1.3614095 -1.5746485 -1.4819038 -0.9944915
000160 71 91 bf bf 04 b8 5b bf ef 15 c0 bf 2e 3a c6 bf
       -1.496626 -0.8582766 -1.5006694 -1.5486505
000170 1e 77 b9 bf 76 ec e2 bf 5a 26 c9 bf bd c7 c2 bf
       -1.4489477 -1.7728412 -1.5714829 -1.5217205
000180 da 85 b6 bf b6 af be bf 8d e1 bf bf 5d dc bd bf
       -1.4259598 -1.4897373 -1.4990708 -1.4832875
000190 2c 27 c8 bf b2 fa bb bf 25 7a a6 bf bb 93 85 bf
       -1.5636954 -1.4685881 -1.3006026 -1.0435709
0001a0 0d 5f b7 bf 65 ab d2 bf 4d e7 63 bf 63 6c e2 bf
       -1.4325882 -1.6458555 -0.8902481 -1.7689327
0001b0 e7 38 b8 bf 92 be b9 bf 25 02 b1 bf 66 12 e3 bf
       -1.4392365 -1.4511282 -1.382878 -1.773999
0001c0 f1 db b6 bf 47 be 9d bf fd 27 d7 bf c8 b4 b7 bf
       -1.4285871 -1.2323693 -1.6809078 -1.4352045
0001d0 1e 83 cf bf 35 01 be bf 1f 28 eb bf b9 b6 97 bf
       -1.6211889 -1.4844118 -1.8371619 -1.1852638
0001e0 8e 9f a2 bf 43 a4 8e bf b3 cd be bf 66 c3 b7 bf
       -1.2704942 -1.1143879 -1.4906524 -1.4356506
0001f0 92 97 ab bf de 2b ee bf 78 63 ad bf d1 96 b4 bf
       -1.340563 -1.8607137 -1.354598 -1.4108526

fcs.1.bias f4 [2]
000000 0e 25 81 3f 02 7a 8b bf
       1.0089433 -1.0896609
