cache/ckpts/woselfloop-genius_NormalNN-genius_trialNo48.pt (torch, 9627 bytes, 5 tensors)

alpha_params f4 [64, 13]
00000000: be19 ca3d d7c4 32bd b5a9 98be 64da 71be
00000010: 49c1 fcbe 7491 88be 56b1 52bf 995e e0bd
00000020: dbfb 1ebf 0b7b d1bc 75c0 dcbe 9afe 80bd
00000030: a22a 6cbe 65c5 553e 7736 aa3d 6208 783f
00000040: c4cc 04be 9cba 703f 3637 22be 9dc7 163f
00000050: ad63 0cbd 4743 b13e 1e48 213d 6eb2 833e
00000060: 30c8 773d 4edc 763e 621b 2c3e 8561 073f
00000070: b127 e63e 900c 0a3f 426d bd3e 5dd4 9a3e
00000080: f106 943e 5ced 013e 0963 cb3e 68fa 263d
00000090: fd1b 033f 3118 bdbc 5502 ce3e a4d6 c33d
000000a0: 9e10 54bd b0ca 29be e9a4 dabd f403 c1be
000000b0: 7c8a 4bbe 9717 1ebf 9b6c 54be 2a9e 1ebf
000000c0: 0d28 42bc b51d e5be f120 6eba d1d5 86be
000000d0: 269e 6b3e bd3d 993e ad09 703f da69 97bd
000000e0: e34b 823f 73e9 c8be 1969 363f b20e ccbd
000000f0: 8732 fe3e 2569 0f3e c792 c33e 5739 e23d
00000100: 39f3 893e c99f 563e b643 563e 3253 633f
00000110: e0ad 28be 6580 5d3f 86c2 b9be 301a 293f
00000120: 7d6d 06be 6ac4 e13e 534f 703d 7285 bf3e
00000130: af8f 6d3d 30cc 923e 20ce 3d3d 04c6 f6be
00000140: f395 dfbe d043 16bf de7a 86be fae5 d9be
00000150: 968d 18be bbe6 83be d4e8 86be 5798 19be
00000160: 0b6c cfbe 1f1c 88bd 5c5c b9be 68a1 213e
00000170: 355a 023f a927 ba3e 4877 173f 4e16 543e
00000180: 7be3 e03e b90e a03d 8fcf 9f3e a1bf 533e
00000190: fa7e d73d 8cee e83e 1faa b4bc f2fa cb3e
000001a0: ec08 8c3d 5e73 cbbe 0a78 dabe 6f46 f8be
000001b0: 9108 dabe d261 93be 7972 b0be 5012 1abe
000001c0: ce70 94be 12fa acbd c8ad e2be 5071 bfbb
000001d0: 5f25 c9be 3261 f43d d95f 3bbd a54c 2bbf
000001e0: b028 43be aa34 18bf cb93 c6bd 6d61 34bf
000001f0: a859 febb 6bef 9abe 3794 21bc d7b2 0bbf
00000200: 3d26 78bd 54cd 47be ac03 383e b986 d83d
00000210: 3214 733f a344 e3bc 9cfe 953f daea d5be
00000220: 1883 5a3f 3dda ebbd 2f8e 9f3e ef23 4b3e
00000230: d914 993d 4c20 903e 0d87 953d 549b 633e
00000240: 4d41 5e3e 14a3 7c3f eaa3 1abe e615 733f
00000250: 79a6 adbe a90f 2b3f 049c 85bd 8d12 e43e
00000260: efde 613d 93d4 d43e 9bee 713d 7a2e 913e
00000270: c890 3a3d f88d f9be 923e e2be 4b06 05bf
00000280: bc52 c5be 1d02 99be 1ce3 88be 8a44 15be
00000290: d8e9 c1be 044f 2b3d c9c1 11bf 5933 ee3d
000002a0: eec2 e2be 6b4d 0b3e 8b04 ca3e 5e2d 9f3e
000002b0: 0457 d43e 14f7 283e 1f99 9e3e 3b59 c03d
000002c0: 654c 303e 9a27 893e 27d8 0cbb 87ad cd3e
000002d0: 72f9 8cbd 20a6 a23e 264d 5f3d 95bf dcbe
000002e0: 7df2 e4be ef18 0abf f5ec a6be b154 c8be
000002f0: fd38 41be 89f4 49be d73f afbe 1b6d 0fbd
00000300: cbbf f9be de17 ff3c b49b d5be 728f 5f3e
00000310: deec 1c3e 368b 7b3f 0432 b3bd 38f9 5f3f
00000320: 1b1e 4cbe 9ac8 273f b603 52bd 529d db3e
00000330: 51f2 833d 2279 a73e b314 903d faa9 8c3e
00000340: e1b8 ea3d 2021 efbc 6880 97be 8cb3 91bd
00000350: 0d02 9fbe 20d9 25be 3f78 4bbf eeb3 85bd
00000360: 443f 01bf 3774 2fbd 188e 96be 9d9a d4bd
00000370: c54d c5bd cc4d 283e 8235 f03e d4e1 e33e
00000380: bf73 ef3e 4253 c83e 72d5 6e3e bad5 903e
00000390: 8ea1 023e 3dfd 973e c37a 283e 478c c63e
000003a0: d884 a23d 0ea6 ae3e de99 673e 6b3c 4b3e
000003b0: bcf4 6b3f 3232 cfbd b4d9 4e3f 38c6 59be
000003c0: d784 173f 2d8b 89bd 19c6 f73e 0336 323d
000003d0: 625e d73e dfb3 693c 9382 a63e b51a 743e
000003e0: e010 863e 89fd 7a3f 5ddd 29be 12f6 833f
000003f0: 8790 bbbe 44be 343f 32cf edbd 4632 0c3f
0.09868191 -0.043644752 -0.29816976 -0.23618466 -0.49366215 -0.26673472 -0.82301843 -0.10955543
-0.6210305 -0.025571367 -0.43115583 -0.062985614 -0.23063138 0.20876081 0.083111696 0.9688779
-0.12968737 0.94034743 -0.15841374 0.58898336 -0.034274746 0.3462164 0.039375417 0.2572207
0.060493648 0.24107477 0.1680732 0.5288318 0.44952157 0.5392542 0.3699742 0.30240145
0.28911546 0.12688202 0.39723995 0.04076615 0.5121458 -0.023082824 0.40236154 0.09562424
-0.05177366 -0.16581225 -0.10675985 -0.37698328 -0.19877046 -0.61754745 -0.20744555 -0.6196009
-0.011850369 -0.44749227 -0.0009083888 -0.26335004 0.23009548 0.29929915 0.93764764 -0.073932365
1.0179409 -0.39240608 0.71254116 -0.099637404 0.49647924 0.14004953 0.3819792 0.11046093
0.26943377 0.2095939 0.20924267 0.8879882 -0.16472578 0.8652404 -0.36281222 0.66055584
-0.13127704 0.44095165 0.0586694 0.37406498 0.057998355 0.28671408 0.046339154 -0.4819795
-0.4366909 -0.58697224 -0.26265615 -0.4255827 -0.14897761 -0.2576197 -0.2634951 -0.1499952
-0.40512118 -0.06645989 -0.36203277 0.15784228 0.50918895 0.36358383 0.59166384 0.20711634
0.43923554 0.07815308 0.31213042 0.2067857 0.10522266 0.45494497 -0.022053776 0.39839894
0.06837639 -0.39736456 -0.42669708 -0.48491237 -0.4258466 -0.28785568 -0.34462336 -0.15046048
-0.28992313 -0.084461346 -0.4427321 -0.0058423653 -0.39286324 0.11932601 -0.045745704 -0.66913825
-0.1905849 -0.5945536 -0.09696158 -0.7046116 -0.0077621527 -0.30260786 -0.009861997 -0.5456976
-0.060583342 -0.1951192 0.1797015 0.10572571 0.9495269 -0.02774269 1.1718326 -0.4178074
0.85356283 -0.11516235 0.31163165 0.19837926 0.074746795 0.2814964 0.073011495 0.22227222
0.21704598 0.9868634 -0.15101591 0.9495529 -0.3391607 0.6682077 -0.06523898 0.44545403
0.055144247 0.4156843 0.059065443 0.2835577 0.04554823 -0.48741126 -0.44188362 -0.5196273
-0.38539684 -0.29884425 -0.2673577 -0.14576927 -0.3787372 0.041823402 -0.5693632 0.116308875
-0.44289345 0.13603751 0.3945659 0.310893 0.41472638 0.16500503 0.30976197 0.09392019
0.17216642 0.26788026 -0.0021491142 0.40171453 -0.068835154 0.31767368 0.054516934 -0.43114915
-0.44716254 -0.53944296 -0.3260266 -0.39127114 -0.18869396 -0.19722189 -0.34228393 -0.03501616
-0.4877914 0.03113931 -0.41720355 0.21832064 0.15324733 0.98259294 -0.08749774 0.8748965
-0.1993336 0.6554047 -0.05127307 0.42893463 0.064427026 0.32709605 0.07035198 0.27473432
0.11461044 -0.0291906 -0.29590154 -0.07114324 -0.31056252 -0.16196108 -0.79480356 -0.065284595
-0.5048716 -0.04283544 -0.29405284 -0.10381053 -0.09633974 0.16435927 0.46915823 0.4450823
0.46767995 0.3912602 0.2332361 0.2828806 0.1275694 0.29685393 0.1645308 0.38778898
0.07935494 0.34111065 0.2261729 0.19847266 0.9217031 -0.10116996 0.8080094 -0.2126702
0.5918707 -0.06715999 0.48393324 0.04350854 0.42064196 0.014264076 0.32521495 0.23838313
0.2618475 0.98043114 -0.1658835 1.030947 -0.36633703 0.7060282 -0.11611785 0.5476421

fcs.0.weight f4 [64, 12]
00000000: b602 04bf 7be8 173d a4c0 9c3e f858 fe3d
00000010: 5f81 333e 1010 7fbb 2bc2 593d 9383 fc3d
00000020: 7f6a 063e 51f9 1e3e 788c d63d 58a2 d6bb
00000030: d207 d3bc 40fc ac3e 5b6a 1b3f cbd3 073d
00000040: eed6 903e 7f45 953e 2112 5dbe 6d11 203f
00000050: c23b 89bc 6ff5 27bd c56f a23c b4be 92bc
00000060: 19e7 3a3d f362 e9bd be79 d93d bbe7 9abe
00000070: 9fe6 53bd d13d 75be 8ffd f03e e523 5abe
00000080: 2d57 b03c 1727 1d3c 2bae b23b 7cac 8f3a
00000090: db35 36be c196 a43d 62e7 ec3b 939c 853e
000000a0: dd99 c43d 94b0 493b 6ac2 f13c b941 cbbc
000000b0: a171 063d 7ab7 7e3d 44f0 fb3c 0cc6 6539
000000c0: 2de6 0fbc 19fe f73e 23fb 233f b8fb 50be
000000d0: 9a0a e23e 64ed 9d3e 68ce b5bd a5cc c63e
000000e0: 12ca 763c 5bbe f4bc c8c7 313c 3869 c7bb
000000f0: 1bbc febb d592 8d3e 85f8 323f 5199 8b3d
00000100: 4426 693e 1aab c43e 093d a6bd 7f75 003f
00000110: be26 803c dc83 9fbc 107b e53b fcd2 5abc
00000120: f994 373d f702 c3be 2f3e f1bd efaf 7dbe
00000130: 6276 51be db93 a6be 1479 483e 9374 97be
00000140: bb4a 31bb 16c8 d63b b177 c7bb 0305 07bc
00000150: 1e5d 193d 52c4 45be b115 323d 51cc dbbe
00000160: 4631 fcbd 4e11 3ebe 9c66 933d c378 3dbe
00000170: a15e db3b 6717 d93a a322 e93b 55ac f4ba
00000180: 3fab 293c 094f 1abf d510 0fbf a5d0 573e
00000190: 71ef a2be 510e 39be b3ae c5bd 6ebc f43e
000001a0: 72a9 bfbc 63cd abbb 249e b03c 9712 3abc
000001b0: ca6b 49be 43cd 4bbe b761 a23e b318 2cba
000001c0: f0c6 0e3e e77d 8b38 6676 983c 6b9e 373e
000001d0: de9c a53e 5d86 be3e 7554 ae3e b336 d3bb
000001e0: 20c6 d4bc 7630 1cbe 68ac 423f a42d a2bd
000001f0: 2622 553e 20ec 0c3f cdd1 d4bd 0a97 a93e
00000200: e8b6 55bd 0472 08bb cf9a 383c a5c1 d5bc
00000210: ed82 c9bc 7ce3 053f 875d e53e c35b 073e
00000220: 3bc9 d93e a494 a43e c73f 2dbd bafa f03e
00000230: 8a9e a33c c222 c5bc 7af2 8e3c f577 babc
00000240: 59d1 d83b af8d dbbd da1e 1fbf 1fbd 0abf
00000250: d53b 21be c684 7bbe 1c00 383e 1fd3 93be
00000260: 0a99 903b 62ec e93c 70b6 843c 6e81 393b
00000270: 2326 153c d93e 1cbc dbca 16bc 3245 a7be
00000280: 5761 28be f339 5fbe d018 833e 35b5 10be
00000290: b9a5 a43b 5548 b63c 8071 9bb9 3898 93bb
000002a0: 20db c33c e51b f7be e108 88be e876 cfbe
000002b0: b001 8bbe 1fd9 a2be a171 ab3e 410b cdbe
000002c0: ec1f 61ba 6427 9c3c e754 36bb e421 d5ba
000002d0: 5f4a 92bb 2f8e c73e b9c5 d33e 1310 83bd
000002e0: 7d34 123f e1e2 d0bd db8a 53bd 4f1f e03e
000002f0: 8831 223d 79c9 c7bc e66a 873c 5f45 8dbc
00000300: d5aa 5cbe 738b 94bd ff59 0c3c 6583 103e
00000310: d52b 893d 4b61 f73c 5b03 c5bd c839 083e
00000320: 754f 373e dbdd 033e 1c19 373e 1130 d2bb
00000330: d344 7a3d 1525 fabb c19d 363a eb40 d4be
00000340: b5b5 cbbd 6583 a3be 2bd9 d83e 4c9f 1bbe
00000350: 41aa 903c 4dc0 1d3c 385b 55bb 8765 a0bb
00000360: d4a9 9fbc 4bf0 fb3e 290f 2d3f fd19 5fbd
00000370: 4829 943e b284 633c e4f0 a6bc bc2b 183f
00000380: e103 203d 05e3 c5bc 5ff9 413c 4a52 7dbc
00000390: 551f f4bb 79e0 943e 8e42 ff3e a756 b33d
000003a0: b1c4 043f f9c9 143e 83e6 0cbe 5060 243f
000003b0: cd42 f8bb 9ead 48bd 0eee bc3c ded7 0bbc
000003c0: 1b94 6a3c 81ce 463e 9cee b53e d92e 84be
000003d0: 89ed 46be 14fa b2be 2703 4e3d 52aa fbbd
000003e0: 307c 053b d95a a5bb b31a a43a bb42 a839
000003f0: c28e b6bc 28ff c43e 28d0 063f 1cb4 5f3e
-0.51566637 0.037086945 0.30615723 0.12419313 0.1752982 -0.0038919486 0.05316369 0.12329783
0.13126563 0.15524794 0.10476011 -0.0065501146 -0.025760565 0.337862 0.6070916 0.033160966
0.28288978 0.29154584 -0.21588947 0.6252659 -0.016752128 -0.041005548 0.019828686 -0.0179132
0.04563055 -0.11395826 0.106189236 -0.3025492 -0.05173361 -0.23949362 0.4706845 -0.21302755
0.021525944 0.009591839 0.0054528913 0.0010961439 -0.17793982 0.080365665 0.0072297314 0.2609602
0.095996596 0.0030775415 0.02951165 -0.024811612 0.03282321 0.062186696 0.030754216 0.0002191292
-0.0087829055 0.4843605 0.6405508 -0.20408523 0.44148713 0.30845177 -0.088772595 0.38828006
0.015062826 -0.029875925 0.010850854 -0.006085541 -0.0077738888 0.27651086 0.6991046 0.06816352
0.22768503 0.3841179 -0.0811711 0.50179285 0.015643474 -0.019472055 0.0070031956 -0.013355967
0.044819806 -0.380882 -0.11779439 -0.24774145 -0.20455316 -0.3253468 0.19577438 -0.29581127
-0.00270526 0.006554614 -0.0060872664 -0.008240941 0.03744232 -0.19313172 0.043477718 -0.4292932
-0.12314086 -0.18561289 0.071973056 -0.18503098 0.0066946303 0.001656276 0.0071147247 -0.0018667082
0.01035577 -0.6027685 -0.5588506 0.21075685 -0.31823304 -0.18071868 -0.09652462 0.4780001
-0.023396228 -0.00524299 0.021559782 -0.011356971 -0.19670025 -0.1990252 0.31715176 -0.000656496
0.13943076 6.651488e-05 0.018611144 0.17931525 0.32346243 0.37211886 0.3404881 -0.0064457296
-0.02597338 -0.15252861 0.7604432 -0.079188615 0.20813808 0.550478 -0.10391579 0.33123046
-0.052176386 -0.0020819912 0.011267378 -0.026093313 -0.024598563 0.5230024 0.44797918 0.13218598
0.4253634 0.32144654 -0.04229715 0.4706629 0.019973058 -0.024064425 0.017449606 -0.022762278
0.006616753 -0.107203834 -0.6215645 -0.54194826 -0.1574548 -0.24562368 0.17968792 -0.2887201
0.004412775 0.028555099 0.016200274 0.0028305906 0.009103331 -0.009536468 -0.009203638 -0.3266998
-0.16443382 -0.2179945 0.25604868 -0.14131625 0.0050246385 0.022251287 -0.00029648468 -0.00450423
0.023908198 -0.4826347 -0.26569274 -0.40520406 -0.27149725 -0.31806275 0.3348513 -0.4004765
-0.00085878256 0.019061752 -0.0027821602 -0.001626071 -0.004464432 0.38975665 0.41361788 -0.0639955
0.5711134 -0.10199524 -0.051646095 0.43773887 0.039598018 -0.024388062 0.016530465 -0.017244993
-0.21549542 -0.0725316 0.008566379 0.14112623 0.066978134 0.03019776 -0.09619781 0.13303292
0.17901404 0.128776 0.17880672 -0.0064144214 0.061100792 -0.007633815 0.0006966256 -0.41455778
-0.09946767 -0.31936184 0.42353186 -0.15197486 0.017659308 0.009628368 -0.0032555591 -0.0048949155
-0.01949016 0.49206766 0.6760126 -0.054468144 0.28937745 0.0138866175 -0.020378537 0.59441733
0.0390662 -0.024156103 0.01183924 -0.015461514 -0.007450024 0.2907751 0.49855465 0.08756762
0.5186263 0.14530171 -0.13759808 0.6420946 -0.0075763226 -0.0489937 0.023062732 -0.0085353535
0.014317538 0.19414712 0.35533607 -0.25816992 -0.1942655 -0.3495642 0.050295975 -0.122883454
0.002036821 -0.0050462303 0.0012520164 0.00032093175 -0.02228487 0.3847592 0.5266137 0.2184605

fcs.0.bias f4 [64]
00000000: 5c3d 823d 9fef 8a3e 4df6 0c3f f814 0c3d
00000010: e928 d73e ce3e 843e e293 2c3e 44c6 1c3f
00000020: fb71 a93e bbcf 7a3e c58e 903e 6985 f73e
00000030: dc6e fd3e cdb2 6c3e 722d e33e cb99 873e
00000040: 3ff0 7b3d 56ed ec3e b2e4 a63e dec5 6d3e
00000050: 93e0 1f3f f9b7 e13e ad23 ca3e 3479 863d
00000060: c134 7a3d 987b fc3d 8276 933e 51a4 b73e
00000070: a911 9a3e 3323 023f 382e 063f 524c ed3e
00000080: f71b d73e 67bd d63e b56e c53e 6bb7 8a3d
00000090: 44c3 cc3c 7848 653e f845 673d aa38 cc3e
000000a0: c728 c23e 0f12 d83e af0f f53d 389d 133f
000000b0: 6779 e73e 9788 8e3d 4f2a df3c 70a5 e43c
000000c0: 426c b23e bf40 773d f749 74be c144 c53e
000000d0: 5a47 a53d a6e5 e53e bcea 4c3d 0ca4 d13e
000000e0: 01e5 743e b336 9a3e f6e4 1a3f f2f8 6c3c
000000f0: f388 0d3d 75ba 473d 2c45 863d 3b19 d03e
0.063593596 0.2713594 0.55063325 0.034199685 0.420234 0.25829166 0.16853288 0.6124003
0.33094773 0.24493305 0.28233925 0.4834397 0.49498641 0.23115082 0.4437061 0.26484522
0.061508413 0.46274823 0.32596356 0.23220012 0.6245205 0.44085672 0.39480343 0.065660864
0.061085466 0.12328261 0.28801352 0.3586755 0.300916 0.5083496 0.52414274 0.4634729
0.42013523 0.41941378 0.38561025 0.067732655 0.024995454 0.22390926 0.05646321 0.3988698
0.37921736 0.42201278 0.11965882 0.5766177 0.4520981 0.06959646 0.027241854 0.027910918
0.3484822 0.06036448 -0.2385634 0.38529018 0.0807025 0.4490177 0.050028548 0.4094547
0.23915483 0.30119857 0.60505617 0.01446365 0.034554433 0.048761804 0.06556162 0.4064425

fcs.1.weight f4 [2, 64]
00000000: 951f 49bf 2083 1c3f 22fb 433f 2bf5 2abf
00000010: 8dad 4d3f 8c10 1f3f 001a 39bf d774 293f
00000020: cd62 2fbf 9d52 3cbf b4a2 333f 9037 383f
00000030: e7b2 3bbf 6df6 123f 58ce 41bf 4f8d 4a3f
00000040: 4e3c 37bf 5414 253f 4e03 4d3f 76bb 233f
00000050: dc66 403f 1bc9 203f 2803 38bf e969 393f
00000060: 215a 44bf 61af 313f d8de 2a3f d375 2e3f
00000070: e683 563f 4b82 2c3f d4af 2d3f 2bec 433f
00000080: 184b 3abf 7b2e 3c3f a25b 38bf 4d35 2f3f
00000090: e5e7 3f3f 2a74 41bf 82de 3ebf fd00 323f
000000a0: cf3b 413f 3204 4abf 28d9 423f bfdd 41bf
000000b0: b5ed 343f 05c5 323f cbd9 0cbf 49f4 2d3f
000000c0: c5fd 333f 7964 483f ac8e 4fbf 8e04 2f3f
000000d0: 04a0 38bf 167b 293f b3d3 4ebf b2e9 3ebf
000000e0: 4ab7 533f 5c09 0bbf 59f4 3e3f ccf3 39bf
000000f0: 8b97 4a3f 092a 49bf 9ce6 3abf 6868 3f3f
00000100: c766 3c3f f161 4ebf f2a3 36bf 4be0 363f
00000110: f357 2fbf 7c34 49bf 23ab 3c3f 819f 38bf
00000120: d770 333f d15c 4c3f a35d 50bf a885 44bf
00000130: d98a 393f 0e91 01bf d379 293f acf5 44bf
00000140: daa2 2a3f 81a8 3fbf 8ee9 30bf 0463 59bf
00000150: 76ac 1cbf 002f 5abf 0dad 1d3f fb53 49bf
00000160: 1219 353f df85 3cbf f93c 3cbf 32c3 3ebf
00000170: c214 30bf 4c96 53bf 4b5c 3bbf 2ead 34bf
00000180: 8403 343f 3c50 41bf eb0f 1a3f baff 4abf
00000190: 8f62 46bf 50dd 2c3f 7369 2e3f 7a84 45bf
000001a0: 2583 20bf 6747 2e3f be27 44bf 391d 343f
000001b0: b01c 1fbf 675a 43bf 0cfb 1e3f 3e94 42bf
000001c0: 4e99 14bf 0a75 34bf ea6a 493f d0cd 28bf
000001d0: 4412 2d3f 0853 33bf e2c9 2c3f a4e6 2d3f
000001e0: 3220 4dbf 2618 313f 8a49 34bf 4d22 273f
000001f0: 7ab4 32bf 9288 2f3f c3dc 423f 261a 1fbf
-0.78563815 0.6113758 0.76555073 -0.66780347 0.8034294 0.62134624 -0.723053 0.6619391
-0.68510133 -0.7356356 0.7017014 0.7195978 -0.7331986 0.57407266 -0.7570548 0.7912187
-0.7157639 0.64484143 0.8008317 0.6395792 0.7515695 0.6280686 -0.71879816 0.7242723
-0.76700026 0.6940823 0.6674628 0.68148535 0.8379501 0.6738631 0.6784642 0.7653224
-0.72770834 0.73508424 -0.7201482 0.68440706 0.7496322 -0.7556788 -0.7455827 0.6953276
0.75481886 -0.7891265 0.76112604 -0.7572898 0.7067521 0.6983188 -0.55019826 0.67950875
0.70309097 0.7827831 -0.81077075 0.68366325 -0.72119164 0.6620344 -0.8079178 -0.7457534
0.8270155 -0.54311156 0.74591595 -0.7263763 0.79137486 -0.78579766 -0.7300813 0.74768686
0.73594326 -0.80618197 -0.7134391 0.71435994 -0.68493575 -0.7859571 0.73698634 -0.72118384
0.70094055 0.79829127 -0.8139288 -0.76766443 0.7247749 -0.5061196 0.66201514 -0.76937366
0.6665474 -0.7486649 -0.69106376 -0.8491671 -0.61200655 -0.85227966 0.6159218 -0.7864377
0.7074138 -0.7364177 -0.73530537 -0.74516594 -0.68781674 -0.8265121 -0.731877 -0.7057675
0.70317864 -0.7551305 0.6018054 -0.7929646 -0.7749414 0.67525196 0.6812965 -0.7715527
-0.6270011 0.680777 -0.7662314 0.7035709 -0.6215315 -0.7630982 0.6210182 -0.7600745
-0.58046424 -0.7049109 0.7867876 -0.65939045 0.67605996 -0.7004857 0.6749555 0.67930055
-0.8012725 0.6917747 -0.7042471 0.65286714 -0.69806635 0.68567765 0.76118106 -0.62149274

fcs.1.bias f4 [2]
00000000: 82bc f53e 84b5 17bf
0.47995383 -0.59261346
