cache/ckpts/woselfloop-genius_NormalNN-genius_trialNo92.pt (torch, 9627 bytes, 5 tensors)

alpha_params f4 [64, 13]
00000000: 69e1 7a3f 2f25 a2bc 3882 a3bc 845b a3bc
00000010: f3a2 a3bc 89a4 a3bc a5c6 a3bc 3d06 a3bc
00000020: 08c1 a3bc 3ff4 a23c b5a9 a3bc 83dd a2bc
00000030: e29d a3bc 69e1 7a3f 5f12 9fbc b958 9fbc
00000040: 4929 a0bc 263b 9fbc bc99 9fbc db9e 9bbc
00000050: fde9 9ebc 6345 9ebc 014a 9fbc 728f a0bc
00000060: b3c9 9fbc ab91 a0bc 6ae1 7a3f 69b1 a33c
00000070: f3a2 a33c bbb9 a33c 9763 a33c 6bba a33c
00000080: 2fb0 9fbc 6bae a33c 0376 a33c b98f a33c
00000090: 17ae a33c 035b a33c caab a33c 69e1 7a3f
000000a0: 6bdb 90bc b4a4 9cbc 0939 9dbc 1743 a0bc
000000b0: 0f9e a1bc 1aba a2bc 03a4 a2bc 72a0 a2bc
000000c0: 6b93 9abc dc34 a2bc a705 98bc df20 a2bc
000000d0: 69e1 7a3f 8b9a a23c 2084 a23c 9dd9 a23c
000000e0: a0b1 a13c c3c7 a23c 1bf9 993c d06d a23c
000000f0: 3b97 a13c 2d9b a13c 67d3 a23c 61b4 9f3c
00000100: 9fc8 a23c 69e1 7a3f 73ed 85bc 31b4 9ebc
00000110: 815f 9abc e2e7 a1bc 4b48 98bc 7de0 a1bc
00000120: 6356 95bc 1795 a0bc 571a 8abc 48a7 9ebc
00000130: c3cf 92bc e20b 9bbc 68e1 7a3f 2cb2 a3bc
00000140: f7ba a3bc 27ae a3bc f7be a3bc 5c1b a3bc
00000150: 02bb a3bc dbae 9ebc d4b3 a3bc a789 a3bc
00000160: 4bb2 a3bc 0ba1 a3bc 61af a3bc 69e1 7a3f
00000170: eb55 a0bc d3ec a0bc 795f a0bc 324a a1bc
00000180: ce46 9cbc 5baf a0bc 8e22 98bc d371 a0bc
00000190: e3de 9cbc ae07 a1bc cea6 9dbc a60a a1bc
000001a0: 69e1 7a3f af92 a3bc 64a5 a3bc 1d96 a3bc
000001b0: e8aa a3bc 61fb a2bc d7a3 a3bc 859b a1bc
000001c0: aa97 a3bc 1b50 a3bc bb99 a3bc 6c6e a3bc
000001d0: ea94 a3bc 69e1 7a3f 4279 a0bc 57f5 a2bc
000001e0: 78b9 a2bc f45b a3bc 6312 a3bc 8462 a3bc
000001f0: 1c76 a3bc 3a87 a3bc 6f8f a3bc 1b96 a3bc
00000200: b982 a3bc 6092 a3bc 69e1 7a3f db99 a13c
00000210: 8802 a33c 654f a33c f17b a33c 94bc a23c
00000220: 3f72 a33c 4294 92bc db68 a33c 07bc a0bc
00000230: 7754 a33c 148f 95bc 9bff a23c 69e1 7a3f
00000240: beab a23c 9a71 a23c 22ef a23c 1743 a13c
00000250: 8ce7 a23c 90d0 3b3c 7d87 a23c 1438 a13c
00000260: 7e6e a13c f1a3 a23c b1e2 9f3c 7881 a23c
00000270: 68e1 7a3f 17b5 a3bc 58b1 a3bc cfba a3bc
00000280: 179a a3bc 77b6 a3bc 7867 a3bc c7a1 a3bc
00000290: f39d a3bc 8181 a3bc 4eb8 a3bc 5242 a3bc
000002a0: eab6 a3bc 69e1 7a3f ef76 a3bc 6a8f a3bc
000002b0: aa6c a3bc 749a a3bc 52a0 92bc 0695 a3bc
000002c0: 8f33 a13c d783 a3bc c000 a3bc f778 a3bc
000002d0: a948 a3bc 366a a3bc 69e1 7a3f 74a2 a3bc
000002e0: 279a a3bc 98ae a3bc 7971 a3bc 54ad a3bc
000002f0: ffba a0bc 2d9e a3bc 6461 a3bc 5378 a3bc
00000300: efa0 a3bc fd58 a3bc cf9d a3bc 69e1 7a3f
00000310: fe00 a13c 6ff5 a23c ebb8 a23c fb55 a33c
00000320: 4f1a a33c 2f6c a33c 7d51 a33c d783 a33c
00000330: da82 a33c c797 a33c 3e77 a33c 1e86 a33c
00000340: 69e1 7a3f eb50 a3bc f78b a3bc 7762 a3bc
00000350: 3e99 a3bc af58 a2bc f785 a3bc 594a a1bc
00000360: 5161 a3bc d210 a3bc 1765 a3bc 2740 a3bc
00000370: 4c71 a3bc 69e1 7a3f 2f0d a33c 8f45 a33c
00000380: 98f8 a23c 5959 a33c 77cf 9f3c 3837 a33c
00000390: ebf7 9e3c 9007 a33c 6861 a23c aa03 a33c
000003a0: c4ac a23c 34f9 a23c 6ae1 7a3f 5f98 a33c
000003b0: 9783 a33c f5a5 a33c 3628 a33c 2aa7 a33c
000003c0: df4f 9fbc 4695 a33c a233 a33c 7365 a33c
000003d0: c396 a33c dff6 a23c ba92 a33c 69e1 7a3f
000003e0: 53ac a23c 7bdc a23c 86b8 a23c 71d8 a23c
000003f0: 128e a13c ab61 a23c 3b83 a03c d447 a23c
0.980002 -0.019793121 -0.019959554 -0.019941099 -0.019975161 -0.019975917 -0.019992182 -0.019900436
-0.019989505 0.019891856 -0.019978384 -0.019881016 -0.019972745 0.980002 -0.01941794 -0.019451486
-0.019550936 -0.019437384 -0.019482486 -0.018996647 -0.019398684 -0.019320196 -0.019444467 -0.01959965
-0.019505357 -0.01960071 0.98000205 0.019982057 0.019975161 0.019986024 0.01994495 0.019986352
-0.01949319 0.01998063 0.019953733 0.019965993 0.019980473 0.019940859 0.019979376 0.980002
-0.017682752 -0.019121505 -0.019192236 -0.01956324 -0.019728689 -0.01986413 -0.019853598 -0.019851897
-0.018869122 -0.019800596 -0.018557383 -0.019791065 0.980002 0.019849082 0.019838393 0.019879157
0.019738019 0.019870644 0.01879554 0.019827753 0.019725433 0.019727314 0.019876195 0.019495191
0.019871054 0.980002 -0.016348576 -0.019373031 -0.018844368 -0.01976389 -0.01858916 -0.019760365
-0.018229669 -0.019602342 -0.016858263 -0.019366875 -0.017921334 -0.018926565 0.9800019 -0.01998242
-0.019986613 -0.019980503 -0.01998852 -0.019910507 -0.019986633 -0.019370487 -0.01998321 -0.019963099
-0.019982478 -0.019974252 -0.019981088 0.980002 -0.019572219 -0.019644177 -0.019576775 -0.0196887
-0.019076731 -0.019614866 -0.018571164 -0.019585526 -0.01914925 -0.019656982 -0.019244578 -0.019658398
0.980002 -0.019967405 -0.019976325 -0.01996904 -0.019978955 -0.019895257 -0.019975586 -0.019727478
-0.01996978 -0.019935658 -0.019970765 -0.019950114 -0.019968469 0.980002 -0.01958907 -0.019892378
-0.019863829 -0.019941308 -0.019906228 -0.019944437 -0.01995378 -0.019961942 -0.019965855 -0.019969037
-0.019959794 -0.019967258 0.980002 0.019726684 0.019898668 0.01993532 0.01995656 0.019865312
0.019951938 -0.01789296 0.01994746 -0.019620908 0.019937737 -0.018256702 0.019897273 0.980002
0.019857284 0.01982956 0.019889418 0.019685311 0.0198858 0.011463299 0.019839996 0.01968006
0.019706007 0.019853564 0.019517275 0.019837126 0.9800019 -0.019983811 -0.019982025 -0.019986538
-0.019970937 -0.019984467 -0.019946799 -0.019974602 -0.019972777 -0.019959213 -0.019985344 -0.019929085
-0.019984681 0.980002 -0.019954173 -0.019965846 -0.019949276 -0.01997111 -0.017898712 -0.01996852
0.019677905 -0.019960327 -0.019897819 -0.019955141 -0.019932108 -0.019948106 0.980002 -0.019974925
-0.019970967 -0.019980714 -0.019951569 -0.01998011 -0.019620417 -0.019972885 -0.0199439 -0.019954836
-0.0199742 -0.019939894 -0.01997271 0.980002 0.019653793 0.019892422 0.019863566 0.01993846
0.019910006 0.019949047 0.019936318 0.019960327 0.019959856 0.019969834 0.01995432 0.019961413
0.980002 -0.019936046 -0.019964201 -0.019944413 -0.019970533 -0.019817678 -0.01996134 -0.019688772
-0.019943865 -0.019905481 -0.019945664 -0.019928051 -0.019951485 0.980002 0.019903747 0.019930629
0.01989393 0.019940065 0.019508107 0.019923791 0.019405326 0.019901067 0.019821838 0.019899208
0.019857772 0.01989422 0.98000205 0.019970117 0.019960208 0.019976595 0.019916635 0.019977171
-0.019447265 0.01996864 0.019922081 0.019945836 0.01996935 0.019893108 0.019967426 0.980002
0.019857561 0.019880524 0.019863378 0.019878598 0.019721065 0.019821962 0.019593826 0.019809641

fcs.0.weight f4 [64, 12]
00000000: 8782 81be 7887 7cbc 7e38 0e3e 9ab3 8b3e
00000010: 0cd2 d6bc 7bf8 5a3e 3f2c 28be c7d3 29be
00000020: e985 d3bd 041d 09be b037 85be 61cd 233e
00000030: f6dc ba3d f066 a13d 58dc 823e c0e3 23bc
00000040: e088 82be fd57 ebbd 0fd4 f2bd a5c2 5f3e
00000050: 83dc 103d ff99 8cbe 8576 873e 0596 6cbe
00000060: ce36 953e 645b 42be 9eb4 9c3d b24e 183e
00000070: 090c 833e e621 d63d ce63 0abc ba94 1d3e
00000080: c365 783c e2e5 4f3e 93aa b33d 5bbb 7abe
00000090: aa10 06be ff94 d13d dda5 52be 6481 bc3d
000000a0: 33b0 e23a 5a45 233e 0efd 24be 5a3d 8ebe
000000b0: edf7 303e 89ab 06be 8693 23bd d82f 36bd
000000c0: fb21 333e d57b 723e cd83 833e de92 41be
000000d0: 2ac7 563d f08b 3ebd c75a a73d 446c 83be
000000e0: 05da cd3d f74c 1ebe 98ff 953d cd79 8c3e
000000f0: 71dc e2bd bcf5 0ebe 3ba7 8e3e 417f 333e
00000100: 5a8c 13be 49cb 813e 668b 273e e351 05bc
00000110: e6e9 21be 20cc 56be 359f 1a3e 96dc 733e
00000120: 9b23 563e d60f 03bd 2614 823e 9091 dfbc
00000130: b7a9 7d3e 49b0 603d 4bef 13be ae6b 753c
00000140: d973 45be 8b7d 78bd 30ce 373e 231f 8fbe
00000150: fd30 8f3d 4a26 4bbe 647a 1abd d611 6bbe
00000160: 8515 32be a536 0cbe 0208 84be ea15 59be
00000170: 94cd 85bd 6ab5 f03d 5f56 34be 8f8a 683e
00000180: 9015 df3d c10e 1dbe 3103 5cbe 5cfb 513e
00000190: 3e7a 56bd 7c6f 273e 54db b93d f3ce 013e
000001a0: 396a 893d 75ea 633e cf4e 1dbe 52e4 21bd
000001b0: 1107 59be 0e6c 3cbe 9c98 2dbd 3728 37be
000001c0: 08b4 3bbe e9a0 383e 2635 413e a187 8bbe
000001d0: ccc4 a03d 47b0 6a3e 3b27 63bd 1d0a 1c3e
000001e0: c089 39bd 0839 8fbe 8f60 7d3e 5ac7 ff3c
000001f0: 06a7 8dbe a1c2 a53d d11d 913e 4eb5 7cbe
00000200: 7005 f0bd 2156 7c3e 442b e63d 2ba6 ffbd
00000210: 9df3 623e 2cd3 bb3d 7833 74bd 82eb 743e
00000220: f3d5 693e bc3c 2d3e f7cc 3a3d ac85 033e
00000230: b5f2 513e 403a 48be a210 8cbd 8769 1b3e
00000240: 1d90 b33d e6ca 843e ca5e 95be f04b 4ebe
00000250: 9daf 8fbe 4bed 083e 9312 e3bc 7bcb 3cbe
00000260: 4dd2 c43d 09ba d53d 205e abbd 4d74 71be
00000270: 406e 4e3e c29e 883e 0726 d83d 2c31 d73d
00000280: aeb5 84bd b4cd 3ebe b21e 09bd f63a c33d
00000290: 73eb 393e fc22 983a 1e51 7fbe 96a4 8cbe
000002a0: 1960 7c3e 4a48 6ebe 9864 56be 5de3 a03c
000002b0: 75c6 4abe 1477 8f3e 9599 27bd 7a41 3bbe
000002c0: df78 853e a6d1 123d 8fd9 513e 2793 4d3e
000002d0: 1d5f a6bd 1c5b 54bd 5a25 8abd bb43 52bd
000002e0: 0d8e 5b3e 669c 3abe a5c0 2c3e 0fc1 e1bc
000002f0: d13b 2dbe 8659 87be 7492 773e 82d7 e23d
00000300: c942 263b 981b 20be db79 12be 67ba 763e
00000310: 9395 123c 9133 133e c95e 4dbe 0f0d 61bc
00000320: d2f9 5ebd 8753 88be 96c3 88bc 8640 343e
00000330: 9c2c 6b3e d2ab 32bd e812 89be 0fd9 a73c
00000340: 2965 303e 2e38 0fbe d9e2 803e 8355 f2bd
00000350: 0fea c5bd 5510 9e3c 90bd 033e a18d 253e
00000360: 7e9e 293e 2d35 803d 90cb 693e 525c 253e
00000370: 10de 9c3d eff9 e9bd 6447 1a3e 4b26 563e
00000380: a9a5 41bd 70c0 1e3e 83af 743e c8fe d2bc
00000390: c34e 173d 7be8 ad3d d680 dbbb c6fb 8dbd
000003a0: 6e34 7b3e 24eb bcbd 58c8 f9bc 801f 173d
000003b0: 8c91 7abe fb14 85bc 5427 50be feeb 59be
000003c0: 7ca0 1d3d 372a 9dbb 4f31 e33d f874 8d3e
000003d0: 143f 023d c7fa 16be 9aa6 8dbe 0196 81be
000003e0: dae0 64be 5ca5 383d f1c6 6dbe 4417 a8bd
000003f0: ad4c 383e 213f 0c3e 4c8c e9bc e9e6 813e
-0.25294897 -0.015413158 0.13888738 0.27285463 -0.026223205 0.2138385 -0.16423129 -0.16584693
-0.10328276 -0.13389975 -0.2601905 0.15996315 0.09124176 0.07880962 0.25558734 -0.01000303
-0.25495052 -0.11491392 -0.11856853 0.21851595 0.035366546 -0.2746124 0.2645761 -0.23104103
0.29143375 -0.18980175 0.076516375 0.1487377 0.2559512 0.10455684 -0.008446647 0.15388766
0.015160981 0.20302537 0.08772769 -0.24485533 -0.13092294 0.10233497 -0.20571084 0.09204367
0.0017294943 0.15944424 -0.16112158 -0.27781183 0.17282076 -0.13151373 -0.03993561 -0.04447922
0.17493431 0.2368005 0.25686494 -0.18903682 0.05243603 -0.046520174 0.08171611 -0.25668538
0.100513496 -0.15459047 0.07324141 0.27436677 -0.11077202 -0.13960928 0.27861962 0.17529012
-0.14409009 0.25350407 0.1636177 -0.008137199 -0.15811881 -0.20976305 0.15099795 0.23814616
0.2091202 -0.031997524 0.25405997 -0.02729109 0.24771772 0.05485562 -0.14446752 0.014979286
-0.19282474 -0.060666602 0.17949748 -0.27953443 0.06991766 -0.19838825 -0.037714377 -0.22956023
-0.17391022 -0.1369272 -0.2578736 -0.21199766 -0.065333515 0.11753352 -0.17611073 0.22709106
0.108927846 -0.1533766 -0.21485592 0.20506042 -0.052362673 0.16351122 0.09075037 0.12676601
0.067097135 0.22257407 -0.15362094 -0.039524384 -0.21194102 -0.18400595 -0.042381868 -0.17886434
-0.18330395 0.18030132 0.18867931 -0.27251914 0.07850036 0.22918807 -0.055457335 0.15238233
-0.045297384 -0.279732 0.24743865 0.031222988 -0.2766649 0.08093763 0.2834306 -0.24678537
-0.11719787 0.2464223 0.11238721 -0.12482866 0.22163244 0.09171137 -0.059619397 0.23917964
0.22835521 0.169177 0.045605626 0.1284396 0.20502742 -0.1955347 -0.0683911 0.15176974
0.08767722 0.2593605 -0.2917388 -0.20146155 -0.2806367 0.1337177 -0.027718818 -0.18436997
0.09610424 0.10435874 -0.08367562 -0.23579521 0.20159245 0.26683623 0.10554128 0.10507426
-0.06479965 -0.18633157 -0.03347654 0.0953273 0.18156223 0.0011607106 -0.24933288 -0.2746932
0.24646033 -0.23269764 -0.20936811 0.019639665 -0.19802268 0.28020537 -0.04091795 -0.18286696
0.2606878 0.035844468 0.20493148 0.20075665 -0.0812361 -0.0518447 -0.067454055 -0.051334124
0.21440907 -0.18223724 0.16870363 -0.027557878 -0.1691735 -0.26435488 0.24176961 0.11076261
0.0025369397 -0.15635526 -0.14304297 0.24094544 0.008946794 0.1437514 -0.20055689 -0.013736024
-0.054437466 -0.26626226 -0.016694825 0.17602739 0.22966236 -0.043620892 -0.26772237 0.020489244
0.1722609 -0.13986275 0.2517307 -0.11832716 -0.09663784 0.019294897 0.12865281 0.16167308
0.16564366 0.062601425 0.22831559 0.16148499 0.076595426 -0.11424624 0.15066296 0.20913045
-0.047277126 0.15503097 0.23895077 -0.025756255 0.036940347 0.08491608 -0.006698708 -0.069327876
0.24531719 -0.09224537 -0.03049104 0.036895275 -0.24469584 -0.016245356 -0.20327502 -0.2128143
0.038483128 -0.004796292 0.11093389 0.27628303 0.031798437 -0.14744101 -0.2766617 -0.25309756
-0.22351399 0.045079574 -0.23220421 -0.082075626 0.17998 0.13695957 -0.028509282 0.25371483

fcs.0.bias f4 [64]
00000000: 0611 3a3e 8a2c 883c c1c9 513e 8c90 aebd
00000010: e2b3 d0bd 9cb4 a93d cf59 56be f493 6e3e
00000020: 884c 27be 2569 2e3c 5dd1 093e 0499 8f3e
00000030: dbb3 053e a3a7 21be 870b 143e aa7c 4e3b
00000040: 71f9 613d fd9c 753e 1751 35bd 049e 8ebe
00000050: 1608 ea3d a7fd 3a3e 8f9d f13c 224c 753e
00000060: b8ce c2bd b8ee 5e3e cd5c 23be df5c 2ebe
00000070: 5b0a 1e3d 75c7 9a3d 52cc 2b3e cd78 bdbd
00000080: 06bf eebd 3669 11bb 7ed7 07be 7046 d2bc
00000090: 1540 de3c bbb6 50be 207c 51be eac3 583e
000000a0: 5de6 39bc d638 5a3e 8743 563e 6ba6 8f3e
000000b0: f045 5c3e a7c6 19be 8d52 87bc 0ce3 0cbe
000000c0: 8c44 72bd 885c 233d 58ab 18be 4058 2abe
000000d0: 9dab 163e 1976 84bb fc15 6abe 4baa 8e3e
000000e0: ef1d da3d 3fda 403e 0553 843e 4896 71be
000000f0: 0e19 55be a306 40be 93ac b0bc 3bf9 b5bd
0.18170556 0.0166228 0.2048712 -0.08523664 -0.1019056 0.08286402 -0.20932697 0.23298627
-0.16337788 0.010645186 0.13458772 0.2804643 0.1305689 -0.15786605 0.14457522 0.003150741
0.055169526 0.23985668 -0.044266786 -0.2785493 0.114273235 0.18260823 0.029494075 0.23954824
-0.09512085 0.21770751 -0.1595337 -0.17027615 0.038584094 0.07557575 0.16777161 -0.092515565
-0.116575286 -0.0022187955 -0.13265797 -0.025668353 0.027130166 -0.20382206 -0.20457506 0.21168485
-0.011346427 0.21310744 0.20924197 0.28056654 0.21511054 -0.15017186 -0.016518855 -0.13758487
-0.059147403 0.039883167 -0.14909112 -0.16635227 0.14713903 -0.0040423987 -0.22859949 0.27864298
0.10650241 0.18833254 0.2584459 -0.23592484 -0.20810339 -0.18752532 -0.021566665 -0.088854276

fcs.1.weight f4 [2, 64]
00000000: b561 e0bd 1351 b3bd 0667 f63d 592c bd3c
00000010: c79b 9f3d 9554 96bd bb82 c4bd ceba c5bc
00000020: 7e71 3abd aeef 3dbd 4cc8 96bc a9c7 01bb
00000030: 138c c3bd 8181 673b 2a00 d1bd 9efa c73d
00000040: 82e0 57bd a068 a7bc b7e7 ea3d dfb1 9fbd
00000050: 8694 8c3d 4172 d1bd 3ea4 c3bd eee1 2d3d
00000060: df89 6fbd a13b 863c 5119 41bd b5ef 983c
00000070: 8724 043e 531e ecbc ceca 003d 9df1 e63d
00000080: 781e a9bd 99eb bc3d 8884 b4bd 1682 4abc
00000090: 4a50 a73d 3415 d1bd 8dd4 39bd 9b22 94bc
000000a0: 4961 a03d 8e19 a5bd 0cba 853d 1765 a4bd
000000b0: 4880 f13c 8f25 b9bc 8004 953b f57e e9bc
000000c0: cd45 823d bd65 e83d 22cb d6bd 987d b6ba
000000d0: 4021 f6bc 802c 8bbc 8550 ccbd a7c9 8abd
000000e0: d01a 013e 3eac d73c 3957 b93d 6300 a4bd
000000f0: 5de2 d23d 84c6 9abd 57e8 38bd 3545 843d
00000100: d823 833d 8f1e debd 003b 95bd 7162 d53c
00000110: 8a0c 233d 8b1f c1bd 68e2 e93d 4b2b 19bd
00000120: 8951 893d 71b2 e43d ea5c c0bd 4fac 40bd
00000130: ee5c bc3d faa0 983d 634a 3a3c 959d 9ebd
00000140: ea44 083c a059 b3bd 92b0 ecbb f104 08be
00000150: dd08 8b3d d5f3 f9bd 54cb 88ba 9e99 e0bd
00000160: a6d3 3a3b e14c 8ebd 49a2 a7bc ee92 b0bd
00000170: 0e6c a53c f86b 00be 3b03 b9bd 31d5 67bd
00000180: 6391 7e3d 7c7d eebd 987b b7bc cb4a cbbd
00000190: 7cb0 e4bd 0b8d c73c 1088 75bc 3d67 72bd
000001a0: 7e35 3a3d 6c2c d5bc 0c23 92bd b9ae e93c
000001b0: 3212 583d cbf8 39bd c3ec a33d 3600 65bd
000001c0: e70d 6f3d 5d9d 24bd b5ea a63d 5c44 c53c
000001d0: 034e 4ebc 1644 cabc 5704 efbc af39 0e3b
000001e0: e736 cebd 4868 2f3d 4809 5abd 963b 383c
000001f0: 90a2 7ebc 6e1e a6bc 3a1e a43d 1ad7 6e3d
-0.10956136 -0.08755698 0.12031369 0.023092436 0.07793384 -0.073403515 -0.09595247 -0.024136927
-0.04551839 -0.046371154 -0.018406056 -0.0019802845 -0.095482014 0.0035324993 -0.102051094 0.09764598
-0.05270434 -0.020435631 0.11469977 -0.07797598 0.06864266 -0.1022687 -0.09552811 0.04245179
-0.058481093 0.016385855 -0.047143284 0.018668989 0.12904559 -0.028823053 0.03144341 0.11276553
-0.082577646 0.09224624 -0.08814341 -0.0123601165 0.08169611 -0.10209122 -0.04536872 -0.018082907
0.07831056 -0.08061515 0.06529626 -0.08027094 0.029480115 -0.022600917 0.0045476556 -0.02850292
0.0636097 0.1134753 -0.10487963 -0.0013922928 -0.030045152 -0.016988993 -0.099762954 -0.067767434
0.12607884 0.026327249 0.090498395 -0.08007886 0.102970816 -0.07557395 -0.04514345 0.06458513
0.06403321 -0.10845672 -0.07286644 0.026047917 0.03980688 -0.094298445 0.11420137 -0.037394803
0.06705005 0.111668475 -0.09392722 -0.047039326 0.091974124 0.07452579 0.011370274 -0.077449
0.008317212 -0.08757329 -0.0072231973 -0.13283135 0.067888 -0.122047104 -0.0010436573 -0.109668
0.00285075 -0.06948257 -0.020463126 -0.086217746 0.020193126 -0.12541187 -0.09033819 -0.0565998
0.06215037 -0.11645028 -0.022397801 -0.09926375 -0.11166474 0.024359247 -0.014986053 -0.059180487
0.04546117 -0.026022159 -0.07135591 0.028525697 0.052751727 -0.045403283 0.08004143 -0.055908404
0.058362868 -0.040189136 0.081502356 0.024080448 -0.012591842 -0.024690669 -0.029176874 0.0021701863
-0.100690655 0.04282406 -0.053231508 0.011244675 -0.015541688 -0.020278182 0.08013578 0.058310606

fcs.1.bias f4 [2]
00000000: 22c9 76bd b680 6cbd
-0.06025041 -0.057739936
