cache/ckpts/woselfloop-geom-chameleon_NormalNNV2-geom-chameleon_trialNo11.pt (torch, 599131 bytes, 5 tensors)

alpha_params f4 [5, 9]
0.93556315 0.6923698 0.7619626 -0.76291966 0.77746254 -0.7861647 0.055135693 -0.7347272
-0.060789727 0.47336444 0.74944395 -0.71901596 0.5660184 -0.7663303 0.5672859 -0.68128616
0.5199713 -0.41596308 0.85852164 0.22564007 0.70769703 -0.34699237 0.46696088 -0.6387594
0.3334863 0.40927354 -0.057163365 0.7393326 0.74217874 -0.75331074 0.75363874 -0.51968473
0.73275656 -0.23004423 -0.64399666 0.5565366 0.8068534 -0.7912564 0.7301795 0.046443682
0.600051 0.49648768 0.72000474 0.56244016 -0.4304956
00000000: 1181 6f3f 263f 313f fb0f 433f b44e 43bf
00000010: c907 473f 1742 49bf f7d5 613d 1517 3cbf
00000020: a6fe 78bd d35c f23e 8fdb 3f3f 6e11 38bf
00000030: 95e6 103f 392e 44bf a639 113f c568 2ebf
00000040: d71c 053f 1df9 d4be 13c8 5b3f 310e 673e
00000050: a22b 353f fca8 b1be 7f15 ef3e bc85 23bf
00000060: b7be aa3e 4d8c d13e 2224 6abd e744 3d3f
00000070: 6dff 3d3f f9d8 40bf 78ee 403f 0f0a 05bf
00000080: ef95 3b3f b790 6bbe f7dc 24bf 2f79 0e3f
00000090: f28d 4e3f c88f 4abf 0bed 3a3f bb3b 3e3d
000000a0: f19c 193f a233 fe3e 3b52 383f 14fc 0f3f
000000b0: eb69 dcbe

fcs.0.weight f4 [64, 2325]
-0.008258938 0.0032007876 0.0057341554 0.022004483 0.0048249196 0.007451999 -0.0067630573 -0.0046122847
-0.009660593 -0.013058742 -0.009539046 0.01581214 0.0054207286 0.0034357507 0.011056716 0.0023506992
-0.009253654 -0.0027029377 -0.003779188 0.019995684 0.0002599004 -0.011385753 0.015188844 -0.010675428
0.02315767 -0.0165854 0.0008853475 0.008862606 0.010064448 0.010557247 -3.1484593e-05 0.004044502
0.0032312362 0.010978593 0.0014935815 -0.021297846 -0.0031386067 0.008909625 -0.010041028 0.0065077236
-0.0012972829 0.014490217 -0.0043843146 -0.010546237 0.006251559 -0.0033590565 -0.00033059862 -0.003071685
0.0051427595 0.017752282 0.009990617 -0.017548446 0.0069478075 -0.0004504686 0.0012668051 -0.009343903
0.0019175975 -0.0040943604 0.009650592 0.017793933 -0.00393483 -0.0034285309 0.010595593 0.015985884
-0.0036291368 0.017806757 0.0037503897 -1.2090549e-05 -0.00425452 -0.0067921886 0.007816478 0.017138796
0.0062964535 -8.765464e-05 0.018435124 0.00180641 0.008848562 -0.00040352886 -0.013232768 6.17255e-05
-0.014822478 -0.0007457567 0.005191127 -0.011368379 0.002418973 -0.0065463656 -0.0049804794 -0.014894541
-0.009457719 -0.0037974988 -0.013598025 -0.013210316 -0.00015957763 0.0061581465 -0.0057399073 0.0077109598
0.013045121 -0.0078843525 -0.007166072 0.02076785 -0.00019377258 0.0065683844 0.0016811338 0.012615695
0.00090495305 0.018264124 -0.012158336 -0.00032391274 -0.015727011 -0.0052758153 -0.0008149201 -0.0051917857
-0.0054479185 0.02005306 0.0058720484 -0.020614425 0.010935595 0.02074311 -0.00062761887 0.0051083732
-0.0056405724 -0.010718822 0.010058504 -3.110592e-05 -0.016395682 0.003210593 0.0098968325 -0.008796597
-0.0023388723 0.0116593465 0.0023441068 -0.0028253782 0.017301869 0.0013564745 -0.0007474476 0.008382497
0.011014294 0.004766121 -0.0017106831 0.0029679753 0.0065462533 -0.0060607432 -0.0038079922 0.016373184
0.0057287943 0.009633365 -0.0153179085 -0.0064622555 -0.015171934 0.0032418245 -6.443915e-05 -0.0053123995
0.007427938 0.003939455 -0.011234146 -0.016839204 0.0055876714 0.010577789 0.0021820683 0.0010513365
-8.470316e-05 -0.0120897 -0.00014498031 0.01283441 0.020320276 0.005540554 -0.008929902 -0.01036666
0.013299348 -0.011047258 -0.009788253 2.5688994e-05 -0.019743882 0.026100041 -0.004962318 -0.014624113
0.023599187 0.006746485 0.012934483 0.016777774 -0.0014469004 -0.009066572 -0.0010210646 -0.0005749279
0.0063701943 -0.01572451 0.004001987 -0.00016115459 -0.004768681 -0.009775425 0.02184938 0.0032850192
2.516177e-05 -0.0055576633 -0.0029424734 0.007560788 3.895474e-05 0.0037195291 -0.017631756 0.004745583
0.00255763 -0.021438377 0.0074498644 0.005141666 0.013972409 0.00022326934 -0.014549141 0.004055633
0.010553148 -0.005473639 0.011301599 -0.002575703 -0.00049126917 0.0049617644 0.0029794779 0.0044179475
0.0047223475 0.0016987284 0.021391628 0.0043792855 0.0011498107 -0.013618698 0.0038237504 0.009492895
0.0022739153 0.0041142334 0.008355743 0.0021591606 0.00038118794 0.007703504 0.0019632108 0.0005626817
0.008701185 -0.0016562783 0.0036043208 -0.0018447818 -0.008672675 -0.0037760918 -0.00669644 -0.013822473
0.00040322627 0.0020119504 0.003098625 0.0247784 -0.0024550564 -0.0037611858 -0.011193327 -0.009135179
-0.017496869 0.0035397878 -0.010789502 -0.0013201024 0.0061751045 0.0033561867 -0.00015782082 0.019285895
00000000: 7f50 07bc 4ec4 513b 95e5 bb3b bf42 b43c
00000010: 5c1a 9e3b e62f f43b a39c ddbb a622 97bb
00000020: 7747 1ebc 55f4 55bc a949 1cbc 7688 813c
00000030: 5ea0 b13b 552a 613b 3a27 353c 300e 1a3b
00000040: a39c 17bc c523 31bb 41ac 77bb fdcd a33c
00000050: 3e43 8839 4f8b 3abc a1da 783c fee7 2ebc
00000060: 27b5 bd3c 1bde 87bc aa16 683a 7734 113c
00000070: 5be5 243c 4ef8 2c3c 530e 04b8 be87 843b
00000080: 26c3 533b 8edf 333c 47c4 c33a d278 aebc
00000090: 15b1 4dbb adf9 113c 2083 24bc be3e d53b
000000a0: 9709 aaba 6068 6d3c 4caa 8fbb 20ca 2cbc
000000b0: e1d9 cc3b 9e23 5cbb 3254 adb9 534e 49bb
000000c0: 9884 a83b 3c6d 913c afaf 233c c2c1 8fbc
000000d0: 6faa e33b df2c ecb9 ed0a a63a 2b17 19bc
000000e0: e557 fb3a fc29 86bb 841d 1e3c 95c4 913c
000000f0: bfef 80bb 34b1 60bb 2399 2d3c d4f4 823c
00000100: d0d6 6dbb 7adf 913c 19c9 753b 83d8 4ab7
00000110: 8069 8bbb 0291 debb af10 003c a966 8c3c
00000120: 7b52 ce3b 3ad3 b7b8 4205 973c 10c5 ec3a
00000130: 8ff9 103c ba90 d3b9 40ce 58bc a072 8138
00000140: fbd9 72bc e37e 43ba 541a aa3b 7042 3abc
00000150: a287 1e3b e582 d6bb 4a33 a3bb 3c08 74bc
00000160: 8cf4 1abc 75df 78bb 40ca 5ebc 1570 58bc
00000170: 4b54 27b9 47ca c93b d515 bcbb 38ac fc3b
00000180: 34bb 553c 5f2d 01bc 5ed1 eabb 5721 aa3c
00000190: 6e2f 4bb9 9a3b d73b 7d59 dc3a 0fb2 4e3c
000001a0: 5f3a 6d3a a59e 953c c233 47bc d5d2 a9b9
000001b0: efd5 80bc bfe0 acbb 5da0 55ba db1f aabb
000001c0: 7484 b2bb 5146 a43c 506a c03b 95df a8bc
000001d0: 362b 333c 74ed a93c ca86 24ba 2464 a73b
000001e0: 8dd4 b8bb ff9d 2fbc 6ccc 243c ba77 02b8
000001f0: 3d50 86bc d068 523b 5326 223c 9a1f 10bc
00000200: c447 19bb d806 3f3c 969f 193b fb29 39bb
00000210: a6bc 8d3c bbcb b13a 5cf0 43ba be56 093c
00000220: 4c75 343c 1f2d 9c3b 0039 e0ba 5d82 423b
00000230: f481 d63b 3399 c6bb 828f 79bb 0e21 863c
00000240: 9cb8 bb3b 43d5 1d3c f7f7 7abc 54c1 d3bb
00000250: b493 78bc ca74 543b 8123 87b8 a313 aebb
00000260: 0f66 f33b 8b16 813b 6c0f 38bc 5ff2 89bc
00000270: c918 b73b 764e 2d3c 0801 0f3b 00cd 893a
00000280: aaa2 b1b8 e113 46bc db05 18b9 6b47 523c
00000290: b576 a63c 898d b53b b94e 12bc ecd8 29bc
000002a0: 82e5 593c 8fff 34bc e95e 20bc b27e d737
000002b0: ecbd a1bc c1cf d53c f19a a2bb fa99 6fbc
000002c0: 1553 c13c 9e11 dd3b 27eb 533c 8b71 893c
000002d0: eca5 bdba f68b 14bc 3ed5 85ba c2b6 16ba
000002e0: 10bd d03b b0d0 80bc 1a23 833b 9bfb 28b9
000002f0: 9842 9cbb 1b29 20bc 79fd b23c 7a49 573b
00000300: 7d12 d337 0f1d b6bb 83d6 40bb 7dc0 f73b
00000310: 5563 2338 58c3 733b 7970 90bc d680 9b3b
00000320: e99d 273b 899f afbc fe1d f43b 6c7b a83b
00000330: 88ec 643c 681d 6a39 855f 6ebc 1ee5 843b
00000340: 1ce7 2c3c 365c b3bb 582a 393c 20cd 28bb
00000350: 84c8 00ba 4c96 a23b 5843 433b 6ec4 903b
00000360: ecbd 9a3b dea7 de3a 7f3d af3c 1c80 8f3b
00000370: 3fb5 963a f620 5fbc e397 7a3b 1688 1b3c
00000380: f805 153b b1d0 863b 87e6 083c b480 0d3b
00000390: 2eda c739 ad6d fc3b 36a9 003b ee80 133a
000003a0: 6a8f 0e3c 7a17 d9ba 7836 6c3b 9bcc f1ba
000003b0: d617 0ebc 4f78 77bb cf6d dbbb a777 62bc
000003c0: 1d68 d339 edda 033b 4d12 4b3b 12fc ca3c
000003d0: 03e5 20bb 3a7e 76bb 3764 37bc b8ab 15bc
000003e0: 9855 8fbc c9fb 673b 74c6 30bc 4907 adba
000003f0: 8858 ca3b 78f3 5b3b b47c 25b9 74fd 9d3c

fcs.0.bias f4 [64]
0.015475151 0.017298296 -0.011338483 0.006831733 0.017597182 0.011532591 0.0025991257 0.0013917298
-0.015229657 -0.011249769 0.020299966 -0.023339685 -0.011631043 0.0027926047 -0.021303033 0.008483578
-0.013804386 -0.014062181 0.011063247 0.02046421 0.008807354 0.018150473 -0.021740649 -0.010509619
-0.017761428 -0.0104633225 -0.004899577 -0.0020687638 0.0009877426 0.01563646 0.01961634 0.013451339
0.008279503 0.013334453 0.0051469463 -0.006697407 -0.00677381 -0.019769596 -0.008352349 -0.019191375
-0.01767155 0.0048306733 -0.01362362 -0.025655009 -0.0035851204 -0.020701997 0.0014693968 0.0049072388
0.02057947 -0.0019075486 0.014816465 -0.0014064544 0.010681044 -0.005170193 -0.018708345 0.009004819
0.002280505 0.0063904747 0.011475678 0.0140394345 -0.0013124503 0.014373867 -0.016669478 -0.0056863925
00000000: 7d8b 7d3c 28b5 8d3c 0bc5 39bc bbdc df3b
00000010: f727 903c 31f3 3c3c 1856 2a3b b46a b63a
00000020: d085 79bc f350 38bc 1d4c a63c de32 bfbc
00000030: 2190 3ebc 2204 373b b383 aebc b5fe 0a3c
00000040: cb2b 62bc 1065 66bc 9f42 353c 8fa4 a73c
00000050: b84c 103c 4db0 943c 7219 b2bc 8930 2cbc
00000060: 6a80 91bc 5b6e 2bbc a18c a0bb 1994 07bb
00000070: 2477 813a 0918 803c 72b2 a03c 0163 5c3c
00000080: c1a6 073c c078 5a3c b7a7 a83b ec75 dbbb
00000090: d6f6 ddbb d9f3 a1bc 4ad8 08bc 3b37 9dbc
000000a0: edc3 90bc a04a 9e3b 9b35 5fbc 742a d2bc
000000b0: 57f4 6abb 3c97 a9bc c698 c03a e7cc a03b
000000c0: 4796 a83c b606 faba c2c0 723c c758 b8ba
000000d0: 8cff 2e3c b96a a9bb 3e42 99bc f388 133c
000000e0: 8674 153b 3067 d13b 7b04 3c3c a805 663c
000000f0: 8606 acba 5e80 6b3c 6e8e 88bc eb54 babb

fcs.1.weight f4 [5, 64]
-0.037491165 -0.11010025 0.021013828 -0.068832375 -0.047908623 0.09672718 -0.06938017 0.1015612
-0.054005146 -0.06226224 0.0042017433 -0.043993354 0.1086572 0.08006202 -0.038085602 -0.07647959
-0.083054714 0.03891961 0.12414593 -0.066932976 -0.03147303 -0.09825232 0.09840168 0.041829918
-0.116004854 0.056192596 0.032333434 -0.04376546 -0.06415843 0.068719506 0.06823921 0.078099966
0.022860292 0.06325557 0.12882814 0.11839022 0.017310675 0.08771652 0.007414713 -0.07437861
-0.0480317 0.033270232 -0.03418606 0.11645412 -0.043321855 -0.0595309 0.08693305 0.12310528
-0.039057933 0.10807593 -0.0674298 -0.077022016 -0.115860336 0.08511188 0.041702162 0.11095239
-0.1274335 -0.04746185 0.07030202 0.10720114 -0.0048147268 -0.07465615 0.046362933 0.067539215
-0.10890496 0.051392745 -0.021529792 0.10498226 -0.016533963 0.015100512 0.048971206 -0.081405625
-0.004031144 -0.055635232 -0.120425165 -0.10587563 0.0652763 0.11072843 -0.05184353 0.00912983
-0.044382606 0.07870852 0.05289463 -0.094916455 -0.016246898 -0.08210787 0.020601919 -0.016131323
0.01851119 0.097521335 0.10432899 0.08711985 -0.039556034 0.04482694 -0.09201659 -0.030582357
0.06684517 0.088094205 0.099276334 -0.036651894 0.117298976 -0.11805217 -0.004820352 0.06735753
-0.055305213 0.103488125 0.09779778 0.073228106 0.021544615 -0.10754681 -0.10209429 0.1161508
-0.035844002 0.08137863 0.085583694 0.013622984 -0.075042054 0.044001665 -0.05393045 0.10031261
-0.0861066 0.030316666 0.060151905 0.11133163 -0.12394124 0.02234605 0.041046243 0.12101653
0.037300874 0.000696584 0.0790972 -0.040428605 0.07814817 0.07072133 0.08969053 -0.11738239
0.11316188 0.094053976 -0.005961263 -0.089655936 0.009721056 0.030470235 0.011196967 -0.10803698
0.0363982 0.02432302 -0.026915548 -0.027501676 -0.11764273 -0.030388283 0.10641321 0.116027154
-0.10030692 -0.08484441 0.008288368 0.06306821 -0.06390973 0.0830689 0.08483822 0.010000332
0.08253352 0.09928063 -0.06848691 0.06470047 0.100246884 -0.048393235 0.11923722 -0.0731335
-0.016235773 0.028917091 -0.09429836 -0.060360454 -0.08403674 0.091682896 0.08745887 -0.08732187
-0.023222988 -0.08353965 -0.081999704 0.020824062 -0.0843777 -0.048395365 -0.119444095 -0.05414586
0.06760317 -0.06390281 0.012163661 -0.068362154 0.009086465 -0.091896296 -0.03352429 0.10389582
-0.005767609 -0.0018698703 0.010058998 0.044953104 0.07193478 -0.08220203 0.12674442 0.04739337
-0.019012813 0.043435253 0.04052458 0.10705618 -0.047990512 0.11792127 -0.032570492 0.10762142
-0.11336675 0.017606242 0.009009694 -0.038356744 -0.05657395 0.10209884 -0.09536544 -0.11529668
0.04819024 -0.0097717205 0.083028145 0.114779346 -0.12214525 0.02093462 0.019170076 0.099993266
0.00076692173 -0.025119223 -0.11320933 -0.10991753 0.0792519 0.07822409 -0.06391712 -0.08721054
-0.011798493 0.052182376 -0.12471068 0.021409424 0.06677541 0.03425761 0.040655583 -0.11291547
0.050469466 0.047510095 0.04131594 -0.07619927 0.10295772 0.033814453 0.10424786 -0.10252495
-0.105330005 -0.049567644 -0.0018728003 0.099584356 -0.01468834 0.029254496 0.10852712 -0.0751011
00000000: 5690 19bd 3d7c e1bd 3125 ac3c fdf7 8cbd
00000010: d53b 44bd e618 c63d 3117 8ebd 52ff cf3d
00000020: 8034 5dbd b106 7fbd c7ae 893b 6032 34bd
00000030: ab87 de3d 8ef7 a33d a6ff 1bbd 55a1 9cbd
00000040: 9718 aabd 2b6a 1f3d 3940 fe3d 2814 89bd
00000050: dde9 00bd 8338 c9bd d286 c93d d955 2b3d
00000060: f493 edbd 352a 663d 1070 043d 6943 33bd
00000070: 7f65 83bd d0bc 8c3d 00c1 8b3d e0f2 9f3d
00000080: 8245 bb3c 238c 813d 86eb 033e 9276 f23d
00000090: 1ecf 8d3c b8a4 b33d 1ff7 f23b d053 98bd
000000a0: e3bc 44bd 5e46 083d af06 0cbd 7f7f ee3d
000000b0: 4272 31bd acd6 73bd f409 b23d 9f1e fc3d
000000c0: 36fb 1fbd ea56 dd3d a318 8abd b8bd 9dbd
000000d0: 2f48 edbd 234f ae3d e3cf 2a3d 023b e33d
000000e0: ed7d 02be 5b67 42bd 81fa 8f3d 458c db3d
000000f0: dbc4 9dbb 53e5 98bd 0fe7 3d3d 0052 8a3d
00000100: 9009 dfbd 3381 523d 3f5f b0bc f000 d73d
00000110: 3c72 87bc 2368 773c 0896 483d feb7 a6bd
00000120: b017 84bb c5e1 63bd 78a1 f6bd 53d5 d8bd
00000130: 95af 853d 96c5 e23d e259 54bd 4895 153c
00000140: 89ca 35bd ef31 a13d 0aa8 583d 8f63 c2bd
00000150: 3718 85bc 2c28 a8bd 5bc5 a83c d625 84bc
00000160: c7a4 973c 44b9 c73d 70aa d53d e46b b23d
00000170: 8205 22bd 749c 373d 3273 bcbd da87 fabc
00000180: 1fe6 883d bc6a b43d 6451 cb3d 4c20 16bd
00000190: 723a f03d 56c5 f1bd 0bf4 9dbb bff2 893d
000001a0: b887 62bd 95f1 d33d 344a c83d 9ef8 953d
000001b0: 557e b03c 8041 dcbd d016 d1bd 78e0 ed3d
000001c0: 29d1 12bd d7a9 a63d 8146 af3d f032 5f3c
000001d0: a6af 99bd 173b 343d 2de6 5cbd b370 cd3d
000001e0: a858 b0bd a85a f83c d861 763d d601 e43d
000001f0: e8d4 fdbd 100f b73c 1b20 283d 84d7 f73d
00000200: cdc8 183d f69a 363a b6fd a13d 7798 25bd
00000210: 260c a03d 58d6 903d abaf b73d 2e66 f0bd
00000220: 6ac1 e73d 5f9f c03d b356 c3bb 889d b7bd
00000230: 1045 1f3c b79c f93c 7c73 373c 7e42 ddbd
00000240: 4716 153d 1241 c73c ff7d dcbc 324b e1bc
00000250: acee f0bd d9f0 f8bc 2bef d93d a59f ed3d
00000260: b76d cdbd e8c2 adbd efcb 073c e829 813d
00000270: 1be3 82bd 0720 aa3d a9bf ad3d 6fd8 233c
00000280: 5607 a93d a553 cb3d dd42 8cbd ae81 843d
00000290: 3d4e cd3d fc37 46bd a532 f43d 04c7 95bd
000002a0: e200 85bc 89e3 ec3c 801f c1bd 863c 77bd
000002b0: 741b acbd 3ec4 bb3d a31d b33d cfd5 b2bd
000002c0: 233e bebc d616 abbd 76ef a7bd 3997 aa3c
000002d0: 37ce acbd 383a 46bd 1b9f f4bd 0dc8 5dbd
000002e0: 8873 8a3d 7adf 82bd 184a 473c 7501 8cbd
000002f0: 66df 143c 2034 bcbd c450 09bd 55c7 d43d
00000300: 36fe bcbb 7016 f5ba 7fce 243c bf20 383d
00000310: 8b52 933d 8a59 a8bd 4ac9 013e 8d1f 423d
00000320: c2c0 9bbc 2ae9 313d 1afd 253d 4540 db3d
00000330: b391 44bd b580 f13d a368 05bd 9e68 dc3d
00000340: d42c e8bd f73a 903c 659d 133c f61b 1dbd
00000350: 16ba 67bd 3219 d13d f54e c3bd aa20 ecbd
00000360: 2163 453d 9119 20bc a90a aa3d 6f11 eb3d
00000370: 4a27 fabd 157f ab3c 900a 9d3c 45c9 cc3d
00000380: 3f0b 493a d4c6 cdbc 4bda e7bd 711c e1bd
00000390: d24e a23d f433 a03d fbe6 82bd 719b b2bd
000003a0: 774e 41bc 30bd 553d 5068 ffbd d162 af3c
000003b0: 8cc1 883d b551 0c3d 7886 263d 3a40 e7bd
000003c0: 12b9 4e3d f299 423d e73a 293d 5d0e 9cbd
000003d0: 7fdb d23d 0681 0a3d e77f d53d 9af8 d1bd
000003e0: 42b7 d7bd 7107 4bbd c078 f5ba e2f2 cb3d
000003f0: 5da7 70bc 20a7 ef3c 7743 de3d 9bce 99bd

fcs.1.bias f4 [5]
-0.041330624 -0.026407277 -0.04648287 -0.08837458 -0.070314586
00000000: 4d4a 29bd 1354 d8bc d264 3ebd bbfd b4bd
00000010: 1801 90bd
