cache/ckpts/woselfloop-genius_NormalNN-genius_trialNo96.pt (torch, 9627 bytes, 5 tensors)

alpha_params f4 [64, 13]
000000 c3 83 df 3e b9 23 24 3e 70 d6 a4 bf 90 e5 d6 3d
       0.43655214 0.16029252 -1.2877941 0.10493004
000010 fa 51 8e 3e f2 9b a7 bd 73 a8 6b bf ec bb 5f be
       0.27796918 -0.08184041 -0.9205391 -0.2184903
000020 2a c6 9e be d2 37 eb be 36 c6 22 bf 1e f0 fb be
       -0.31010562 -0.45941025 -0.63583696 -0.49206632
000030 83 36 e9 3c fa 53 36 3e 82 b3 fb 3d 58 01 90 3f
       0.028468376 0.17805472 0.12290098 1.125041
000040 3a 5d 76 be 05 63 8b 3f fb e8 89 be 83 c6 2d 3f
       -0.24059 1.0889593 -0.26935562 0.6788103
000050 4c 50 e8 bc 26 a2 9e 3e fb bd e5 3d 4a ed 34 3e
       -0.028358601 0.30983084 0.112178765 0.17668644
000060 31 ed 89 3d 38 ca 28 3e 8c 33 0f 3e fd 85 16 3f
       0.06734694 0.1648339 0.13984507 0.587982
000070 3d cf ee 3e 71 39 1a 3f ae 5c a8 3e 41 3b c3 3e
       0.46642485 0.602439 0.3288321 0.38131145
000080 52 a4 71 3e a0 f2 44 3e 4c d8 9f 3e 03 3e ca 3d
       0.2359784 0.19233179 0.3121971 0.09875109
000090 ea 0e e2 3e 83 c6 38 bd 05 5b b5 3e c0 30 84 bb
       0.44152004 -0.04511119 0.35421005 -0.0040341318
0000a0 29 f7 67 bd c2 c1 f9 bd a7 35 06 be 32 12 b4 be
       -0.056632195 -0.121951595 -0.13106404 -0.35170132
0000b0 44 40 2c be 68 1a e8 be 21 3d 86 be 0f 5f 1b bf
       -0.1682139 -0.45332646 -0.26218513 -0.6069192
0000c0 38 fd 09 be cb 83 03 bf c7 01 bc bc 57 af 92 be
       -0.13475502 -0.51372975 -0.022950066 -0.286494
0000d0 f1 d5 70 3e 0c 9b 76 3e c7 e6 89 3f 2f c7 5a be
       0.23519112 0.24082583 1.0773553 -0.21365045
0000e0 85 85 99 3f 6a 17 f0 be ee 8a 53 3f ea 33 9a bd
       1.1993872 -0.46892864 0.82633865 -0.07529433
0000f0 6a 8c d4 3e ff a6 42 3e 56 5d 7a 3e 7b 7e 42 3d
       0.41513377 0.19009016 0.24449667 0.047483902
000100 69 72 48 3e 36 56 83 3e 2b 53 49 3e f9 48 9c 3f
       0.19574894 0.2565171 0.19660632 1.220977
000110 e8 17 bb be c5 81 a4 3f 32 b7 f7 be 7b 5e 3e 3f
       -0.36541677 1.2852103 -0.48381954 0.74362916
000120 39 87 12 be 49 21 ed 3e 05 64 4e 3d 23 dd b1 3e
       -0.14309396 0.46314457 0.050388355 0.34739026
000130 55 0c 0a bc 81 8e 67 3e 97 f7 e7 bd 64 82 16 bf
       -0.008425792 0.22612955 -0.11326521 -0.5879271
000140 42 17 cc be 6d 73 3e bf 02 78 1f be 78 52 23 bf
       -0.39861494 -0.74394876 -0.15573123 -0.6379771
000150 b4 e4 82 3b f1 81 d3 be 87 b3 41 be 68 4e 02 be
       0.0039945487 -0.41310075 -0.1891614 -0.12725222
000160 11 89 dd be 12 8f 7f 3d 16 b1 bb be d0 ea 07 3e
       -0.43268636 0.0623923 -0.36658543 0.13273168
000170 ae 5b fe 3e 37 a0 00 3f 70 6f f2 3e 0b 65 c7 3e
       0.4967932 0.5024447 0.47350645 0.38944277
000180 cc 7f 94 3e 03 e0 85 3e 16 96 0f 3e 77 e3 aa 3e
       0.2900375 0.2614747 0.14022097 0.33376667
000190 09 cf b2 3d 8e c6 b7 3e c5 d8 63 3c bb 11 85 3e
       0.08730895 0.35893673 0.013906662 0.2599009
0001a0 5a 7f ec bb ca 51 24 bd e5 8e c4 bd 01 d7 c5 bd
       -0.00721733 -0.040117063 -0.095975675 -0.09660149
0001b0 c0 f2 61 be 54 b3 82 be 38 ad 10 bf 57 d0 e0 be
       -0.22065258 -0.25527442 -0.5651431 -0.4390895
0001c0 dc 77 07 bf 6d 2e 26 be 50 d6 fe be 49 db 96 3d
       -0.52917266 -0.16228648 -0.49772882 0.07366044
0001d0 0c 2b e9 be 8c ac cf 3e cb da 1f 3e 21 fb a5 bf
       -0.45540655 0.4056133 0.15610807 -1.2967263
0001e0 de 4a f7 3d 24 a1 5f 3e 17 09 aa bd 0f 3a 6a bf
       0.12074827 0.21838814 -0.08302515 -0.9149484
0001f0 0f 01 5a be 7e e2 a9 be 09 21 e7 be 4d 88 1c bf
       -0.21289466 -0.33180612 -0.4514239 -0.6114548
000200 b3 75 04 bf 13 95 25 3d cc 8a ce 3d 84 19 ad 3d
       -0.51742095 0.04042537 0.10085067 0.08452132
000210 c5 40 67 3f 04 79 5e bd c3 42 ac 3f a2 f3 d6 be
       0.90333205 -0.05431463 1.3457874 -0.41982752
000220 fc 47 74 3f e7 d9 1e be 85 76 79 3e 9b 42 a6 3e
       0.9542234 -0.1551281 0.24361618 0.3247269
000230 d8 15 00 be b4 91 c2 3e f3 49 a6 bd 64 61 92 3e
       -0.12508333 0.38001788 -0.081195734 0.28589928
000240 6a 42 16 3e b3 5d a4 3f 11 cd 94 be 99 94 a1 3f
       0.14673772 1.2841095 -0.29062703 1.2623473
000250 c1 b4 d1 be c2 45 42 3f 5a aa c7 bd 11 47 d5 3e
       -0.40958217 0.7588769 -0.09749289 0.41655782
000260 1c 67 a4 3d 6d b4 8a 3e e1 dc 03 3d 80 aa 64 3e
       0.08027479 0.2709078 0.03219307 0.22330666
000270 f2 6c e4 bd c9 ae 02 bf 5c 03 de be 96 8e 22 bf
       -0.11153592 -0.5104795 -0.43361938 -0.6349882
000280 c0 a0 c1 be 16 e7 c4 be 80 dc 85 be df aa e5 bd
       -0.37817955 -0.38457555 -0.2614479 -0.11214232
000290 68 56 05 bf ff ba 61 3e 0c 68 2d bf 4a b2 62 3e
       -0.5208497 0.2204399 -0.6773689 0.22138324
0002a0 08 8a e1 be 11 7c 40 3e ad 1e bb 3d 63 1c 8f 3f
       -0.44050622 0.18797328 0.0913671 1.1180538
0002b0 9b 04 80 be 4b 2c 82 3f 3a 16 93 be 2f 41 23 3f
       -0.25003514 1.0169767 -0.28727895 0.6377134
0002c0 9d a7 09 bd 73 2e ad 3e be 0f e5 3d 1d 84 8b 3e
       -0.033607114 0.338245 0.11184643 0.27249232
0002d0 bf 07 1c bb 22 74 81 3e e2 e7 d3 bd 2a fa 0c bf
       -0.0023808328 0.25283915 -0.103469625 -0.5506922
0002e0 93 10 f1 be 3d c0 1f bf 12 22 ad be 55 99 e9 be
       -0.47082958 -0.6240271 -0.33815056 -0.45624796
0002f0 20 6c 44 be 20 f4 6c be 6f 84 84 be 36 a5 2e be
       -0.19181871 -0.23140001 -0.2588229 -0.1705521
000300 1c 41 ce be 37 e8 63 3c ff 5b a5 be b5 9a 82 3e
       -0.4028405 0.013910345 -0.3229675 0.25508657
000310 3f 65 17 3e ff 4b aa 3f 19 21 aa be 81 ca a7 3f
       0.14784716 1.3304442 -0.33228377 1.3108674
000320 7b 01 d4 be 9d 85 43 3f df b2 89 bd 29 af d2 3e
       -0.4140738 0.7637575 -0.0672357 0.41149262
000330 42 b0 a8 3d 94 3d 98 3e 46 51 b6 3c 59 9b 7c 3e
       0.082367435 0.2973448 0.022255551 0.24668635
000340 3c d4 50 3f 02 30 6c 3e 1a 24 b2 bf b1 e1 05 bd
       0.81573844 0.23065189 -1.3917267 -0.03268594
000350 bb 71 9f be cd 0f 13 be 36 62 4f bf bb 31 a9 be
       -0.31141457 -0.14361496 -0.81009233 -0.33045754
000360 bf 1b ac be 1f aa f7 be fa 68 98 be 1a d7 d9 be
       -0.3361492 -0.4837198 -0.2976759 -0.42546922
000370 71 6e ae bd 34 df 76 3e a4 80 4c 3e bd 5c 93 3f
       -0.08517159 0.24108583 0.19970948 1.1512676
000380 a4 50 70 be 5f ea 9c 3f fa e4 06 bf 84 90 51 3f
       -0.23468262 1.2259024 -0.5269314 0.8186114
000390 ff e7 c6 bd f7 fb cd 3e d0 f1 02 3e e4 ce 84 3e
       -0.097122185 0.40231296 0.12787557 0.25939095
0003a0 9a 4d 91 3d fd e7 3c 3e bd bb 89 3e 32 16 6b 3e
       0.070948794 0.18447872 0.26901045 0.22957686
0003b0 9f fa 9b 3f 4d 5c 98 be 41 0b a8 3f 99 05 05 bf
       1.2185858 -0.2975792 1.3128434 -0.51961666
0003c0 4d bc 49 3f de 33 a5 bd a7 5d de 3e 02 30 15 3e
       0.7880295 -0.080665335 0.43430826 0.14569095
0003d0 f8 0a ab 3e 6e fd 78 bc a7 ad a1 3e 08 6b 6b 3e
       0.33406806 -0.015197141 0.315778 0.22990048
0003e0 ab 3b c0 3c 41 f0 8c 3f 49 84 dc bd bd 53 9b 3f
       0.023465952 1.101082 -0.10767419 1.213493
0003f0 1d 3d 7a be 13 35 32 3f 79 75 81 3d 0b f7 5f 3e
       -0.24437375 0.69612235 0.06321234 0.21871583

fcs.0.weight f4 [64, 12]
000000 94 48 1e bd ad 67 bf be c8 e5 ef 3d 83 eb d8 ba
       -0.038643435 -0.37383786 0.11713749 -0.001654968
000010 8c 73 27 bd 32 da b1 3c 1d ee 22 bf 44 62 ec 3b
       -0.04088168 0.021710489 -0.6364458 0.0072138626
000020 6e d1 13 3e 87 f2 e6 3e 1e c5 c6 3e 1e 31 e2 b9
       0.1443536 0.4510691 0.38822263 -0.00043142674
000030 1c 86 e5 bc 46 a5 0f 3f 8a aa 39 3f ea e3 ac be
       -0.02801805 0.5611156 0.72525847 -0.33767635
000040 77 32 ae 3d 93 a1 fd bd 76 06 72 bd 2f 99 25 3f
       0.08505719 -0.123843335 -0.059088193 0.64686865
000050 b5 69 25 bd aa 1f db bc c1 ec fb 3b 23 25 24 bc
       -0.040384013 -0.026748497 0.0076881354 -0.01001862
000060 2e 6e a7 3c d7 c7 90 bd 82 61 39 bb 0c 14 0a bf
       0.02043828 -0.070693664 -0.002828688 -0.5393684
000070 a0 14 70 be 02 19 15 bf ed 7e 13 3f 42 5d b2 be
       -0.23445368 -0.58241284 0.5761555 -0.34836775
000080 82 cb 83 3c cc e5 c6 3c 2d 10 9e 3b 2e de 11 3c
       0.016088251 0.024279498 0.0048237056 0.008903069
000090 2a 11 74 be a3 fc c2 bc fd b2 20 bc 6a 14 a8 3e
       -0.23834673 -0.023802107 -0.009808299 0.32828075
0000a0 63 e3 2a 3e 42 97 c4 bd 1a 53 64 3c 02 4a b4 bd
       0.16688304 -0.09599163 0.013935829 -0.08803178
0000b0 a3 24 1e 3d bb c0 67 3d 7f 71 c8 3c d0 a5 8d b9
       0.03860916 0.056580286 0.024468182 -0.00027017156
0000c0 6c 30 35 bd 21 5b ec 3e e9 4a 5c 3f 84 ee ad be
       -0.04423563 0.46163276 0.86051804 -0.33971035
0000d0 fe 30 e5 3e f1 b4 90 bb 42 1d 28 be 98 08 0c 3f
       0.4476394 -0.004416101 -0.16417411 0.54700613
0000e0 91 fd 8f bd 2d 17 a8 bd 28 16 d4 3b bf 4f f2 bc
       -0.07030786 -0.082075454 0.006472368 -0.029579042
0000f0 86 6e 7f bc 67 a1 cd 3e 2f 64 53 3f 95 1d 2a 3e
       -0.015590316 0.40162203 0.82574743 0.16612847
000100 c5 ac e6 3e 65 0d 23 3f de 16 18 be e6 25 49 3f
       0.45053688 0.63692313 -0.14852473 0.78573453
000110 fa 3e 8b bd 87 5e 3b bd c7 60 a5 3c d0 8d ee bc
       -0.06799121 -0.045744445 0.020187749 -0.029120356
000120 f1 3d 2c 3d 8d 97 07 bf 06 ba e8 3d c6 2f fa be
       0.04205126 -0.52965623 0.11363606 -0.48864573
000130 0e 58 ca 3c 3c 00 54 be b3 91 42 3e cd 31 93 be
       0.02470019 -0.20703214 0.19000892 -0.28748932
000140 fb 9f f6 3a 56 db 9e 3c eb e1 60 3c eb 7b bd 3b
       0.0018815988 0.019391697 0.013725738 0.0057825944
000150 2b a9 05 3d 0f 43 c8 3d 18 4a 72 3e 81 c4 04 bf
       0.032632034 0.097784154 0.23661077 -0.5186234
000160 34 06 57 be b8 ba c2 be 33 f5 c8 3d f9 d4 3b bd
       -0.2099846 -0.3803308 0.09812393 -0.045857403
000170 31 1e f9 39 5b dc e3 3b f4 30 13 3b 37 19 22 bb
       0.00047515475 0.0069537587 0.0022459598 -0.0024734267
000180 9c 5a a7 bd 55 03 18 bf 42 70 49 be 0d 74 5c 3e
       -0.08171579 -0.59380084 -0.19671729 0.21528645
000190 15 95 d1 bc e3 2f 0c bc 4e c0 4d bd df 76 98 3c
       -0.025583783 -0.008556339 -0.050232224 0.01861137
0001a0 33 20 bc 3e 22 04 06 3f a5 88 f1 3e 72 fe 5f b9
       0.36743316 0.52350056 0.47174564 -0.00021361726
0001b0 86 f5 a0 bc 85 23 c0 be a6 6b 9e 3d e8 e3 d3 bb
       -0.019648325 -0.375271 0.07735376 -0.0064663775
0001c0 38 8d 49 3c b2 e0 25 3b 72 d4 33 be a2 a2 b1 bc
       0.012301736 0.002531093 -0.1756151 -0.021683995
0001d0 ac 5d 2e 3e 1f 80 f5 3e 18 03 e6 3e 47 d8 45 b9
       0.1702792 0.4794931 0.44924235 -0.00018867954
0001e0 7d 44 3e bc 3e 6c 5d be 52 08 73 3f ec a9 14 be
       -0.011613009 -0.21623322 0.9493457 -0.14517945
0001f0 79 0a 37 3e cb 29 7c 3f 5d 49 de bd 7a 1c f6 3e
       0.17875089 0.9850127 -0.10853837 0.480686
000200 60 70 79 be 2a 11 82 bd 76 a6 86 bd f4 48 fd bb
       -0.24359274 -0.0635093 -0.06574719 -0.007729644
000210 3d 9d 1f bc 2a 65 23 3f 9f 38 40 3f 02 81 a4 3e
       -0.009742078 0.6382624 0.75086397 0.32129675
000220 9c 6f 24 3f db 46 f6 3e 74 5a 0f be 38 07 62 3f
       0.642328 0.48100933 -0.13999349 0.88292265
000230 ce ce ab 3c 8c 2c 49 bd 63 c9 bd 3c 21 8d bb bc
       0.020972636 -0.04911475 0.023167318 -0.022894444
000240 1c fa a0 3c b1 a6 2e be 8f 8c ff be ea 9c 27 bf
       0.019650511 -0.17055775 -0.49911925 -0.65473807
000250 d5 0b 42 be 5a 5f ce be df 6d 99 3e 9b d2 07 bf
       -0.18949826 -0.40307122 0.29966637 -0.53055733
000260 6b 45 a2 3b b9 5e 82 3d 4e ab 5e 3c ba 2b 42 3c
       0.004952123 0.06365723 0.013590647 0.011851246
000270 56 99 68 bc 07 b9 1c 3f 27 67 0a 3f d1 55 86 bd
       -0.014196714 0.6121983 0.5406365 -0.06559337
000280 47 ae 07 3f 15 a6 be 3e 9d 55 94 bd 2c b1 1e 3f
       0.530003 0.37236086 -0.07242892 0.6198909
000290 16 7d 28 bd 70 9c 7e bd 5b 95 1c 3c 59 72 30 bc
       -0.041134916 -0.06216091 0.0095570935 -0.01076945
0002a0 fc 10 0d 3d ff a2 f4 be ac c7 5b be 42 33 13 bf
       0.034440026 -0.47780606 -0.21462888 -0.5750009
0002b0 b5 d8 d6 be de f3 25 bf 95 e8 e2 3e 12 23 21 bf
       -0.4196221 -0.64825237 0.4431807 -0.6294414
0002c0 7f 60 b9 bb 67 ab 0a 3d c7 b1 0f 3b eb 98 bd 3b
       -0.005657255 0.03385487 0.0021926032 0.0057860515
0002d0 ad e8 67 bc 56 0a f3 3e fb 36 29 3f 4c 3e d6 bd
       -0.014154595 0.47468823 0.6609952 -0.10461101
0002e0 8f 1d 49 3f 1c c0 42 3e 26 45 9f bd 6a 33 25 3f
       0.7856073 0.19018596 -0.07776861 0.64531577
0002f0 9d f8 d9 bc 69 09 30 bd 7e 88 bf 3c 79 b5 e2 bc
       -0.026607806 -0.042977724 0.023380514 -0.027674424
000300 2d 0d 65 bd dd 0c 0b bf 48 e0 34 bf 85 6b 98 bd
       -0.05592077 -0.543165 -0.70654726 -0.07442383
000310 61 2b d7 be fc 88 1c bb a6 46 27 bf 83 dd f3 bd
       -0.42025283 -0.002388536 -0.65342176 -0.119074844
000320 6a 45 e4 bd 3b 45 95 3e b9 14 a7 3e ba a6 83 ba
       -0.11146052 0.2915438 0.32632998 -0.0010044195
000330 78 ce 59 bc 37 62 2b 3f 40 b2 0e 3f 5a 62 08 be
       -0.013293855 0.6694674 0.5574074 -0.13318768
000340 63 bc 11 3f 55 24 9a 3e cf 7c ae bd 43 22 12 3f
       0.5692808 0.30105844 -0.08519899 0.5708353
000350 3e 51 8d 3b 1b 2a 84 bd 9e e2 9c 3c 3d 4c ac bc
       0.0043126633 -0.064533435 0.019151028 -0.021032447
000360 a5 7e 68 bc e8 50 1b 3f a3 db 5b 3f c0 91 a6 3c
       -0.014190351 0.6067033 0.85882014 0.02033317
000370 42 11 25 3f 71 7b c8 3e d9 70 b2 bd e4 0e 69 3f
       0.6447946 0.39156678 -0.0871293 0.91038346
000380 db 30 87 bd 1c 48 86 bd 47 3f 3c 3c 04 25 d7 bc
       -0.06601115 -0.065567225 0.011489696 -0.026262768
000390 6c 27 8e bc e4 98 c3 3e ba b9 46 3f 45 15 1b 3e
       -0.017352782 0.38202584 0.77627146 0.15144832
0003a0 3a ba 22 3f 31 ef ff 3e ee 3d 2b be de 2d 7a 3f
       0.6356541 0.49987176 -0.16722843 0.9772624
0003b0 a4 81 98 bd 4c 05 b3 bd ac f6 92 3c c7 69 3e bd
       -0.07446602 -0.08741245 0.017939888 -0.046487596
0003c0 c9 35 09 bc 17 55 b3 3e 08 9b 49 3f d9 41 23 3e
       -0.00837464 0.35025856 0.78752184 0.15943088
0003d0 a0 36 ef 3e 70 39 9e 3e e5 76 85 be ef 09 2d 3f
       0.46721363 0.30903196 -0.26067272 0.6759328
0003e0 40 ba bc bc c6 9b 39 bd c3 93 1c 3d 56 d8 cd bc
       -0.02303803 -0.045314573 0.038226854 -0.025127571
0003f0 b7 68 13 bc 3e ac 02 3f 67 11 45 3f d7 74 a3 3e
       -0.008997134 0.5104407 0.7697968 0.3192508

fcs.0.bias f4 [64]
000000 06 01 1c 3f ed 6b b4 3e 3d 0b 52 3f 58 b8 4b 3c
       0.6093906 0.3523859 0.820484 0.012434088
000010 2e 76 aa 3e 5b 21 3f 3e 9b c7 3d bd 43 ff 25 3f
       0.3329329 0.18665068 -0.046332937 0.64842623
000020 53 a8 eb bc dd 15 18 3f db 92 9a 3e 30 42 d4 3e
       -0.028766787 0.5940836 0.30190167 0.41456747
000030 1b 5d 00 3f b9 bc 8c 3e be db 3c 3f 53 c6 75 3e
       0.5014207 0.27487734 0.737728 0.24001436
000040 90 b1 27 3f 8f 33 0d 3f fb f9 d3 3e f4 55 65 3e
       0.65505314 0.551568 0.41401657 0.2239607
000050 fe cb 7f 3e c7 9b d1 3e fa 84 40 3f d2 19 77 3e
       0.2498016 0.4093916 0.75202906 0.24130943
000060 3c 2a 21 3c 62 28 72 3d 05 88 0f 3f ca 87 0a 3f
       0.00983673 0.059120543 0.56066924 0.5411345
000070 f5 a4 9a 3e ae 18 1c 3f ff a4 f1 3e ed 2d bf 3e
       0.30203977 0.6097516 0.47196195 0.37339726
000080 21 4d e6 3e 81 a7 cd 3e 2d d7 81 3e f2 76 92 3e
       0.4498072 0.40166858 0.2535948 0.28606373
000090 4e 51 75 3c af c3 88 3e a6 a9 43 3d c1 2f ae 3e
       0.014972998 0.26711795 0.04776921 0.34020808
0000a0 b9 61 31 3f 82 99 11 3f c4 8e 4b 3e 43 75 5c 3f
       0.6928974 0.5687486 0.1987868 0.8611643
0000b0 04 00 46 3e 9a 2b 1c 3d 0d 0c f6 3d 7c a6 fc 3b
       0.19335943 0.03812752 0.12014017 0.007710276
0000c0 a9 c8 89 3e 75 c0 be 3c 8f 88 a0 3c 1f c3 00 3f
       0.26910904 0.02328513 0.019596366 0.5029773
0000d0 50 36 41 3d 78 99 ed 3e 89 c1 74 3c 52 85 4c 3d
       0.047170937 0.4640615 0.0149387205 0.04993183
0000e0 4f 16 81 3e a2 c0 00 3f cb 19 2b 3f 92 28 2b 3f
       0.25212333 0.50293934 0.6683623 0.6685878
0000f0 45 58 fc 3e bf 83 08 3d 7e 7a 8a 3c ff e4 d0 3e
       0.49286094 0.033328768 0.016904112 0.4079971

fcs.1.weight f4 [2, 64]
000000 fa fb 90 bf 64 ab 76 3f 87 76 89 3f 92 a1 7b bf
       -1.1326897 0.9635527 1.0739297 -0.9829341
000010 ef 5f 96 3f 0a f8 7f 3f 80 6b 89 bf 19 70 77 3f
       1.1748027 0.9998785 -1.0735931 0.9665542
000020 48 07 86 bf a0 48 8b bf 7d 7a 84 3f f2 75 8e 3f
       -1.0470972 -1.0881538 1.034988 1.1129744
000030 09 86 89 bf 0a 27 89 3f f1 ca 8e bf 9d fd 95 3f
       -1.0744029 1.0715039 -1.1155683 1.1718022
000040 9e d6 95 bf 3c db 87 3f 75 b1 98 3f 5b 3a 7d 3f
       -1.1706121 1.061378 1.1929156 0.9891717
000050 9e c3 97 3f 72 fa 82 3f ba 3e 91 bf 25 c9 8f 3f
       1.1856573 1.023268 -1.1347268 1.123326
000060 3c fc 8b bf 4a f4 7a 3f 37 e0 77 3f 5e 78 81 3f
       -1.0936351 0.98029006 0.968265 1.0114858
000070 3a 1a 9a 3f 66 0c 86 3f 13 2f 8d 3f 04 bd 96 3f
       1.2039254 1.0472534 1.1029991 1.1776433
000080 15 5a 88 bf b5 24 96 3f 32 2e 8b bf b5 e2 91 3f
       -1.0652491 1.1729952 -1.0873473 1.139731
000090 3d 24 83 3f 1e ff 8b bf c6 7b 8b bf da 89 8a 3f
       1.0245434 -1.093723 -1.0897148 1.0823319
0000a0 ad 9a 8c 3f c2 ae 94 bf 97 e1 8e 3f 8d 85 8f bf
       1.0984703 -1.1615832 1.1162595 -1.1212631
0000b0 a5 d3 96 3f d3 35 82 3f fc 3b 85 bf b5 84 7d 3f
       1.1783339 1.0172676 -1.0408931 0.9903062
0000c0 e3 55 99 3f d5 1f 87 3f 64 72 91 bf 1a 90 80 3f
       1.1979336 1.0556589 -1.1363034 1.0043976
0000d0 ba b7 84 bf 1e 64 7a 3f 03 72 90 bf 73 d5 83 bf
       -1.0368569 0.97809017 -1.1284794 -1.0299515
0000e0 dc b3 90 3f 8a dc 70 bf 16 2c 94 3f da 67 8d bf
       1.1304889 -0.94086516 1.1575954 -1.1047318
0000f0 c2 26 8a 3f 41 f5 8d bf 53 3f 82 bf 08 d9 8e 3f
       1.0793078 -1.109047 -1.0175575 1.1159983
000100 ae 67 8e 3f 62 b3 93 bf 99 f7 81 bf 06 ea 82 3f
       1.112539 -1.1539118 -1.0153686 1.0227668
000110 d2 da 86 bf 7b 0d 95 bf a1 e5 8a 3f 69 71 82 bf
       -1.0535529 -1.1644739 1.0851327 -1.019086
000120 a3 f7 87 3f 5c 68 93 3f 61 84 92 bf 32 a9 94 bf
       1.0622448 1.1516223 -1.1446649 -1.1614134
000130 98 b8 87 3f 10 a5 7f bf 0d 06 82 3f a4 5b 93 bf
       1.0603209 -0.9986124 1.0158097 -1.1512341
000140 98 be 8f 3f a5 45 95 bf cb a9 8a bf e6 14 99 bf
       1.123004 -1.1661879 -1.0833067 -1.1959503
000150 1e 51 86 bf 11 9f 9f bf 34 cc 83 3f 23 d3 95 bf
       -1.0493505 -1.2470418 1.0296693 -1.1705059
000160 bd 5f 83 3f 4d ad 81 bf 98 d4 83 bf 01 f5 88 bf
       1.0263592 -1.0131012 -1.0299253 -1.0699769
000170 3b b1 86 bf ee 7b 99 bf 9d 52 94 bf 2a 37 8f bf
       -1.0522836 -1.1990945 -1.1587712 -1.118871
000180 52 98 84 3f 66 2c 99 bf 3e 2e 76 3f 24 4d a0 bf
       1.0358984 -1.1966674 0.9616431 -1.2523541
000190 5f 33 85 bf c5 f5 80 3f 97 d0 81 3f 14 55 94 bf
       -1.0406302 1.0075003 1.0141782 -1.1588464
0001a0 8a 0b 77 bf f0 d0 85 3f 0b 30 8f bf c3 c5 88 3f
       -0.9650198 1.0454388 -1.1186537 1.0685352
0001b0 f6 6f 8c bf 7f 5d 89 bf 84 88 8e 3f 17 fa 87 bf
       -1.0971668 -1.0731658 1.1135411 -1.0623196
0001c0 4a 08 8a bf 95 ba 77 bf 3f 22 8c 3f 3e 12 79 bf
       -1.078378 -0.96769077 1.0947951 -0.9729346
0001d0 c9 e3 7b 3f 2c 5b 81 bf b6 6c 7b 3f 08 c1 73 3f
       0.9839445 -1.0105948 0.98212755 0.9521642
0001e0 32 00 8d bf cd 1c 8c 3f b7 11 8f bf 04 7e 83 3f
       -1.1015685 1.0946289 -1.1177281 1.0272832
0001f0 14 66 7b bf fb 15 7f 3f e7 da 84 3f 00 bb 7c bf
       -0.98202634 0.99642915 1.0379304 -0.9872284

fcs.1.bias f4 [2]
000000 ce c3 2d 3f fa 4a 48 bf
       0.678769 -0.78239405
