cache/ckpts/woselfloop-genius_NormalNN-genius_trialNo3.pt (torch, 10843 bytes, 5 tensors)

alpha_params f4 [64, 17]
000000 4a a9 6e bd 08 c9 64 be 13 92 34 be 91 99 46 be
       -0.058266915 -0.22342312 -0.17633848 -0.19394518
000010 7d dc 91 be 41 d7 ab bd 79 85 8f be f9 54 1a bd
       -0.28488532 -0.08390666 -0.2803152 -0.037678692
000020 4c d1 d1 be 70 cd 24 bd 08 5b 40 be e8 5e 89 bc
       -0.40979993 -0.040234983 -0.18784726 -0.016768888
000030 ec f8 51 3d 59 54 72 bd d1 4b a6 3e 09 8c 75 3d
       0.05126278 -0.05916247 0.32479718 0.059948
000040 cd 26 1e 3e 78 fb 9e 3a 91 f1 1a 3c a0 62 7a 3c
       0.15444489 0.0012129387 0.009457008 0.015282303
000050 a6 1b ed 3c b6 31 9f 3c fd d6 0e 3d 08 39 ee 3b
       0.028943848 0.019432884 0.034872998 0.0072699822
000060 24 bd f3 3b bb 7c fc 3b dd 73 1b ba 42 7b 5e 3b
       0.007438319 0.0077052987 -0.0005930046 0.003394798
000070 b9 1d 2b 3b 68 fa 88 3b 66 f6 21 b9 5d 74 9f bb
       0.0026110245 0.0041802414 -0.00015445947 -0.0048661665
000080 ae 89 ed ba 3f 1b 04 3b bd b9 c0 3e 99 dc be bd
       -0.0018122697 0.0020157841 0.37641707 -0.093194194
000090 e9 c7 1b 40 9b 9b a5 bf ae 66 28 40 b6 4e c7 bf
       2.4340765 -1.2938112 2.631267 -1.5570896
0000a0 79 2b a7 3f eb 44 aa 3e d9 35 81 bf 2b 28 00 40
       1.3060142 0.33255705 -1.0094558 2.0024517
0000b0 e0 37 d1 bf 22 11 ba 3f 97 81 cb bf 06 73 3d 3f
       -1.6345177 1.4536479 -1.5898923 0.74003637
0000c0 9c 41 ad bf 69 4c 58 3f e3 aa d8 bf e2 3a 88 3f
       -1.3535647 0.8449159 -1.692715 1.064297
0000d0 02 52 81 be 52 21 46 40 fc 2c db bf 4e 1d 75 40
       -0.2525788 3.0957837 -1.7123103 3.8299136
0000e0 48 4b 27 c0 3d ef 2b 40 65 ff ba bf 64 2d ab 3f
       -2.6139698 2.686477 -1.460919 1.3373227
0000f0 eb c3 f6 bd 84 0e 01 bd a5 af 99 3e 58 3e 32 bf
       -0.12049087 -0.031507984 0.3001682 -0.6962638
000100 49 c3 86 bd 86 41 95 bf f3 22 bf 3e 7e 8b cd bf
       -0.065802164 -1.1660621 0.37331352 -1.6058195
000110 73 25 bd 3e e9 8f f9 3d 18 d3 0c 40 17 8a 72 bf
       0.36942634 0.12185652 2.2003841 -0.9474196
000120 da 6a 0e 40 af 80 91 bf 21 84 85 3f 3d f2 11 3f
       2.2252717 -1.1367396 1.0430948 0.5701025
000130 19 d3 84 bf 35 e3 02 40 34 fe c4 bf 23 39 b9 3f
       -1.0376922 2.0451176 -1.5390077 1.4470562
000140 4a 66 d1 bf a6 a9 45 3f 40 af a4 bf 3c ef 24 3f
       -1.6359341 0.7721199 -1.2865982 0.6442754
000150 09 d8 c2 bf d7 b3 38 3f c6 4a 7b bd 22 49 1c 40
       -1.5222179 0.72149414 -0.061350606 2.4419637
000160 26 5b 85 bf ec 7a 4e 40 1e 92 04 c0 f7 3e 0a 40
       -1.0418441 3.2262526 -2.0714183 2.160093
000170 22 8b 8f bf bb d4 34 3f c9 a8 11 3e fb 28 18 bf
       -1.1214335 0.706371 0.14224543 -0.5943753
000180 58 de 26 3f c8 d3 6f bf cb a4 4c 3e 83 30 91 bf
       0.6518302 -0.9368253 0.19984739 -1.134293
000190 c1 7d 87 3e 08 f8 99 bf cb b9 47 3e ec 3d 84 3e
       0.2646313 -1.2028818 0.19504468 0.25828493
0001a0 5c d1 1d 40 64 db bb be 9e 28 00 40 8f a3 4a bf
       2.4659033 -0.3669082 2.002479 -0.7915582
0001b0 21 04 17 3f 3b c8 7b 3f e7 d7 15 c0 dd 40 58 40
       0.58990675 0.983524 -2.3413026 3.378959
0001c0 76 b5 28 c0 d9 f5 29 40 bd e4 25 c0 a4 ef b1 3f
       -2.6360755 2.6556304 -2.592086 1.3901258
0001d0 3f 9e 01 c0 03 ac 25 3f 23 8e 06 c0 ce 3b a5 3f
       -2.0252836 0.64715594 -2.1024253 1.2908876
0001e0 6b cc 2a 3e 03 b9 56 40 ee af 14 c0 01 0b 62 40
       0.16679542 3.3550422 -2.323238 3.5319216
0001f0 e7 13 15 c0 11 df d2 3f f7 70 d4 3f aa e0 eb bf
       -2.3293397 1.6474324 1.6596974 -1.8427937
000200 6a f9 8a 40 e2 73 0d c0 78 50 1d 40 4f 92 14 c0
       4.342946 -2.210198 2.4580364 -2.32143
000210 be 62 94 3f 51 d8 12 c0 e2 b9 82 3f 7b 16 46 c0
       1.1592634 -2.294453 1.0212977 -3.095122
000220 4b 26 2e 3c 93 1c 0e 3c 12 cd c7 3b 1f 2c 93 3c
       0.010629247 0.008673805 0.0060974443 0.017965375
000230 8c d4 78 3d 30 9f d0 3b 9a 63 88 3c 7f ea f8 3b
       0.060749575 0.006366633 0.016649056 0.0075963135
000240 b2 d1 79 3c c4 e3 1f bb 9e c5 39 bc 69 fa 23 3c
       0.015247749 -0.0024397234 -0.0113386195 0.010008433
000250 d4 93 e1 3a 55 5c 83 3c a0 c7 b1 bc 95 ff 88 3c
       0.0017210194 0.016035238 -0.021701634 0.016723434
000260 81 34 8b bc 59 99 db 40 2e ff f1 3f 53 42 93 3f
       -0.01699281 6.862469 1.8906 1.1504616
000270 18 b5 dc 3e 68 2c b6 40 34 c4 27 c0 99 e4 3d c0
       0.43106914 5.6929207 -2.6213503 -2.9670775
000280 0e f5 84 c0 54 5f 76 40 35 31 7a c0 4f 5f 67 c0
       -4.154914 3.8495684 -3.9092534 -3.6151922
000290 36 58 fa bf a4 88 65 3f 1a 33 78 bf 4f 9a 68 c0
       -1.955817 0.8966162 -0.96952975 -3.6344182
0002a0 63 43 80 be 27 6f ba be 7c d5 0a 3d 4a e7 02 3e
       -0.25051412 -0.36412928 0.033895 0.12783542
0002b0 ee 67 27 bc 6e 80 2e 3e 3d 10 cd bd 0c 04 2d 3e
       -0.01021765 0.1704118 -0.10012863 0.16896075
0002c0 bb 5c 36 bc 05 e3 91 3d f4 4c 1b 3e b2 19 d3 3c
       -0.011130507 0.07123379 0.15166074 0.025769088
0002d0 05 6b e9 3d 41 f3 1e bc 01 6e 0f 3b c9 46 11 3c
       0.113973655 -0.009701551 0.0021885636 0.008866974
0002e0 b7 d0 cb bd 8a 96 03 bd 71 57 2a bc 62 d9 f8 3e
       -0.099519186 -0.032125987 -0.010396824 0.4860335
0002f0 42 ab 9f bd 71 5d 44 40 ef 39 e9 bf 4d f3 40 40
       -0.07796337 3.0682032 -1.8220805 3.01485
000300 0e 4f d9 bf 7d bb a9 3f da 8b 67 3f b5 be dd bf
       -1.697725 1.3260342 0.9044777 -1.7323824
000310 2b f4 3b 40 24 02 0c c0 51 0e f3 3f cf ef 0a c0
       2.9367778 -2.1876307 1.8988744 -2.1708868
000320 aa a3 81 3f 3a 3a e0 bf 7b 53 8f 3f 77 f9 12 c0
       1.0128071 -1.7517769 1.1197351 -2.2964761
000330 01 c7 24 3d 0f 26 00 3e 91 f8 30 bc 82 53 38 3e
       0.040228847 0.12514518 -0.01080145 0.18000606
000340 d0 98 eb bd 6f ba 5f 3e 73 21 0e bd 00 41 bb 3d
       -0.11503756 0.21848463 -0.03469987 0.09143257
000350 9a dd 1f 3e 49 38 08 3d 43 9f de 3d 02 01 21 3b
       0.15611878 0.033256803 0.108702205 0.002456725
000360 93 22 f2 bb 77 ad 89 3c 54 29 e1 bd cf 96 f4 bc
       -0.0073893755 0.016806347 -0.10994211 -0.029857067
000370 28 57 7a bc f2 3c 49 3d fe bd 2d 3e 00 9d 44 bc
       -0.015279569 0.049130388 0.16967008 -0.012000322
000380 18 74 64 3e 46 af 16 be ae 52 71 3e f9 01 e0 bc
       0.22309911 -0.14715299 0.23566696 -0.02734469
000390 ca 90 cf 3d ef 66 55 3e 1c 63 15 3d ae ab 19 3e
       0.10135038 0.20840047 0.03647147 0.15006897
0003a0 45 ec 33 bc 84 8f 88 3a ed 17 4f 3c 77 3d 06 be
       -0.010981624 0.0010418748 0.012639982 -0.13109384
0003b0 b1 d6 1e bd 2d 74 4b bc e6 be 4d 3f 25 05 4a 3e
       -0.038778964 -0.012417835 0.8036941 0.19728525
0003c0 f5 08 40 40 99 4d 01 c0 25 40 47 40 b8 fa f7 bf
       3.0005467 -2.0203612 3.11329 -1.9373388
0003d0 ba f5 cf 3f b2 9b b4 3f 78 f4 ce bf 88 51 51 40
       1.6246865 1.4110014 -1.6168356 3.2706013
0003e0 ea 0c f1 bf 81 20 ab 3f 17 61 bd bf 65 6e 28 3f
       -1.8832066 1.3369294 -1.4795254 0.6579345
0003f0 30 e8 7a bf 0c af 91 3f 5a 2b 0f c0 ab 8f 2b 3d
       -0.9801054 1.1381545 -2.237021 0.04188506

fcs.0.weight f4 [64, 12]
000000 7c 2c 8a 3e 9b 07 82 3d 34 a8 8f 3d 1d 1d 5c be
       0.26987064 0.06349107 0.07014504 -0.21495481
000010 e0 d3 8d 37 5d 11 d6 b8 0a 3f eb bc f4 ad 98 39
       1.6907172e-05 -0.00010207549 -0.028716583 0.00029121304
000020 9a 73 10 b6 69 d8 dd b5 fa 64 36 b5 ff 80 be 33
       -2.152496e-06 -1.6528767e-06 -6.7947224e-07 8.871029e-08
000030 f2 12 1b bc c5 78 77 3b f4 3a 74 38 55 a8 df ba
       -0.009464966 0.0037761193 5.8229038e-05 -0.0017063717
000040 a4 56 c6 b8 fb a8 80 b7 70 8b 26 ba 4c ce 96 ba
       -9.457514e-05 -1.5337477e-05 -0.0006353175 -0.0011505573
000050 67 47 d5 b6 88 54 62 35 7f c6 a8 b5 bb 43 e6 b5
       -6.356207e-06 8.431457e-07 -1.2574745e-06 -1.7156048e-06
000060 d1 0b 76 be 30 1a 04 bf a0 76 00 40 2e f1 13 c0
       -0.24027945 -0.5160246 2.0072403 -2.3115954
000070 d1 c7 f6 3e 90 9b 87 3e 9d 43 73 bf 05 33 e1 3e
       0.48199323 0.26485872 -0.95025045 0.43984237
000080 47 df b6 3b 7b 06 25 bb af c3 9d bb be e6 94 ba
       0.005580816 -0.0025180865 -0.004814587 -0.001136027
000090 9c 48 8c bd aa 3d 7e bc 2c 56 20 40 2c fa 03 c0
       -0.06849787 -0.015517632 2.5052595 -2.0621443
0000a0 31 ed 18 3e e8 bc c6 bd f9 e2 e6 bf 06 3f 0c 3f
       0.14934231 -0.09704 -1.8038017 0.54783666
0000b0 6c 86 47 bc ba db 06 3b 50 b3 57 bb 3a b8 17 bc
       -0.012178045 0.0020577745 -0.0032913275 -0.009260232
0000c0 95 77 e8 bc 74 e8 24 be 2e 06 18 40 7f 7c 34 bf
       -0.028377334 -0.16104299 2.3753772 -0.70502466
0000d0 f6 db 0e 3e 1a a1 4e 3d 8e dc 38 bf 0f 91 45 3e
       0.13951096 0.050446607 -0.7221154 0.19293617
0000e0 5f 04 f7 bb d0 92 81 bb 9e 19 83 3a 71 90 8d bb
       -0.007538363 -0.003954269 0.0010002141 -0.0043201973
0000f0 5b 34 b6 bb e4 0b d1 be e9 f3 22 40 a6 75 e3 bf
       -0.0055604405 -0.40829384 2.546137 -1.7770278
000100 ba c0 2a 3e cb e0 44 3d ed 1c 87 bf 8e fc 14 3e
       0.16675082 0.04806594 -1.0555702 0.14549467
000110 73 4a a2 bb 09 97 24 3a b2 aa a2 ba 35 d6 78 3b
       -0.0049527227 0.00062786095 -0.001241049 0.0037969474
000120 93 59 a5 bd d2 ba f7 be 6c e6 73 40 a3 b4 03 be
       -0.080737256 -0.4838472 3.8109388 -0.12861876
000130 8f bd 2a 3e c8 98 55 3d bb 04 af be c3 92 21 3e
       0.16673873 0.052147657 -0.34183297 0.15778641
000140 d4 95 c6 37 90 b9 68 39 5c 2e a0 ba b4 8d 5d bb
       2.3673208e-05 0.00022194372 -0.0012220847 -0.0033806385
000150 b9 a5 76 bc 76 65 73 3f 31 42 98 bf 4e 31 ba 3e
       -0.01505416 0.9507669 -1.18952 0.36365741
000160 53 19 53 3e 2e 48 85 3e bb da de bf 8c 83 bf 3f
       0.20615129 0.2603163 -1.7410501 1.496202
000170 6a e3 bb 3c 86 06 45 bc ec b5 02 bc 94 45 ae bb
       0.022935588 -0.012025481 -0.007977944 -0.005318353
000180 0f 5b 49 be 0a c9 d2 bb 41 70 8a 3a 15 76 1e 3a
       -0.19663642 -0.006432657 0.0010562019 0.0006044817
000190 46 f7 d1 39 03 bf 0d 39 20 0e 2c bb 7a 5d 2a 39
       0.0004004782 0.00013517965 -0.0026253536 0.00016247286
0001a0 6d 40 32 37 9f ec 00 35 6c a5 a5 b5 f8 67 50 35
       1.0624627e-05 4.8028045e-07 -1.2341602e-06 7.763733e-07
0001b0 ce 31 d3 be fe f1 bc 3c 67 e5 c9 bd 23 fe 3f 3d
       -0.41248935 0.02306461 -0.09858208 0.046873223
0001c0 d5 71 d1 be 04 ee bb 3d 17 8b 29 bb fd 8c 54 40
       -0.4090716 0.09176257 -0.0025870258 3.3211052
0001d0 09 48 e2 bd cd 16 f5 3c e7 15 0b 3d 25 bc 24 3b
       -0.11048896 0.029918099 0.033956435 0.0025136557
0001e0 c5 f7 5b 3e 2a 7d c8 ba 10 a1 28 b9 3f ab 01 bb
       0.21481235 -0.0015296091 -0.00016081729 -0.0019785909
0001f0 dd bc ea b7 82 8f 0e b9 07 89 0e 3a f9 a0 e5 b8
       -2.798292e-05 -0.00013595636 0.0005437289 -0.000109495544
000200 79 50 71 b3 07 0a f6 34 b0 b2 12 b4 a6 b8 ab 34
       -5.6185375e-08 4.5828367e-07 -1.3662316e-07 3.1985581e-07
000210 33 f9 04 bd 74 04 d3 bd bb 2a 4e 40 eb b9 f4 bf
       -0.032464217 -0.10303584 3.221358 -1.9119238
000220 15 4e 28 3e 64 d3 78 3c 3a cb 02 c0 7a 23 b4 3e
       0.16436036 0.015187118 -2.043654 0.35183316
000230 a3 4b 16 3a 3b b6 36 bb 14 42 1a bb a9 48 16 bb
       0.00057333166 -0.0027879614 -0.002353792 -0.0022931492
000240 76 b6 97 3d 1b eb f1 bb 5d 2e 37 b9 0e 0c 13 bc
       0.074078485 -0.007382763 -0.00017469512 -0.008975042
000250 bd 6b 1c b9 f0 03 de b9 83 2e 26 3b 8b f8 2d ba
       -0.00014917455 -0.00042346073 0.0025357313 -0.0006636462
000260 70 aa 50 35 f9 51 c1 36 e3 97 89 b5 50 3f 2c 35
       7.773406e-07 5.761391e-06 -1.02515e-06 6.4167125e-07
000270 d2 e9 ac 3e 82 b5 b2 ba 5e 73 7a b9 0c 11 0d bb
       0.3377214 -0.0013634416 -0.00023884836 -0.0021525053
000280 10 31 9d b8 b0 06 21 b9 4c 7b 5e 3a 7f 3e 90 b9
       -7.495482e-05 -0.00015356648 0.00084870006 -0.00027512384
000290 80 45 88 35 e7 15 1e b6 39 b0 ec b4 fe 01 bf 34
       1.0153017e-06 -2.3556584e-06 -4.4086644e-07 3.5577972e-07
0002a0 90 6f ca bc 99 49 ee 3f cc c3 c5 be 51 50 07 bf
       -0.0247114 1.861621 -0.38625944 -0.5285693
0002b0 cd 7f 10 3e ce 0f 44 3e 06 b9 ef bf 04 24 7d 3f
       0.14111252 0.19146654 -1.872834 0.9888308
0002c0 22 a6 75 3a 16 e9 42 3b 9f 38 6b ba ba 5f 3c 39
       0.0009370764 0.002974098 -0.0008972976 0.00017964738
0002d0 50 f0 36 3e b2 7c 2e bb 4f 68 d7 b8 bc bf 49 bb
       0.1786511 -0.0026624617 -0.00010271428 -0.0030784449
0002e0 f1 b0 b6 b8 76 6e 62 b9 8d ea 7b 3a 36 ef b2 b9
       -8.711394e-05 -0.0002159419 0.0009609841 -0.00034129032
0002f0 b8 90 c2 34 b6 bd f6 34 7d 5b 02 b4 85 fe 88 35
       3.6240613e-07 4.5959104e-07 -1.2140477e-07 1.0206865e-06
000300 03 e7 3c 3d 8b f8 b3 ba 10 c8 84 39 42 00 ba 3b
       0.046118747 -0.0013730688 0.0002532606 0.0056763003
000310 47 f4 8b b7 28 b1 aa b8 ff 21 03 bc 8c f1 f7 b8
       -1.6683842e-05 -8.1392296e-05 -0.008003711 -0.000118228694
000320 8b 48 ca b5 60 28 b3 34 ef 24 43 b5 4e 68 a1 34
       -1.5071286e-06 3.3370725e-07 -7.2696906e-07 3.0064479e-07
000330 df 7b 93 3d 3b 1d 17 bb 0c df 7d b8 98 da 3b bb
       0.07201361 -0.0023058194 -6.052763e-05 -0.0028664228
000340 3e db a6 b8 0b 51 07 b9 23 6a 71 3a 8b b4 8e b9
       -7.956334e-05 -0.00012904794 0.0009209236 -0.00027218866
000350 8e 70 83 36 8d 12 ed 35 6a 16 ed b4 aa 43 05 35
       3.9172073e-06 1.7663275e-06 -4.4160998e-07 4.9644825e-07
000360 32 84 ba bd 5d 2d 69 bc 53 69 1b bc 22 58 0d bc
       -0.091072455 -0.014232007 -0.0094855605 -0.0086269695
000370 af 42 54 3a ce 59 0e 3a 5f c6 a6 ba 5f 16 e5 b7
       0.0008097095 0.0005430252 -0.0012723914 -2.7309345e-05
000380 13 74 bf b6 0c f7 73 36 ca de 9c b6 61 8b 2c 36
       -5.7057564e-06 3.6353622e-06 -4.6750984e-06 2.5711126e-06
000390 35 2c f3 bc ab 4b a4 3f a7 4e 5d bf ae 5c b3 3e
       -0.029684165 1.2835592 -0.8644814 0.35031646
0003a0 92 42 8c 3d 33 1b 99 bd c0 46 f6 bf bc c5 69 3f
       0.06848635 -0.07475891 -1.9240341 0.91317344
0003b0 78 2d ad ba a0 c4 32 bb 5a 2f 03 ba 3a 67 28 39
       -0.0013212403 -0.0027277842 -0.00050043094 0.00016060183
0003c0 b1 a9 fa bb 7b aa ae 3f 4a f4 57 3c 53 1f d9 bf
       -0.0076496233 1.3645777 0.013180802 -1.6962684
0003d0 b2 a1 86 bc 75 1d 9a bd 41 15 18 c0 22 25 4e 3f
       -0.016434524 -0.0752515 -2.3762972 0.8052541
0003e0 e1 f3 c9 3a d1 6f 9f bb 45 62 a4 ba 77 60 fb b9
       0.0015407765 -0.0048656245 -0.0012541494 -0.00047946323
0003f0 bc 20 71 3d 1f fb d0 bc 60 fc 1b 3b da c4 9e bc
       0.05886911 -0.025510369 0.002380155 -0.019380976

fcs.0.bias f4 [64]
000000 81 cf a5 3c 02 c6 a5 ba fb 75 97 3d 27 51 8c bd
       0.020240547 -0.0012647512 0.0739555 -0.06851416
000010 75 b5 86 3f 6d cf 0b 3e f9 f7 c1 3f d4 6f 59 40
       1.0524126 0.13653345 1.51538 3.3974504
000020 ed 83 2b ba 67 61 56 40 a0 2f 4d b9 a7 80 95 3f
       -0.0006542791 3.349695 -0.00019568065 1.1679887
000030 93 b3 c3 39 57 55 7f b9 02 56 f7 3f f0 44 d2 b9
       0.00037327092 -0.00024350487 1.9323123 -0.00040105684
000040 df 94 98 b9 59 25 8b b9 bc d2 87 bb f8 a8 9b bc
       -0.00029102617 -0.00026539972 -0.0041449945 -0.019001469
000050 ff f7 1d 40 9f db bd 3b c8 56 8d b8 fa f3 2a 40
       2.4682615 0.005794003 -6.739568e-05 2.6711411
000060 87 33 53 bc f6 3a b7 3e f7 72 e7 3a 46 12 84 b9
       -0.012890703 0.3578717 0.0017658164 -0.00025190617
000070 ad ff bf bd 4a a3 77 bd 89 55 01 40 07 86 83 3f
       -0.09374938 -0.06045846 2.0208457 1.0275277
000080 93 d3 9c b9 28 1b 7e 3b cb 37 39 3f 8a d2 a7 3e
       -0.00029912274 0.003877351 0.7235076 0.32777816
000090 b9 e6 52 bb ff 4a 1c 40 ee 0b 11 40 34 ad 43 b6
       -0.0032180978 2.4420774 2.2663531 -2.9158082e-06
0000a0 a9 b5 01 bc 36 5a 35 36 2a 0a 23 b9 8d f9 9f b8
       -0.007916846 2.7023611e-06 -0.00015548678 -7.628193e-05
0000b0 69 22 52 3a 59 fa 50 ba cf e5 47 3f dc 91 b2 3f
       0.0008015992 -0.0007971875 0.78085035 1.3950763
0000c0 a4 3a fd bc 81 64 1b 40 46 af f4 3f 75 8b 30 b9
       -0.030911751 2.4280093 1.9115989 -0.0001683662
0000d0 b9 e6 18 bb 34 d0 bf 3f 4b 8f 27 3f 98 87 53 3f
       -0.002333088 1.4985414 0.6545302 0.82628775
0000e0 e4 00 3e 3d 1a 76 a3 b8 ab f6 57 39 cc a8 10 bc
       0.046387568 -7.794444e-05 0.00020595889 -0.008829307
0000f0 59 f5 aa b8 46 52 95 bb e2 b0 85 be 22 66 1d ba
       -8.151931e-05 -0.004556927 -0.26111513 -0.00060042937

fcs.1.weight f4 [2, 64]
000000 e6 bb 9e be b1 40 1b 3c ec c5 88 40 2b d6 a8 40
       -0.3100273 0.009475873 4.2741604 5.2761436
000010 c6 ed 63 40 74 e4 74 40 6b 1e 9e 40 17 94 ec 40
       3.5613875 3.8264437 4.941213 7.3930774
000020 36 b3 21 3d c4 cb 50 c1 26 b9 58 3e 24 87 ab 40
       0.03947755 -13.049747 0.21164379 5.3602467
000030 81 87 7d 3e 6d 36 8a 3e f8 37 a4 40 ce 4e 6f 3e
       0.24758722 0.2699465 5.131832 0.23369905
000040 e2 5f ca bd 9b b4 21 3e e9 83 a1 3c fc 4d a3 40
       -0.098815694 0.15791552 0.01971622 5.1032696
000050 06 6c af 40 d6 c4 1b 3e ab 77 3f 3e 9a 72 bd 40
       5.4819365 0.15211806 0.18697993 5.9202394
000060 db ce 73 3d eb 39 04 40 bf 37 96 40 47 60 45 3e
       0.059523445 2.066035 4.694305 0.19275008
000070 a8 7e f2 bd ea 75 71 40 bf d1 93 40 fe e4 39 40
       -0.11840564 3.772822 4.619354 2.9046016
000080 9b 30 6d 3e 1e 80 a6 be c6 31 5c 41 81 0a 2a 40
       0.23163073 -0.3251962 13.762152 2.656891
000090 95 c8 8d 3c 3f 1e b0 40 e7 90 c0 40 1a c3 96 3d
       0.017307559 5.503692 6.0176883 0.073614314
0000a0 1f 3f ae 3c 84 7b 2c 3c f3 6e 1e 3e 8f f5 60 bd
       0.021270333 0.010527495 0.15472011 -0.054921683
0000b0 b4 b0 d6 3c b2 5b c8 3e 98 c8 5a 41 9a 2f 8e 40
       0.026207305 0.39132458 13.673973 4.4433107
0000c0 c3 55 0e 3e f4 2d b6 40 31 94 6c c1 91 e8 09 3e
       0.13899903 5.6931095 -14.78618 0.13467623
0000d0 b2 40 59 3c 40 a0 ae 40 dc 85 5e c1 dd 7b 5c 41
       0.0132600535 5.457062 -13.9076805 13.78024
0000e0 d0 73 99 bd 19 20 16 3e 5f ce 4d 3e 31 c6 fa 3c
       -0.074927926 0.14660682 0.20098256 0.030612083
0000f0 fe e9 0b 3e 92 5f 7b bc c4 cd 0d b9 bd 1e 5d 3e
       0.1366348 -0.01534261 -0.00013523462 0.21593757
000100 aa a2 9d 3e 82 b7 22 bc 25 e2 88 c0 ca ac a8 c0
       0.30788165 -0.009931447 -4.2776055 -5.2710924
000110 fc 49 64 c0 90 9f 74 c0 78 76 9e c0 38 d4 ec c0
       -3.5670156 -3.822239 -4.9519615 -7.4009056
000120 7a 72 21 bd 81 0d 51 41 ab 2e 57 be aa a9 ab c0
       -0.039415814 13.065797 -0.21013896 -5.364461
000130 99 fd 7c be c8 34 89 be a7 35 a4 c0 9a 1d 6d be
       -0.24706115 -0.2679808 -5.1315494 -0.23155823
000140 5a 0b c9 3d 49 28 20 be 2b a9 98 bc 24 d8 a2 c0
       0.09816618 -0.15640368 -0.018635353 -5.0888844
000150 bb 78 af c0 4e 2f 1b be 76 13 40 be af 96 bd c0
       -5.4834876 -0.15154764 -0.18757424 -5.924644
000160 33 ec 62 bd cd 79 04 c0 ce 34 96 c0 0f 0d 43 be
       -0.05540104 -2.0699341 -4.693946 -0.1904795
000170 81 08 f3 3d e0 89 71 c0 99 a7 93 c0 d5 7c 39 c0
       0.11866856 -3.7740402 -4.6142087 -2.8982441
000180 98 c3 6b be b0 ac a9 3e 11 58 5c c1 8c 51 2a c0
       -0.23023832 0.33139563 -13.771501 -2.6612272
000190 e9 0d 90 bc 2a 4c b0 c0 5d c6 c0 c0 58 20 95 bd
       -0.017584758 -5.5092974 -6.0242143 -0.0728156
0001a0 03 ba ad bc 30 54 31 bc 58 b0 1c be 3a 69 5e 3d
       -0.021206861 -0.0108232945 -0.15301645 0.05429957
0001b0 17 4c c3 bc 0c 07 c6 be 3a fc 5a c1 4e 57 8e c0
       -0.023839993 -0.3867725 -13.686579 -4.4481573
0001c0 0c af 0d be e8 39 b6 c0 f1 b1 6c 41 02 63 09 be
       -0.13836306 -5.6945686 14.793443 -0.13416675
0001d0 55 90 59 bc 0f c9 ae c0 75 ba 5e 41 1d 9e 5c c1
       -0.01327904 -5.4620433 13.920522 -13.788602
0001e0 76 d6 a1 3d 36 f7 15 be 15 51 4d be a0 fd f8 bc
       0.07902233 -0.14645085 -0.20050462 -0.030394375
0001f0 a0 f8 0a be 1d 79 7b 3c c6 57 a7 bb 6b 2a 5a be
       -0.13571405 0.0153487 -0.005106899 -0.21305244

fcs.1.bias f4 [2]
000000 0b f9 02 40 e3 0a 03 c0
       2.0464504 -2.0475395
