cache/ckpts/woselfloop-geom-chameleon_NormalNNV2-geom-chameleon_trialNo6.pt (torch, 599771 bytes, 5 tensors)

alpha_params f4 [5, 17]
000000 ba 8b 02 40 af 03 d0 3f 64 9a 53 3e bb 4f 0c 3f
       2.0397782 1.6251124 0.20664364 0.5480916
000010 fd e5 f1 bf 42 07 86 3f d0 57 29 be 89 3f 78 bf
       -1.8898312 1.0470965 -0.16537404 -0.96971947
000020 aa 09 9f bf 64 11 98 bf 30 8d 0c 3f 78 ea 59 bf
       -1.2424824 -1.1880307 0.54902935 -0.85123396
000030 15 84 8c bf bb fe 6c 3f b6 1b fb 3e dd 6b a0 bf
       -1.0977808 0.9257619 0.4904458 -1.2532917
000040 c2 f5 11 bf 36 fe 08 40 a7 fc 8b 3e d4 85 02 40
       -0.5701562 2.1405158 0.27341196 2.0394182
000050 b6 cc 9c bf f2 ab 75 bf 10 14 0f bf 7e ce 96 3f
       -1.2249973 -0.9596549 -0.5588999 1.1781766
000060 c9 37 93 bd 3f 7c ca bf b0 d1 47 3f f4 25 eb bd
       -0.071883745 -1.5819167 0.7805433 -0.11481848
000070 6a 3c 7c 3d 35 04 e2 3e f4 b2 85 bf 0b 44 5f bd
       0.061581053 0.44143835 -1.0445237 -0.05450825
000080 54 4e 5c bf a6 b2 9b bf 58 21 04 40 c9 ad 0e 3e
       -0.8605702 -1.2163894 2.0645351 0.13933481
000090 b2 1b a8 3f 02 8b a6 3d c9 cf cb bf 15 ca 47 3f
       1.3133452 0.081319824 -1.5922786 0.7804273
0000a0 b1 b8 c6 3f c2 32 44 bf 2a d9 92 bf 0d 17 01 bf
       1.5525113 -0.7663995 -1.1472523 -0.504258
0000b0 ba 05 ce 3e b6 5f 6f be 1b 0f 42 bf 43 f1 3d 3e
       0.40238744 -0.23376355 -0.758043 0.18549065
0000c0 ef a5 72 3c a2 ee 00 bf a7 6a 0c bf fe 1b 76 3f
       0.014810069 -0.50364125 -0.5485024 0.9613646
0000d0 89 f4 77 3f 51 1f 28 be 80 4f d3 3d e0 2b f2 bf
       0.96857506 -0.16418196 0.10317898 -1.891964
0000e0 dd 18 63 be c7 1d 01 bf a8 54 e8 bf 32 cc 00 3e
       -0.22177453 -0.5043606 -1.8150835 0.12577894
0000f0 75 50 d1 be 32 63 5f 3f e9 73 96 3f 70 9e 7c bf
       -0.40881696 0.87260735 1.1754123 -0.98679256
000100 0d 74 41 bd 10 f6 85 bf 1a 83 ff be e0 5d 95 bd
       -0.047229815 -1.0465717 -0.4990471 -0.07293296
000110 10 fc 91 3f 76 f7 b1 bf dd 62 7b 3f 54 19 e5 3e
       1.1405048 -1.3903644 0.9819773 0.44745886
000120 ab 4e 51 bf 43 17 bf 3f 97 d9 f8 3f 66 0d a2 3c
       -0.8176066 1.4928974 1.9441403 0.01978178
000130 b5 bc bf be e1 98 dd be 91 9e 8d bf d4 a5 3f bf
       -0.3744866 -0.432807 -1.1064016 -0.7486241
000140 39 ed 2f bf c8 86 61 bf 0c 8f bb bd 85 f0 a1 be
       -0.6872135 -0.88096285 -0.091581434 -0.31628814
000150 9f 18 75 bf
       -0.95740694

fcs.0.weight f4 [64, 2325]
000000 dd 7f 88 ba 73 8f 54 3d ca a5 98 3b bd 18 9e bc
       -0.0010414083 0.051894616 0.0046584355 -0.019298906
000010 43 da fa 3b 5b 56 a7 ba 0c 75 2f bd de a5 1b bc
       0.0076554134 -0.0012766825 -0.042836234 -0.009499995
000020 62 18 48 3c f2 cc d7 ba 08 31 b8 38 d5 03 0d 3a
       0.012212845 -0.0016464277 8.7829365e-05 0.0005379294
000030 e3 c4 b7 3b 41 93 1a bc ce 86 2e 3a 1e 5a 29 3c
       0.0056081875 -0.009434522 0.00066576607 0.010336427
000040 8d 0f ff 39 d8 33 0a bc bd aa b0 3c ff c1 5b bd
       0.00048648976 -0.008435212 0.02156579 -0.053651806
000050 61 5f 81 3b 01 db 7b bb 5b c6 1b 3d 5f b0 eb 39
       0.0039481376 -0.0038430097 0.038030963 0.000449541
000060 ea 63 71 bc 84 73 8f bc eb eb 42 3b 0a 00 5f 3a
       -0.014733294 -0.017511137 0.002974267 0.0008506781
000070 91 f9 49 bb 94 0d 70 bb 23 1d de 3b 13 4f a4 bb
       -0.003081892 -0.0036629187 0.0067783757 -0.005014309
000080 d1 be 80 bb 3e d9 c0 3c 71 03 fe ba 3d 19 6b bc
       -0.003928997 0.02354109 -0.0019379688 -0.014349279
000090 4b e2 64 bb 51 e0 86 bc cf 46 6d 3c fd cd 83 3c
       -0.003492492 -0.016464384 0.014482214 0.016089434
0000a0 33 f7 25 3b 05 8f 6c bb 35 63 42 3c 6d 70 35 bc
       0.0025324344 -0.0036095988 0.011864473 -0.011074168
0000b0 b9 e8 34 bc aa 8b 86 3a c5 63 f0 bb 84 12 1f bb
       -0.0110418135 0.0010265012 -0.007336112 -0.002427251
0000c0 a3 3f 56 3b b4 e8 26 bb a9 f6 25 3d c8 f5 5d ba
       0.003269174 -0.0025468292 0.040518437 -0.0008467105
0000d0 ab a1 31 3c 78 c9 8e 3c 10 f7 78 3c e7 2b ec ba
       0.010841767 0.017430052 0.015195623 -0.0018018455
0000e0 29 48 4e bd 88 36 be b8 ed b7 30 bc f0 27 0c bc
       -0.050361786 -9.070063e-05 -0.010786039 -0.008554444
0000f0 18 61 0e bc 20 f5 99 bb a4 98 dc 3b 21 8f c5 3a
       -0.008690141 -0.0046984106 0.0067320634 0.0015072563
000100 21 e6 60 3a 95 d6 1d bc 3f fe be bc 68 7e dc b9
       0.0008579214 -0.00963368 -0.023314593 -0.0004205585
000110 57 7a e9 3a f6 22 a5 bb 34 89 04 3d 8f c6 a4 3b
       0.0017812949 -0.005039568 0.03235741 0.005028553
000120 81 87 2d bb 11 48 05 3b b9 b1 95 3a 45 7e 81 bc
       -0.0026478472 0.0020337144 0.0011420763 -0.01580728
000130 af 60 dc 3c 1c 22 86 b9 a8 46 9e 3c bb 67 49 3b
       0.026901571 -0.00025583885 0.0193208 0.0030731994
000140 4a e2 4c 3b 74 e0 d7 bc 02 2b 8c bb ab c7 78 b9
       0.0031262808 -0.026352145 -0.004277588 -0.00023725505
000150 f9 30 3a 3c 45 69 fb bb c6 a3 e6 3c 62 62 4b 3b
       0.011364215 -0.007672461 0.028154265 0.0031033983
000160 df 41 91 ba a6 b3 59 3d d8 a5 a9 3b bb 84 07 bd
       -0.0011082253 0.05314984 0.005177241 -0.033085566
000170 5d d6 1a bc bb a6 c4 bb ce 9e 7d bc 6f 8f 21 3d
       -0.009450522 -0.006001321 -0.0154797565 0.03944343
000180 d5 1e 1d bc be f8 ed ba 4d e6 dc bc c5 0a a7 bc
       -0.00958987 -0.0018155796 -0.026965285 -0.020390878
000190 3e 9b 1b 3b b7 2c a6 3a 3c 8f 05 bd 06 af 2d bc
       0.0023743655 0.0012678121 -0.032607302 -0.010600811
0001a0 ad 8c e2 b9 bf 83 bb bb dd e0 2b 3b 63 41 8a ba
       -0.0004321089 -0.0057224925 0.0026226558 -0.0010548051
0001b0 57 98 94 3c 9b 06 24 3c d3 84 12 3b 96 31 3d 3c
       0.018139048 0.0100113405 0.0022357001 0.011547467
0001c0 43 f8 69 b9 9a ff ae 3b bd 18 b0 bb f5 b1 20 3c
       -0.00022313096 0.0053405287 -0.005374043 0.009808053
0001d0 75 c7 52 3b 6f d5 15 bb fc 9e 78 3c 89 b7 e0 bb
       0.0032162343 -0.0022862812 0.015174624 -0.0068578166
0001e0 1b 03 00 bc 43 0b 56 3b 12 57 96 3b 98 1a 22 bd
       -0.00781324 0.003266052 0.0045880163 -0.039576143
0001f0 83 0e 93 3d e7 47 b7 ba ef 19 2d 3c df 02 10 3c
       0.07180502 -0.001398322 0.010565265 0.008789747
000200 45 ab c8 3b 61 e7 8c 3b 0e e2 0e bb 9f 64 35 bb
       0.0061239325 0.0043000435 -0.002180222 -0.0027678383
000210 75 a8 2c 3c 15 e4 a2 ba 0b 48 ce ba d6 fa 6c 3b
       0.01053821 -0.0012427593 -0.0015738023 0.0036160252
000220 4a 9b b5 3c 3e 4f 2d 3b b5 fb 91 3b 7e 0e b6 3a
       0.022168774 0.0026444937 0.0044550546 0.0013889817
000230 14 89 ac bb 07 8b f0 3c e0 c1 1a 3d 1f 41 1a bd
       -0.0052653644 0.029363168 0.03778255 -0.03765976
000240 dc fb 8d 3b 2d 34 eb ba 08 bb 9c bb f9 e9 03 bb
       0.0043330025 -0.0017944627 -0.004783038 -0.0020128472
000250 71 7f 97 bc a7 36 ae 3d 4d 59 79 3c 6f ec 1b bb
       -0.018493386 0.08506518 0.015219045 -0.0023792048
000260 3a 4d 24 3c 64 5a dd bb 79 95 03 bd dc f5 a9 bc
       0.010028178 -0.00675516 -0.03212497 -0.020747118
000270 be 38 a2 39 b2 47 83 3c 35 94 f5 37 28 62 01 bc
       0.00030941324 0.016025398 2.927529e-05 -0.007896937
000280 22 63 86 bb 5a c8 d1 bb b8 c0 4f b8 c0 46 3a bc
       -0.004101173 -0.0064020576 -4.953213e-05 -0.011369407
000290 36 0b 89 bc 4e c4 a8 3c 63 b1 a8 3a 36 8e 83 3a
       -0.016728979 0.020601418 0.0012870248 0.0010036889
0002a0 82 3d 91 bb 52 21 88 bc e9 41 0e 3b e5 cc 01 bb
       -0.004432381 -0.01661745 0.0021706766 -0.0019805965
0002b0 b1 67 99 bb 53 5f 18 3d 82 ad dd 3a 48 6f 94 3c
       -0.0046815504 0.037200283 0.0016912671 0.01811947
0002c0 6a 71 0b bc db eb c2 3a c7 c9 9f bc 94 43 67 bc
       -0.008510927 0.0014871316 -0.019505395 -0.014115233
0002d0 b4 c4 60 3c a7 62 56 3c fd 77 2b bc 5f 62 8c 3b
       0.013718773 0.013085044 -0.010465619 0.0042841877
0002e0 dd e6 8a 3b d5 07 f7 bb 03 1c 94 3b f7 34 bd 3b
       0.004238947 -0.0075387754 0.004519941 0.005774136
0002f0 cc ee eb 3a fc 1c c5 ba 4e 87 ed bb 17 f5 07 bc
       0.0018000244 -0.0015038545 -0.0072487956 -0.00829818
000300 5a c6 60 bc 59 aa 2a 3c a6 48 12 bb ac 4c 9d b9
       -0.013719166 0.010416591 -0.0022321134 -0.00030002499
000310 e7 ac 8c 39 0e 0e 80 ba c6 99 0c ba 2f 6f a6 3b
       0.00026831703 -0.0009769814 -0.000536349 0.005079172
000320 09 33 13 bd b3 92 11 bc eb eb 0c 3c 5b d9 14 3b
       -0.035937343 -0.0088850735 0.008601169 0.0022712562
000330 74 9b fe 3b 4a 2e e4 b9 ce 07 d1 3b 73 49 d5 3d
       0.0077699963 -0.00043522037 0.006379104 0.104144
000340 55 4f 98 bc 3c 28 3e 3c 64 35 85 3d 92 8c c7 3b
       -0.018592516 0.011606272 0.06504324 0.0060897553
000350 a2 55 8d 3c 10 b8 b3 3c 68 27 f4 bb c7 c5 b9 bb
       0.017252747 0.021938354 -0.0074509867 -0.005669329
000360 05 e0 c6 38 cd e1 4c bb 9d 63 2f 3c 31 40 47 b9
       9.4831026e-05 -0.0031262517 0.010704902 -0.00019002032
000370 83 b8 2d bc 47 ff 1e bc f6 19 df 3a 12 24 36 bc
       -0.010603073 -0.009704418 0.0017021287 -0.011116998
000380 2c fc cd 3b a3 65 85 3c f8 4d c2 3a 76 15 77 bb
       0.0062861647 0.016283816 0.0014824262 -0.0037702
000390 7d 01 25 3a 9f 22 c5 ba 16 a4 9c bb c2 fc 8a 3a
       0.0006294472 -0.0015040225 -0.0047803028 0.0010603892
0003a0 aa e7 03 39 45 fe e4 ba 4f 3d 19 bc ac 64 12 3c
       0.00012579435 -0.0017470798 -0.009352996 0.008935135
0003b0 e8 92 4e ba 01 8b 2b bc 40 fe 11 bb 21 96 a2 bb
       -0.0007880167 -0.010470153 -0.002227679 -0.0049617444
0003c0 ab b7 90 bc 4e fb f5 bb 2d 5d 6c ba e9 a4 eb bc
       -0.017665705 -0.0075067645 -0.000901657 -0.028765159
0003d0 0d 5d 0d bc 36 00 a8 bb 66 af 03 3b 37 26 cd ba
       -0.008628142 -0.0051269783 0.002009356 -0.0015651648
0003e0 bc dc e4 3a 3b 86 98 bb bf e5 6b ba b5 5d 01 bd
       0.0017460804 -0.0046546734 -0.00089987734 -0.031583507
0003f0 11 99 38 3b 46 23 ac ba a5 d1 62 ba 79 f3 b0 3c
       0.0028167407 -0.0013133071 -0.0008652455 0.021600472

fcs.0.bias f4 [64]
000000 9f 24 f2 bb f2 58 ca 3b 47 34 84 bb d8 37 28 bd
       -0.0073896195 0.006175154 -0.0040345523 -0.04106888
000010 e4 8a 3c b9 49 98 db 3b 73 cc ef b9 97 82 fd bc
       -0.00017980818 0.0067015034 -0.0004573796 -0.03094606
000020 05 e6 7a 3b 83 50 67 bd 49 ae 26 3c 41 8e 8f bd
       0.0038284075 -0.056473266 0.010173389 -0.07009555
000030 e9 7c 4b 3c df 68 12 bd be 49 9a bd 45 21 2e bb
       0.012419918 -0.035744544 -0.075335965 -0.0026570123
000040 d2 0c b1 bd 09 08 93 bc 4a 1a d3 bc ba 73 8e ba
       -0.086450234 -0.017948167 -0.025769372 -0.001086823
000050 07 5d 82 3c 29 c9 91 3b 57 3d 1e bb 95 73 29 bc
       0.0159135 0.004449029 -0.0024145448 -0.010342498
000060 34 c3 40 bd 1e 8b 44 3c 24 9a 06 3c 77 d0 62 ba
       -0.04706116 0.011996059 0.008215461 -0.00086522795
000070 bb 07 66 bc 51 cb 01 3b 2e 1e d6 bb 01 94 ae bc
       -0.014039929 0.0019805024 -0.0065343594 -0.021310808
000080 b9 0f cb bc 85 fb 1b bc c8 de a6 3c a7 0d 23 3c
       -0.02478777 -0.009520416 0.020369902 0.009951985
000090 6c 58 dc bc 48 6c b6 3c 9d cb 38 bb 78 9b d5 3b
       -0.026897632 0.02226843 -0.0028197535 0.0065187775
0000a0 0a 96 03 3c 5f 46 81 3b a0 36 4f 3c bd 67 85 bd
       0.008031378 0.0039451565 0.012647301 -0.06513927
0000b0 20 d2 8d bd a3 c9 e8 ba c6 a2 c5 3b 7a 6d c0 3b
       -0.06924844 -0.0017760288 0.006031367 0.0058724256
0000c0 91 20 8a 3b 10 88 80 3c 8d 14 9d 38 a6 09 22 3c
       0.004215308 0.01568988 7.490171e-05 0.009889996
0000d0 31 17 cb b9 a2 40 2b 3c 74 f1 c9 3b 86 54 62 3c
       -0.00038736456 0.010452421 0.0061628167 0.013814097
0000e0 26 ab 88 bc e1 76 36 3c ee fa 70 3b c8 f3 d8 3c
       -0.016683172 0.011136741 0.003677066 0.026483431
0000f0 88 a5 2f 3b ed a4 73 3c 0e 16 e6 3b 3f 77 33 3c
       0.0026801545 0.014870864 0.007021672 0.010953723

fcs.1.weight f4 [5, 64]
000000 3e de 3c bd b8 e0 a4 bd 2c f9 0c bd 70 2a cb bc
       -0.046110384 -0.08050674 -0.034417316 -0.02480051
000010 00 1a c3 bd f3 97 99 3c 07 8d 2a be f8 0f 53 3e
       -0.095264435 0.018749213 -0.1665536 0.2061156
000020 eb b0 66 3d 37 d2 e5 bc c0 4b f7 3d 2e e8 0b bd
       0.056321066 -0.02805434 0.12074995 -0.03415697
000030 18 12 26 3e 4c 9f 5c bc 6a a3 56 3d 9e 9d f8 bd
       0.1621784 -0.013465714 0.052401938 -0.12139438
000040 22 1e 04 bc 33 a7 c1 3d 02 54 59 3e 57 5d cf bb
       -0.008063825 0.09455719 0.21223453 -0.0063282656
000050 ab 5d 85 3d 83 43 4e bd 9c 18 c0 bd a2 1f 8e bd
       0.06512006 -0.050357353 -0.09379694 -0.06939627
000060 96 b7 c7 bc 33 1e cc 3d 65 a1 8c 3d c5 66 12 bd
       -0.024379533 0.099666975 0.06866721 -0.03574254
000070 5d bb aa bb 57 78 18 bd 30 bd 8c 3d 2d af 00 3e
       -0.0052103237 -0.03722414 0.06872022 0.12566824
000080 b2 c1 9c 3c e6 e8 8c ba 7d 48 81 3e 81 6c 10 3e
       0.01913533 -0.0010750561 0.25250617 0.14103891
000090 74 83 4a 3c 3a ea 12 3d 70 e8 a9 bd 34 a5 15 bd
       0.012360442 0.035867907 -0.08296287 -0.036534503
0000a0 0c 5b 7f 3d 57 dd 78 bd ca c4 24 ba 34 ff 1c 3d
       0.06234269 -0.06075796 -0.00062854274 0.03832932
0000b0 cb 8d 80 bc 4b 3e 57 3a 81 1a 5e 3d e5 58 fb 3d
       -0.015692612 0.00082108815 0.054224495 0.12272815
0000c0 b5 48 34 3d 8a e1 4c 3e 17 f6 73 bc 12 ac c0 bc
       0.04401465 0.20007911 -0.014890215 -0.02351955
0000d0 87 00 5d bd e3 2b 27 3e fa 31 a9 3d 12 df 23 3d
       -0.05395558 0.16325335 0.082614854 0.04000766
0000e0 88 7e 87 3b fc 9d af bc a3 5c de 3d 72 b4 f8 3d
       0.0041349567 -0.021437638 0.10857513 0.12143792
0000f0 d6 fb 37 3d e9 0b 03 bc a5 4f e3 3c bf 66 e0 bc
       0.044917904 -0.007998445 0.027747938 -0.027392743
000100 68 60 ca bd 11 e3 c2 3d 47 cb 3d bd 46 d1 8a 3d
       -0.09881669 0.09515966 -0.04633644 0.06778197
000110 5b 2f 29 bd bf 85 81 3b 52 d3 77 3c fd b9 e5 bd
       -0.041304927 0.0039527114 0.015126066 -0.11217115
000120 3f 74 72 bc 90 46 cd bc 02 ba d7 bd 31 8e 03 bc
       -0.014798223 -0.02505806 -0.10533525 -0.008029507
000130 35 b3 66 3d bc 5b f8 3d b5 e4 cd bc 01 45 09 3d
       0.05632325 0.12126872 -0.02513347 0.033513073
000140 eb 45 3c bd b6 c7 5b 3d 4b 68 52 3d 7a 68 c3 bd
       -0.045965116 0.053657256 0.051368993 -0.09541412
000150 fe 67 92 3d 8c f3 6c bc 24 d0 5e bd 57 b1 f1 bd
       0.07148741 -0.014462363 -0.054397717 -0.11801403
000160 e7 79 2d bc 4a 7c f6 3c 61 e1 2d 3e 1f 19 35 3e
       -0.010588146 0.030088563 0.16980506 0.17685364
000170 dd 53 a5 bb 91 0b 44 bd 33 6e 83 bd b7 4b a1 bd
       -0.0050453977 -0.047862593 -0.06417503 -0.078757696
000180 f8 0f a1 3d 0f 3a 82 3d 42 62 05 3e ad d7 97 bd
       0.07864374 0.0635873 0.13025764 -0.07414184
000190 d2 0b a2 3b 55 3f 13 bd 7c be ca 3b 82 08 96 3d
       0.0049452567 -0.03594907 0.0061872583 0.073258415
0001a0 04 15 93 3c e6 ef 44 3e b3 29 21 3e 4e e7 08 bd
       0.017954357 0.19232139 0.15738563 -0.033423714
0001b0 11 c6 12 3c 6e 5e 19 3b 02 90 cb bd cd bf 99 3d
       0.0089583555 0.0023402232 -0.09939577 0.07507286
0001c0 5d 65 e1 3c 99 ad 7a 3d 58 32 2f 3e 95 e7 23 3e
       0.027514154 0.061200712 0.17109048 0.1600631
0001d0 e1 e0 bb bb e5 c4 76 3d e4 2c b0 bd 58 8b 93 3d
       -0.0057335948 0.060246367 -0.08602312 0.07204312
0001e0 25 d0 62 bb 16 23 2d bd b7 90 87 3d 98 3a e8 3d
       -0.0034608927 -0.04226979 0.06619399 0.11339301
0001f0 76 3e 17 bd 92 a3 99 bc d0 2e ed 3d 85 50 a7 3d
       -0.0369248 -0.018754754 0.115811944 0.08169655
000200 a4 1d 03 3e 4f 98 c8 bc 54 ae 4c 3e 88 6d 05 3c
       0.12804276 -0.024486689 0.19988376 0.00814379
000210 17 1a 22 3e da 16 fe 3d 4f 02 47 3e b8 6e 5d bd
       0.15830265 0.12406702 0.19434474 -0.054060668
000220 13 89 c9 bc 39 c0 62 bc 07 92 0f bd a1 55 26 bd
       -0.024601495 -0.013839775 -0.035051372 -0.040609006
000230 07 f7 65 b9 9d 3c 4d bc 43 ec c7 bc e3 18 40 bd
       -0.00021931167 -0.012526658 -0.02440465 -0.046898734
000240 dd b2 e8 bc 66 02 3b bd 16 ea 08 bd 0c 11 cd bd
       -0.028405601 -0.045656584 -0.033426367 -0.10013017
000250 f9 2f f7 bd 58 48 10 3c 3b 9d 5d 3e 2b b4 60 3e
       -0.12069697 0.008806311 0.2164201 0.21943729
000260 63 ea 39 bd 71 35 ac bc 8d 2d bd bc 2d 7b 9a bc
       -0.045389544 -0.021021577 -0.02309301 -0.018857563
000270 6d 59 2d bb 2d f6 74 3e fc 0e d5 3d 42 6c 36 bd
       -0.0026451007 0.23922034 0.10403249 -0.044536836
000280 31 83 2a 3c e0 3d 50 3c 5b a2 39 bd 93 59 2a 3d
       0.010407255 0.012710065 -0.04532085 0.04158933
000290 89 1d 98 3b fd fc 97 bd de f9 2f 3e 97 12 de bd
       0.0046421927 -0.074213006 0.1718516 -0.108433895
0002a0 0d b3 b4 3c ca 20 80 bd ed e8 14 bd 02 36 40 bd
       0.022058034 -0.06256254 -0.036354948 -0.046926506
0002b0 2e 7a ef bc 01 a2 d1 3a 1c 91 df 3a 34 b4 b2 bd
       -0.029233065 0.0015993715 0.0017056796 -0.08725777
0002c0 e5 3b 80 3c 78 ee a8 bd d6 80 07 bd 8d 5e 46 bd
       0.01565356 -0.08248609 -0.033081852 -0.048430014
0002d0 49 4a 9a 3c 0e 80 8f bd f5 78 64 bc 65 5c 63 bd
       0.01883425 -0.07006846 -0.013944854 -0.055508036
0002e0 6c e4 7a 3a 55 1c af bd b0 a0 0b bd d4 38 a1 bd
       0.00095707807 -0.08550326 -0.03408879 -0.07872167
0002f0 e6 7b e1 3d 57 ad b6 bd 18 59 90 3b 65 6f be 3d
       0.1100996 -0.08919781 0.004405152 0.092985906
000300 12 58 e1 3c 70 3e a4 bd 7b a4 83 ba a7 db 91 3b
       0.027507816 -0.080197215 -0.0010043526 0.0044512334
000310 74 8e 03 3e 21 92 1e be be 30 97 bc b1 1e 1f bd
       0.1284731 -0.15485431 -0.01845586 -0.03884763
000320 0a e1 66 bc 94 e2 2f 3d 23 27 43 3d f5 27 65 3c
       -0.014091739 0.04294069 0.047644746 0.013986577
000330 03 91 5e bd 16 3a fb 3c ed 9a 77 3d c5 b2 d5 3d
       -0.054337513 0.030667346 0.060450483 0.10434488
000340 a0 e6 f3 3a f2 f7 60 bd 36 08 5c bc 22 f8 7c 3d
       0.001860816 -0.05492396 -0.013429692 0.061760075
000350 20 84 63 bd 7f 9b 1d 3e 4e b3 8c bd fc f2 75 bd
       -0.055545926 0.15391348 -0.06870137 -0.06004618
000360 ac f8 ba bc de d2 23 be 86 1d 84 3c 28 2b 88 3b
       -0.022823654 -0.15998408 0.01612736 0.0041555353
000370 4f 7b ab 3a a9 ed ab bb 18 2e 9d bd ca 85 60 3c
       0.0013083013 -0.005246837 -0.07674807 0.013703773
000380 99 ff 61 3c 65 35 0e be d2 f6 65 bc c3 b4 1a be
       0.013793849 -0.13887556 -0.014035897 -0.15108018
000390 2f 76 12 bc f6 91 8d 3c 9f 88 17 be 39 4e dd 3b
       -0.00893931 0.017281514 -0.1479821 0.0067537096
0003a0 62 4a 35 3e 62 91 75 bd 8e 5b c9 bd cd ea c0 bd
       0.17704156 -0.0599531 -0.09831916 -0.09419785
0003b0 a9 e5 11 bd 02 8a 4e ba 38 90 37 bd 52 db 10 be
       -0.03561941 -0.0007878841 -0.044815272 -0.14146164
0003c0 09 32 05 ba 40 f1 62 bd 74 46 02 3e 91 11 10 3c
       -0.0005081003 -0.055405855 0.12722188 0.008793251
0003d0 29 99 81 3e 3b 0d 9b bd f1 0a 94 bd 44 82 03 be
       0.25312164 -0.07570883 -0.072286494 -0.12842661
0003e0 37 48 e6 39 cc 99 82 bd 91 7f dc b5 0c 39 39 3d
       0.00043922823 -0.06376991 -1.6428404e-06 0.04522042
0003f0 0a 16 95 bd f5 69 9a 3d f2 72 b0 3c 5d 08 aa bd
       -0.07279594 0.07539741 0.021539185 -0.083023764

fcs.1.bias f4 [5]
000000 ac d0 0a bc 24 90 2c bc e9 5d 58 3b 20 e3 96 ba
       -0.008472603 -0.010532413 0.003301496 -0.001151178
000010 c2 40 b8 3a
       0.0014057385
