cache/ckpts/woselfloop-genius_NormalNN-genius_trialNo88.pt (torch, 9627 bytes, 5 tensors)

alpha_params f4 [64, 13]
-0.015800191 -0.056859836 -0.13565299 -0.195336 -0.2400546 -0.23604889 -0.44560605 -0.28741992
-0.58931375 -0.1401084 -0.48053166 -0.09028057 -0.28075707 0.33009288 0.23926532 1.2125782
-0.37255555 1.3668379 -0.66323626 0.8699038 -0.16970697 0.45166302 0.07705168 0.26788554
-0.014454225 0.16737583 0.13270313 0.5749361 0.4225514 0.6293109 0.23754928 0.4791911
0.16915882 0.1241457 0.53745365 -0.3107897 0.66102606 -0.24939229 0.31856662 -0.006577992
-0.04881654 -0.123581536 -0.15105055 -0.264849 -0.22846512 -0.5187699 -0.32705298 -0.5349689
-0.11905556 -0.4246705 -0.050080016 -0.26944032 0.3423927 0.08654226 1.4446442 -0.45893848
1.3874266 -0.4912434 0.7320128 -0.07333635 0.30939698 0.107447036 0.16572097 0.022761194
0.16897641 0.2929992 0.1502651 1.3293805 -0.43701 1.355314 -0.5077344 0.76739633
-0.1292621 0.39295962 0.028487936 0.25388676 -0.021703232 0.17313059 -0.12682548 -0.5793357
-0.39554444 -0.6427216 -0.31413284 -0.44316846 -0.15534918 -0.2369022 -0.2687783 -0.040701546
-0.4538919 0.15514426 -0.34802654 0.11534213 0.56230676 0.36361656 0.75160754 0.16878831
0.56706756 0.063546896 0.20361118 0.4044445 -0.20042604 0.6968973 -0.35253546 0.42160916
-0.026170727 -0.18686864 -0.5860394 -0.24349903 -0.84943926 0.06323374 -0.6590654 0.07421889
-0.31753796 -0.15428627 -0.089232944 -0.28528985 -0.013329779 0.72831446 0.20547868 -1.3645879
0.086270146 0.32506526 -0.08512707 -0.9829678 -0.30565822 -0.39331523 -0.5463914 -0.41860354
-0.52177423 0.014921555 0.17313994 0.2070736 1.1680402 -0.22006388 1.4953768 -0.708086
0.9827075 -0.29754117 0.37124985 0.22285767 0.009851174 0.2775771 -0.055065498 0.33345768
0.20758007 1.2973114 -0.44580585 1.4226986 -0.65923566 0.9202657 -0.20053889 0.4798252
0.06920245 0.24628061 0.05595239 0.074414864 -0.14531866 -0.58570987 -0.44426742 -0.6731733
-0.2353416 -0.528179 -0.068060584 -0.32849318 -0.19662987 -0.18710093 -0.36060083 0.06106385
-0.3078992 0.035297025 0.33075276 0.4898093 0.44021186 0.42160514 0.24471633 0.38793647
0.07839771 0.38474306 -0.05868576 0.3978595 -0.10370161 0.22370464 -0.12479528 -0.59137475
-0.43612894 -0.65450937 -0.31693935 -0.4110317 -0.21111073 -0.1512149 -0.38913327 0.05549076
-0.5321301 0.19548032 -0.35450652 0.34227666 0.24680008 1.2708232 -0.31130943 1.422945
-0.64913756 0.9033536 -0.12791757 0.42344594 0.15818872 0.22788514 0.021751754 0.17510138
-0.00049144676 -0.0683403 -0.14137794 -0.20645091 -0.23631392 -0.3373549 -0.5637383 -0.31032428
-0.54306555 -0.001478193 -0.37951753 0.00064021884 -0.28004542 0.13537247 0.51024044 0.4455089
0.5631818 0.26389068 0.4112676 0.14475785 0.19869381 0.33389422 0.049471136 0.3745629
-0.08420901 0.25142193 0.3427729 0.05077816 1.4637412 -0.43296036 1.3808954 -0.46087906
0.7446539 -0.07079002 0.34869418 0.09023377 0.21577762 -0.019582331 0.20276174 0.3070907
0.09134428 1.3473932 -0.41421145 1.3731239 -0.45746434 0.76911837 -0.11749116 0.3921019
00000000: 676f 81bc dce5 68bd 9ee8 0abe 2906 48be
00000010: e0d0 75be cdb6 71be 7a26 e4be b428 93be
00000020: 44dd 16bf 9478 0fbe 3f08 f6be 05e5 b8bd
00000030: 64bf 8fbe ef01 a93e f801 753e c335 9b3f
00000040: 9abf bebe 8bf4 ae3f dac9 29bf 04b2 5e3f
00000050: aac7 2dbe 6040 e73e 45cd 9d3d 4b28 893e
00000060: 6ad1 6cbc 9264 2b3e 54e3 073e 032f 133f
00000070: a858 d83e 851a 213f 1e40 733e 8958 f53e
00000080: f837 2d3e 1a40 fe3d 9096 093f d41f 9fbe
00000090: 0139 293f b160 7fbe 2a1b a33e 328c d7bb
000000a0: daf3 47bd 5118 fdbd ffac 1abe 4a9a 87be
000000b0: c3f2 69be 1bce 04bf 7d73 a7be b9f3 08bf
000000c0: 67d3 f3bd 696e d9be b420 4dbd 15f4 89be
000000d0: 194e af3e 123d b13d 1aea b83f fcf9 eabe
000000e0: 3297 b13f 4184 fbbe 3165 3b3f 5e31 96bd
000000f0: 4869 9e3e 310d dc3d c2b2 293e af75 ba3c
00000100: 2708 2d3e fe03 963e 18df 193e 2429 aa3f
00000110: c6bf dfbe ee7a ad3f e2fa 01bf 1674 443f
00000120: 495d 04be 0132 c93e 885f e93c 72fd 813e
00000130: faca b1bc 2549 313e 8ade 01be 584f 14bf
00000140: cd84 cabe 6789 24bf 05d6 a0be fae6 e2be
00000150: db13 1fbe 7e96 72be 4f9d 89be aab6 26bd
00000160: 8564 e8be 23de 1e3e 8930 b2be 7f38 ec3d
00000170: 56f3 0f3f f32b ba3e 5a69 403f d8d6 2c3e
00000180: 572b 113f e024 823d 737f 503e 5913 cf3e
00000190: 7c3c 4dbe dd67 323f 877f b4be 28dd d73e
000001a0: fe63 d6bc 7e5a 3fbe ae06 16bf cf57 79be
000001b0: da74 59bf b180 813d 83b8 28bf 1300 983d
000001c0: 5694 a2be 38fd 1dbe c3bf b6bd 8311 92be
000001d0: 2565 5abc d172 3a3f 0169 523e d1aa aebf
000001e0: 67ae b03d f46e a63e 1a57 aebd c7a3 7bbf
000001f0: 3c7f 9cbe 9d60 c9be 4fe0 0bbf 3453 d6be
00000200: ff92 05bf 8a79 743c 994b 313e 1a0b 543e
00000210: 5782 953f 6d58 61be 8268 bf3f 2045 35bf
00000220: b892 7b3f 5157 98be 7614 be3e cd34 643e
00000230: d266 213c 961e 8e3e 5c8c 61bd f7ba aa3e
00000240: df8f 543e 4d0e a63f aa40 e4be fd1a b63f
00000250: abc3 28bf 8896 6b3f 115a 4dbe a6ab f53e
00000260: 04ba 8d3d fc30 7c3e 552e 653d d266 983d
00000270: 6ace 14be 15f1 15bf 0577 e3be 1655 2cbf
00000280: 63fd 70be bd36 07bf 5963 8bbd 4230 a8be
00000290: 5759 49be 6397 3fbe aca0 b8be 161e 7a3d
000002a0: f7a4 9dbe 9d93 103d 6d58 a93e 49c8 fa3e
000002b0: 7363 e13e a1dc d73e eb96 7a3e 9c9f c63e
000002c0: fb8e a03d 0bfd c43e 7b60 70bd 3eb4 cb3e
000002d0: 8261 d4bd d412 653e ab94 ffbd 5664 17bf
000002e0: 4b4c dfbe ed8d 27bf e045 a2be bf72 d2be
000002f0: 692d 58be 14d8 1abe 7a3c c7be 474a 633d
00000300: ae39 08bf fe2b 483e e181 b5be e33e af3e
00000310: 29b9 7c3e 56aa a23f f363 9fbe 1023 b63f
00000320: e12d 26bf 2e42 673f d3fc 02be e8cd d83e
00000330: 39fc 213e b95a 693e bc30 b23c c74d 333e
00000340: 6fd4 00ba 00f6 8bbd 61c5 10be de67 53be
00000350: 47fc 71be c8b9 acbe 2751 10bf d3e2 9ebe
00000360: 5806 0bbf edbf c1ba 1f50 c2be 5cd4 273a
00000370: 1d62 8fbe 159f 0a3e 1e9f 023f be19 e43e
00000380: af2c 103f ae1c 873e ab91 d23e 673b 143e
00000390: 6476 4b3e 2ff4 aa3e 3fa2 4a3d b5c6 bf3e
000003a0: c675 acbd 60ba 803e ee7f af3e c3fc 4f3d
000003b0: df5b bb3f fbac ddbe 2ec1 b03f 57f8 ebbe
000003c0: a3a1 3e3f 5cfa 90bd 0b88 b23e 7ccc b83d
000003d0: cff4 5c3e 206b a0bc c6a0 4f3e fe3a 9d3e
000003e0: b612 bb3d 6177 ac3f 8613 d4be 86c2 af3f
000003f0: c438 eabe f1e4 443f 359f f0bd 95c1 c83e

fcs.0.weight f4 [64, 12]
-0.5855168 0.22126412 0.29159766 0.13468358 0.4604291 0.027227107 0.066259965 0.4678977
0.47404242 0.43609327 0.3973697 0.00047012174 -0.002623914 0.3664325 0.8823938 0.21635987
0.52700436 0.4981644 -0.36967266 1.0872972 -0.13836005 -0.06958447 0.020906273 -0.029950265
0.0031715143 -0.14287584 -0.112341836 -0.6848469 -0.20658761 -0.5970199 0.7382666 -0.6490737
0.09069409 0.13870287 0.019548822 0.039145354 -0.32046482 0.02777813 0.02630038 0.3023379
0.23247376 -0.062758744 0.01576456 0.11425327 0.15835245 0.3479444 0.32092795 3.2844833e-05
-0.009534106 0.5705425 0.97768825 -0.10324596 0.88491905 0.74256825 -0.1758219 0.8867036
0.018370707 -0.037349336 0.03514885 -0.03152043 -0.029749624 0.5497354 0.9988889 0.11151243
0.5991491 0.80629766 -0.16459917 0.9340043 -0.0815351 -0.074759975 0.008546581 -0.0386076
0.0205177 -0.37484035 -0.16037114 -0.6472914 -0.26379937 -0.5731336 0.6083759 -0.6993885
0.043607194 0.07228209 0.035363775 0.013669432 0.01172021 -0.19728674 -0.26054028 -0.8158723
-0.3290544 -0.4489106 0.42427665 -0.6438646 0.008759696 0.12577185 0.031604372 0.023315314
-0.010491242 -0.6016074 -0.37102255 0.48528087 -0.19073702 -0.15581094 0.14258763 0.67116064
0.24687545 0.21120816 0.21577942 -0.018399417 -0.059921402 -0.46695808 0.0483435 -0.0384629
-0.005549999 -0.01480782 -0.18212967 -0.002927402 0.15275386 0.51490355 0.49345523 0.0005258778
-0.009822566 -0.0891239 1.0312169 -0.13379729 0.17851402 0.82670313 -0.18926926 0.5603015
-0.2505005 -0.05805943 -0.02763847 -0.04175662 -0.023649814 0.5929501 0.80845475 0.28756174
0.77741975 0.65853757 -0.19165151 0.9644594 -0.051347584 -0.07368535 0.0171872 -0.016597094
0.0442602 -0.084166326 -0.56569564 -0.7968362 -0.13871601 -0.3454214 0.35664967 -0.63285154
0.01897892 0.10653505 0.03637113 0.013057227 -0.002009965 -0.08998286 -0.025890298 -0.40356955
-0.01730377 -0.34307092 0.44337317 -0.2569925 0.04075121 0.056354094 0.046696525 0.012192298
0.016115801 -0.24005829 -0.18952872 -0.8744794 -0.32612783 -0.6236409 0.64199877 -0.9078582
0.0259102 0.10586345 0.01958001 0.015892567 -0.032654665 0.39251667 0.7357106 0.074655235
0.9561598 0.38334578 -0.2512374 1.0039879 -0.09261754 -0.11511267 0.029135587 -0.049948394
-0.32807252 0.058124185 0.069768704 0.17320259 0.23441835 -0.037579138 0.018050784 0.48473525
0.5249701 0.41532138 0.45225412 0.0002790351 0.007630884 -0.15791106 -0.23864846 -0.79013824
-0.27149358 -0.5830572 0.6308233 -0.40466943 0.04405155 0.07100141 0.02703717 0.009889895
-0.01152509 0.5945942 1.0589571 0.14202929 0.823239 0.560109 -0.14037125 1.173052
-0.021881772 -0.059521228 0.014284208 -0.037434153 -0.024880702 0.37257755 0.8879572 0.08468114
0.6882661 0.3337013 -0.30482078 1.1395935 -0.0781453 -0.08647906 0.020913592 -0.039521996
-0.010462779 0.55094343 0.7380331 -0.34200647 0.11784873 -0.1737719 0.11058873 0.29546055
0.037718702 0.0036400177 0.042601973 -0.021597216 -0.022259932 0.55938786 0.9199627 0.2741941
00000000: 6ee4 15bf 1093 623e 4a4c 953e 7eea 093e
00000010: 5dbd eb3e 620b df3c 4eb3 873d 4a90 ef3e
00000020: b0b5 f23e 9e47 df3e 0b74 cb3e ac7a f639
00000030: f9f5 2bbb 0a9d bb3e 8fe4 613f 718d 5d3e
00000040: c2e9 063f 670f ff3e bc45 bdbe 8e2c 8b3f
00000050: 42ae 0dbe 4d82 8ebd a243 ab3c 425a f5bc
00000060: 2ed9 4f3b 0b4e 12be 7a13 e6bd 2052 2fbf
00000070: b48b 53be 4cd6 18bf 0aff 3c3f b229 26bf
00000080: d3bd b93d 2008 0e3e da24 a03c e156 203d
00000090: f713 a4be f68e e33c e573 d73c 09cc 9a3e
000000a0: 9a0d 6e3e a887 80bd ae24 813c 9efd e93d
000000b0: 2527 223e c525 b23e ab50 a43e dfc2 0938
000000c0: f034 1cbc 130f 123f c749 7a3f 9e72 d3bd
000000d0: 0e8a 623f f418 3e3f a80a 34be 02ff 623f
000000e0: 2a7e 963c 9efb 18bd 3ef8 0f3d 911b 01bd
000000f0: 7cb5 f3bc 76bb 0c3f 2fb7 7f3f a160 e43d
00000100: d661 193f 8669 4e3f af8c 28be e81a 6f3f
00000110: e0fb a6bd c21b 99bd f506 0c3c 0123 1ebd
00000120: bc14 a83c 13eb bfbe 5538 24be e4b4 25bf
00000130: b610 87be e2b8 12bf 86be 1b3f 200b 33bf
00000140: 759d 323d a208 943d 9bd9 103d c1f5 5f3c
00000150: 2006 403c 8905 4abe 8965 85be 02dd 50bf
00000160: d179 a8be 9cd7 e5be ca3a d93e 4fd4 24bf
00000170: d484 0f3c 56ca 003e 9673 013d c2ff be3c
00000180: 75e3 2bbc f102 1abf abf6 bdbe bc76 f83e
00000190: 9150 43be e78c 1fbe 7e02 123e 2fd1 2b3f
000001a0: ebcc 7c3e f446 583e 48f5 5c3e 60ba 96bc
000001b0: 2570 75bd 2115 efbe d503 463d 468b 1dbd
000001c0: c4dc b5bb 809c 72bc 3380 3abe a8d9 3fbb
000001d0: 826b 1c3e b8d0 033f 2aa6 fc3e 10db 093a
000001e0: d4ee 20bc 9786 b6bd eafe 833f 2802 09be
000001f0: 61cc 363e d1a2 533f cdcf 41be eb6f 0f3f
00000200: 9a41 80be bacf 6dbd 136a e2bc fd08 2bbd
00000210: 41bd c1bc 94cb 173f e4f6 4e3f 4b3b 933e
00000220: fb04 473f eb95 283f 4b40 44be d0e6 763f
00000230: d851 52bd 58e8 96bd 2ccc 8c3c a1f6 87bc
00000240: 2f4a 353d 655f acbd 6ed1 10bf 75fd 4bbf
00000250: 920b 0ebe 13db b0be c99a b63e 8f02 22bf
00000260: ae79 9b3c 0c2f da3d e5f9 143d fbed 553c
00000270: 9eb9 03bb ef48 b8bd e417 d4bc aba0 cebe
00000280: a3c0 8dbc fea6 afbe cf01 e33e 8594 83be
00000290: beea 263d 8dd3 663d db44 3f3d 34c2 473c
000002a0: 4905 843c d7d1 75be d113 42be e2dd 5fbf
000002b0: 3afa a6be eea6 1fbf 085a 243f 6569 68bf
000002c0: a141 d43c f0ce d83d 4266 a03c 2131 823c
000002d0: e6c0 05bd f2f7 c83e 8857 3c3f d8e4 983d
000002e0: e3c6 743f e645 c43e 30a2 80be ad82 803f
000002f0: 44ae bdbd 31c0 ebbd c1ad ee3c b096 4cbd
00000300: 1ff9 a7be a013 6e3d e5e2 8e3d 055c 313e
00000310: 5d0b 703e 95ec 19bd 3ddf 933c 382f f83e
00000320: 7164 063f 01a5 d43e da8d e73e 754b 9239
00000330: 7f0c fa3b 70b3 21be 4360 74be 8046 4abf
00000340: 3501 8bbe 3d43 15bf a37d 213f d530 cfbe
00000350: 666f 343d 3069 913d 0e7d dd3c 3a09 223c
00000360: bbd3 3cbc 5337 183f e88b 873f 2070 113e
00000370: cbbf 523f 4e63 0f3f 7bbd 0fbe 9126 963f
00000380: 6741 b3bc 88cc 73bd 5008 6a3c 8e54 19bd
00000390: 9dd2 cbbc 7cc2 be3e 2a51 633f 4e6d ad3d
000003a0: 3532 303f e6da aa3e 7811 9cbe 33de 913f
000003b0: a50a a0bd ef1b b1bd fb52 ab3c d1e1 21bd
000003c0: 136c 2bbc a10a 0d3f bdef 3c3f 791b afbe
000003d0: ad5a f13d 43f1 31be 587c e23d 9b46 973e
000003e0: ed7e 1a3d 5d8d 6e3b 687f 2e3d a5ec b0bc
000003f0: 765a b6bc 0b34 0f3f ad82 6b3f 2b63 8c3e

fcs.0.bias f4 [64]
0.011256712 0.23526272 0.60302025 0.014616532 0.31049907 0.23749073 0.34894353 0.7162475
0.2732432 0.6096487 0.27634346 0.32594046 0.53865373 0.41130686 0.5840233 0.2868016
0.026826428 0.5717783 0.1894715 0.2013665 0.49000627 0.29858914 0.49562705 0.054441016
0.028558021 -0.026991548 0.302101 0.4779259 0.40374595 0.5419134 0.6464585 0.55335754
0.52660656 0.5973712 0.6774792 0.03644564 0.034626253 0.24223551 -0.019820224 0.22267714
0.59774035 0.6268286 0.050803073 0.8587493 0.6118964 0.02198263 0.007175353 -0.0071354983
0.43417332 0.04495002 0.18005668 0.47086805 0.034549057 0.72022456 0.06548075 0.7529113
0.19891301 0.6457713 0.6966179 0.29662517 0.012611333 0.051620875 0.016240766 0.63687843
00000000: 126e 383c b6e8 703e 895f 1a3f 2e7a 6f3c
00000010: bcf9 9e3e c530 733e baa8 b23e ff5b 373f
00000020: 88e6 8b3e f011 1c3f e47c 8d3e abe1 a63e
00000030: 36e5 093f d096 d23e 8d82 153f a9d7 923e
00000040: 19c3 db3c 1060 123f d104 423e 0533 4e3e
00000050: 1ae2 fa3e ade0 983e d4c2 fd3e 8bfd 5e3d
00000060: 83f2 e93c 611d ddbc fbac 9a3e b4b2 f43e
00000070: cab7 ce3e d6ba 0a3f 4e7e 253f d7a8 0d3f
00000080: b0cf 063f 52ed 183f 476f 2d3f 0648 153d
00000090: 42d4 0d3d 960c 783e 065e a2bc 7a05 643e
000000a0: 8305 193f d777 203f e216 503d fed6 5b3f
000000b0: 3ea5 1c3f eb14 b43c 391f eb3b e6d0 e9bb
000000c0: f74b de3e 831d 383d c760 383e 9e15 f13e
000000d0: 5083 0d3d a360 383f c51a 863d ccbe 403f
000000e0: daaf 4b3e 4551 253f 8d55 323f 41df 973e
000000f0: c49f 4e3c 6970 533d 5b0b 853c 770a 233f

fcs.1.weight f4 [2, 64]
-1.1654764 1.1617069 1.1895136 -1.1359549 1.3611859 1.2136188 -1.1695575 1.1618072
-1.1469334 -1.2674212 1.2208632 1.2949574 -1.2306995 1.0940478 -1.2688842 1.3723583
-1.1831186 1.0715683 1.390873 1.169197 1.2158679 1.1815075 -1.2177069 1.1261973
-1.2389638 1.0786312 1.2872604 1.1020721 1.3953412 1.2050695 1.1697633 1.1821833
-1.2495302 1.1255814 -1.2534945 1.103616 1.2875669 -1.4076502 -1.2014889 1.2148997
1.259499 -1.3400631 1.325536 -1.3158833 1.170915 1.1282444 -1.1037955 1.1059812
1.2553544 1.1637317 -1.444601 1.1336932 -1.1373398 1.1008831 -1.4468747 -1.2902821
1.36017 -1.1386209 1.3247457 -1.2581558 1.352239 -1.2196584 -1.1418473 1.2439207
1.1016874 -1.3573914 -1.1292747 1.1698503 -1.243146 -1.379301 1.1740347 -1.213126
1.146898 1.3352808 -1.3328137 -1.3444507 1.2168565 -1.0102196 1.1646757 -1.3530558
1.1210623 -1.1651851 -1.2835488 -1.3778604 -1.0655898 -1.4062079 1.1025673 -1.1764791
1.1664227 -1.1069052 -1.357262 -1.153745 -1.246094 -1.3578546 -1.2163815 -1.1101081
1.2174593 -1.1340729 1.1286732 -1.1998149 -1.319634 1.3319654 1.1205015 -1.2912579
-1.1248735 1.2295746 -1.3347402 1.2697226 -1.0785303 -1.1797074 1.1624635 -1.1736455
-1.1269776 -1.0727464 1.4212859 -1.0982672 1.0780284 -1.1280588 1.3204021 1.2299267
-1.3345785 1.2847775 -1.2852433 1.1794419 -1.2605428 1.1046171 1.1598587 -1.1109033
00000000: 552e 95bf d0b2 943f fb41 983f f866 91bf
00000010: 573b ae3f dc57 9b3f 0fb4 95bf 19b6 943f
00000020: b7ce 92bf dc3a a2bf 3f45 9c3f 2ac1 a53f
00000030: 9087 9dbf c209 8c3f cc6a a2bf 70a9 af3f
00000040: 6e70 97bf 2629 893f 2008 b23f 3fa8 953f
00000050: 8fa1 9b3f a33b 973f d2dd 9bbf 3c27 903f
00000060: 5e96 9ebf 9610 8a3f f3c4 a43f b310 8d3f
00000070: 8a9a b23f b83f 9a3f ceba 953f c851 973f
00000080: 9bf0 9fbf 0d13 903f 8272 a0bf 4a43 8d3f
00000090: fece a43f e22d b4bf 63ca 99bf d581 9b3f
000000a0: 4337 a13f 3087 abbf 2aab a93f dd6e a8bf
000000b0: 8be0 953f 506a 903f 2c49 8dbf cb90 8d3f
000000c0: 74af a03f 29f5 943f b0e8 b8bf dc1c 913f
000000d0: 5a94 91bf bde9 8c3f 3133 b9bf f727 a5bf
000000e0: 0d1a ae3f 54be 91bf 4491 a93f 400b a1bf
000000f0: 2b16 ad3f c41d 9cbf 0d28 92bf cb38 9f3f
00000100: 1804 8d3f 00bf adbf 138c 90bf a8bd 953f
00000110: 681f 9fbf ef8c b0bf c546 963f b647 9bbf
00000120: 8ecd 923f 7bea aa3f a499 aabf f616 acbf
00000130: f4c1 9b3f e04e 81bf 1814 953f ef30 adbf
00000140: f87e 8f3f c924 95bf 544b a4bf bb5d b0bf
00000150: 3f65 88bf 9ffe b3bf ed20 8d3f de96 96bf
00000160: 574d 953f 12af 8dbf c3ba adbf ebad 93bf
00000170: 0280 9fbf 2ece adbf 64b2 9bbf 0618 8ebf
00000180: b5d5 9b3f 4d29 91bf 5d78 903f 8993 99bf
00000190: c4e9 a8bf d87d aa3f 986c 8f3f f047 a5bf
000001a0: dbfb 8fbf b362 9d3f c4d8 aabf 4586 a23f
000001b0: 480d 8abf a700 97bf 9bcb 943f 043a 96bf
000001c0: cd40 90bf c14f 89bf b2ec b53f 0594 8cbf
000001d0: d6fc 893f 3b64 90bf f002 a93f 3d6e 9d3f
000001e0: 78d3 aabf 9773 a43f da82 a4bf f4f7 963f
000001f0: 7759 a1bf 1864 8d3f 4076 943f 1432 8ebf

fcs.1.bias f4 [2]
0.75878084 -0.8567766
00000000: 763f 423f b655 5bbf
