cache/ckpts/woselfloop-genius_NormalNN-genius_trialNo47.pt (torch, 9627 bytes, 5 tensors)

alpha_params f4 [64, 13]
00000000: 0943 6dbc 6c5a 7cbd eec9 e8bd 3ea9 64be
00000010: d1a3 86be caeb a5be 65f1 debe 55df b1be
00000020: c616 aebe c990 2abe ab53 7fbe 4434 aabd
00000030: 4ba2 76be 67af c53e 575f 9b3d 8372 b53f
00000040: a373 1ebf cbb5 bf3f 44a8 32bf 47dd 583f
00000050: d436 70be a23c e23e 55b2 15bd ee17 753e
00000060: d3df 04be ee79 c73d dc29 1a3e db5a 113f
00000070: c153 b43e b773 193f a071 3e3e 14aa d93e
00000080: ab62 ca3d 486c 4d3e 7e0d 1f3e cd74 0c3e
00000090: 39ca 7f3e f692 e5bd d3e5 573e 86fc cfba
000000a0: da80 53bd 066d bbbd 0daf 1abe 4692 4fbe
000000b0: dd97 99be 6fd4 f4be 50dd c3be 8a44 ecbe
000000c0: 242e f4ba 7c3e e7be 0879 353e 4efd 91be
000000d0: c68c cb3e 7ccd 513e 9458 af3f 7534 22bf
000000e0: 6573 c73f 2fae 51bf dc2f 753f 279d 74be
000000f0: 00b7 eb3e c5c6 303d 66ba 3c3e 3c5c 5cbd
00000100: afcc 453b 1557 d03e 6616 133e 5582 b63f
00000110: a1a6 14bf 66e0 ce3f 2bee 54bf c3c0 803f
00000120: 2e24 8fbe b235 f93e 1c9f 34bd 7f3a 5b3e
00000130: df2a 94bd e86c 8b3d 24a6 f7bd def6 00bf
00000140: a40a e2be 6d64 2bbf 0e9b 1ebe 7999 04bf
00000150: 425b a3bd bdfc 18be 40b5 cdbe 1929 543e
00000160: 811c 03bf aa90 a43e 5ae4 95be 0c1f 0e3e
00000170: 9926 183f f090 c03e 92c9 2a3f 6263 113e
00000180: d8f0 043f a705 563d 1d52 3f3e 2027 a73e
00000190: b802 dbbd 2463 e53e d819 81be 8dc1 8a3e
000001a0: f279 4c3c b45c a2bd abb9 68be e7d5 32be
000001b0: eb43 afbe 0415 84be 57f8 dfbe 6b24 7fbe
000001c0: 13dd b4be 082e 0bbe 3760 59be cac1 04be
000001d0: 5082 d0bd 665c bf3f 4a3e c93e 3614 a9bf
000001e0: 3ca1 fb3b 5909 e8ba 7d45 edbd 8fd1 76bf
000001f0: 00c0 bebe 5a08 b2be b41a 0ebf e276 b6be
00000200: 1cdf f3be c9d8 67bc 9a86 3c3e edaa 28bd
00000210: 57cd 823f 1feb 65be 14bb ca3f 72d6 27bf
00000220: c826 863f c706 8ebe 7679 cd3e d702 423d
00000230: 43df 6d3c 2446 243e 7e88 59bd 9e80 c73e
00000240: fd4d a93d 2064 ba3f 7279 0abf 558a c73f
00000250: daa9 3cbf e26f 6a3f 42d9 56be 5682 d33e
00000260: b117 713c bf94 643e 86b7 cdbd d07b c53d
00000270: 0e89 1dbe 9198 10bf 9801 c2be af7d 25bf
00000280: f03c 17be 648d 08bf a03c babb c787 99be
00000290: 0f76 39be b1b5 a7bd 8c34 9bbe 6bd3 183e
000002a0: 594e 5fbe 4876 123e 3c0c 023f f1ae bc3e
000002b0: de52 0f3f 987a 643e f3a9 b73e 48cb 9e3d
000002c0: 2e6f 783e 0ced 0f3e a99d 843d 0def 9c3e
000002d0: 66a7 19be 3791 5a3e edac 08be c541 13bf
000002e0: 069e c5be 05c1 3fbf 874f 8cbd a47e 1ebf
000002f0: 577d 4c3d 6663 86be 19ec 90be 7937 2f3e
00000300: 0062 0cbf 31a1 a23e 8f2e 8ebe fd4d d53e
00000310: e439 fe3d a11c bc3f 99b8 16bf d8a1 cc3f
00000320: 4cdd 44bf 51d4 6e3f 0efb 61be d744 d33e
00000330: 47b2 673d e7d8 3a3e 6122 91bd 2817 833d
00000340: d99e 88bb 3ce6 89bd e492 e9bd a59c 4dbe
00000350: 9579 8abe 61ec 93be 8c85 e3be 2673 abbe
00000360: 3c85 d4be d2e4 e6bd 1204 bcbe d666 913c
00000370: 077c 7ebe 2ab4 fd3d b495 103f 3222 af3e
00000380: 3d4a 333f 6feb 873d f78f 0d3f e28c bb3b
00000390: a6ed 583e 27bd 8e3e 8dfa 05be d7b6 f53e
000003a0: 424e a5be 543e 9a3e 3094 d03e 4466 ee3d
000003b0: 95bf b93f 5b4a 10bf 324e cd3f 7fc2 40bf
000003c0: 8a40 6f3f c7c6 89be c16a f23e b126 5b3c
000003d0: bc7b 533e 2eb2 a0bd d9d7 923d 753d ca3e
000003e0: fe1f 633e 4c15 a93f 73ba 0abf 38b7 c03f
000003f0: 6047 47bf a090 733f 5136 7abe 2944 de3e
-0.014481314 -0.06160967 -0.1136664 -0.22330186 -0.26296857 -0.32406455 -0.43543544 -0.347407
-0.3400175 -0.16656794 -0.2493426 -0.0831075 -0.24085347 0.38610384 0.07586544 1.4175571
-0.618952 1.4977354 -0.69788 0.8471264 -0.23458415 0.44186884 -0.036547024 0.2393491
-0.12976007 0.09740053 0.1505503 0.5677926 0.3522015 0.5994219 0.18598032 0.42512572
0.09882101 0.20060837 0.1553249 0.13716431 0.24979486 -0.11209671 0.21083765 -0.0015868105
-0.051636554 -0.09151654 -0.15105839 -0.20270643 -0.29998675 -0.47818324 -0.38254786 -0.4614604
-0.0018629474 -0.4516486 0.17721951 -0.2851357 0.3975584 0.20488542 1.3698907 -0.63361293
1.5582091 -0.8190641 0.9577615 -0.23888074 0.46038055 0.04315831 0.1843048 -0.0537989
0.0030181815 0.40691438 0.14364013 1.4258524 -0.58066756 1.6162231 -0.83175915 1.0058826
-0.2795729 0.4867378 -0.04409705 0.21409033 -0.072347395 0.068078816 -0.12092236 -0.5037669
-0.44148743 -0.6695011 -0.15488836 -0.5179668 -0.079763904 -0.14940162 -0.40177345 0.20718803
-0.5121537 0.3214162 -0.2927578 0.13879031 0.59433895 0.3761058 0.6671382 0.14198068
0.5193 0.052251484 0.18683667 0.32647038 -0.10693878 0.448022 -0.2521503 0.27100793
0.012480246 -0.07927838 -0.22727077 -0.1746441 -0.34231505 -0.25797284 -0.43744156 -0.24916236
-0.35324916 -0.13591778 -0.2122811 -0.1296455 -0.10181105 1.4950073 0.39305335 -1.3209293
0.0076791327 -0.0017702981 -0.115855195 -0.9641351 -0.3725586 -0.34771997 -0.55509496 -0.35637575
-0.47631156 -0.014150807 0.18410721 -0.041178633 1.0218915 -0.22452973 1.5838342 -0.6556159
1.0480585 -0.27739546 0.4013173 0.04736599 0.014518562 0.16042382 -0.053108685 0.38965315
0.08266828 1.4561806 -0.5409156 1.558909 -0.7369667 0.9157697 -0.20981315 0.41310376
0.014715121 0.22322367 -0.1004477 0.09642756 -0.15384313 -0.564828 -0.3789184 -0.646449
-0.1476934 -0.53340745 -0.0056834966 -0.29986402 -0.18111442 -0.08188952 -0.30313528 0.149244
-0.21807231 0.14302933 0.5079992 0.3685222 0.5598582 0.22312391 0.35871848 0.077536166
0.24261162 0.1405527 0.06475384 0.3065113 -0.15005264 0.21344458 -0.13347216 -0.5752223
-0.38597125 -0.749039 -0.06851106 -0.6191199 0.04992422 -0.2624771 -0.28305128 0.17111005
-0.54837036 0.31763604 -0.27769896 0.41661063 0.124133855 1.4696237 -0.58875424 1.5986891
-0.7690017 0.9329272 -0.22068426 0.41263458 0.056566503 0.18246804 -0.070866354 0.06400901
-0.0041693267 -0.06733367 -0.1140497 -0.20079286 -0.27045885 -0.2889128 -0.44437826 -0.3348629
-0.415079 -0.11274113 -0.36721855 0.017749231 -0.24852 0.12387879 0.5647843 0.34205776
0.70035154 0.06636702 0.552978 0.0057235816 0.21184406 0.27878687 -0.13083859 0.47991058
-0.32286268 0.30125678 0.40738058 0.11640599 1.4511591 -0.5636346 1.6039488 -0.7529678
0.93457854 -0.26909468 0.47347072 0.013375924 0.2065267 -0.07846485 0.07170076 0.39500013
0.22180173 1.3209624 -0.5419075 1.5055914 -0.77843285 0.95142555 -0.24434783 0.43411377

fcs.0.weight f4 [64, 12]
00000000: 60d7 21bf 2c4a 5c3e 9928 873e 2b6b 1e3e
00000010: 4783 083f 0a96 213c 829e 2d3d 5d50 ed3e
00000020: f3ac ef3e b403 d23e 3fbf c33e 34ad e338
00000030: b69a 6dbb a6aa 943e 5079 823f 8e3f 433e
00000040: e35b 083f 7550 dc3e ba6c f8be 3bf0 bb3f
00000050: ba20 30be 802f d1bd daa6 8a3c 9278 42bd
00000060: e999 7b3d 391f 26be fc1d 57bd be20 33bf
00000070: d90e 92be 3553 45bf e2ff 583f 03d7 47bf
00000080: 6f55 223d a8f8 9f3d 9e7c 713b 6a2b ab3c
00000090: 0b6f 9ebe 9e82 1f3d 73a2 8b3d cada c33e
000000a0: bc30 463e 0273 55bd 9097 ec3c ae60 573e
000000b0: 801e 7e3e c1dc cd3e d1e0 c13e 5953 b637
000000c0: 8be9 45bc ff4c f33e f033 903f 6ee4 2ebd
000000d0: 5b21 6a3f b5e1 353f f9c2 9dbe 4836 9b3f
000000e0: b181 bfbd 83ef b1bd 577e 9d3c dc43 fbbc
000000f0: 516a f9bc 7868 cb3e 5e59 8f3f 13be 743e
00000100: a976 003f e9fa 153f aa2f e2be db54 ac3f
00000110: 13f8 29be 0e69 bfbd 4c37 c23c 2d3e 2bbd
00000120: d0d9 9e3b 1ff0 4bbe b06f 68be fa8a 6bbf
00000130: de37 bbbe 6e91 65bf bc59 5b3f 1c84 8abf
00000140: a451 8b3d 23dc 203e c02a 743d 842e a13c
00000150: 7629 f83c 9ba2 42be a35b 4cbe b553 6cbf
00000160: 3681 f4be 6fa1 3bbf b5c9 083f 47fc 62bf
00000170: 8266 8b3d e79d 303e 59fb 923c 94b9 413d
00000180: 9683 e0bc dcf8 73be 600b bb3e 6905 f93e
00000190: e5ca 45bd bc84 42be fc99 803e aefa c53e
000001a0: 0036 923e c2af 763e f90c 6d3e 8476 a6b7
000001b0: 0af2 82bd 873f eebe 2bdd 0dbd 1f75 85bd
000001c0: 577a b23b b2ab 4fbb 87e7 94be 6bc3 b8bc
000001d0: 766a aa3d 096c ab3e 06b1 a33e b940 9c38
000001e0: 9d31 a4bc 12e2 303b 51a7 a13f e2dc 60be
000001f0: e48b 4d3e 1d6f 5b3f 773b 81be 398b 8d3f
00000200: ca34 b7be 6565 f8bd 2d4b d5bd 361d f9bc
00000210: d70d b1bc ca3b 1a3f 5f52 813f 0b6f bd3e
00000220: 0dcd 703f 97f0 463f 305b 98be 3d7a a03f
00000230: a45e cfbd 3198 b5bd 2c6f 6a3c 35a6 e3bc
00000240: 9a8e 4d3d bd38 48be c9a0 12bf 05e1 31bf
00000250: 9229 85be 398f 0ebf e1bb ae3e a074 20bf
00000260: 7d0d 2c3c 9d40 c73c 283d 183b 42c2 b33b
00000270: cb47 973d 3390 20be 1617 d5bd f6ba cdbe
00000280: 8f87 8bbe 5758 93be 4be6 d33e c428 8cbe
00000290: de9b 943a edf5 a33b d9d8 493a e4bc a93a
000002a0: 9856 903d c610 2fbe a21c 74be f004 71bf
000002b0: b00b 5dbe f94c 0cbf b482 4a3f 925d 88bf
000002c0: bae1 a33d a7cb 273e 2460 9e3c 6077 823d
000002d0: 58e1 61bc 1fd4 f53e a0ce 7b3f dcf4 1c3e
000002e0: 1302 8b3f f6af f53e b0b9 a3be ca18 ac3f
000002f0: ec79 14be 91ee e0bd 05d4 6d3c 26a4 37bd
00000300: 283d b4be 16f2 a23d da10 d33c 12d9 8c3e
00000310: 8b94 a53e 0df6 7abd f8fa 0f3d 5f96 113f
00000320: c6ad 1a3f e355 ed3e b991 fd3e 4945 3b39
00000330: 6a68 0c3d cafc c6bd 646e 30be f52d 73bf
00000340: b77c 98be c5c0 2ebf 333d 573f 4e0d 4ebf
00000350: 7285 a53d cf82 273e e28f e63c d45e 163d
00000360: 709a 73bc 8a54 023f 24e7 993f f7c7 643e
00000370: c52e 763f ee95 363f f71c 8dbe ad43 c23f
00000380: b6b9 1bbe 726d c7bd c2aa 553c 51b1 2dbd
00000390: 1cc1 b0bc b9f2 b73e 874e 7d3f 1c2e ad3e
000003a0: 04c3 503f 4205 f43e 2f88 f3be e3c7 b13f
000003b0: 76a9 25be fcdf 05be 21ed a33c 7ffe 3dbd
000003c0: 8ce3 893d 88b3 8abd 977e b93e 0b3f c0be
000003d0: 6351 9fbe 0dc5 4dbf 9eca 3a3e 2426 9dbe
000003e0: 4988 df3b 209e 493c d548 b73a f61c ae3a
000003f0: 2b65 73bc 06bc 003f fd8f 893f 4d78 b83e
-0.6321926 0.2151267 0.2639816 0.15470569 0.53325313 0.009862432 0.042387493 0.46350375
0.46811637 0.4101845 0.38231847 0.00010856465 -0.0036255545 0.29036444 1.0193272 0.19067213
0.5326521 0.43030134 -0.48520452 1.4682688 -0.17199984 -0.10214138 0.016925264 -0.047478266
0.061426077 -0.16222848 -0.05251883 -0.69971836 -0.28526953 -0.7708009 0.84765446 -0.78062457
0.039632257 0.07811099 0.003684796 0.020894725 -0.30944094 0.038942926 0.06818094 0.3825286
0.19354528 -0.052111633 0.028880864 0.21032974 0.24816322 0.40207484 0.37866834 2.1734902e-05
-0.012079607 0.4751968 1.126585 -0.042698316 0.91457146 0.71047527 -0.30812815 1.212594
-0.093509085 -0.08688261 0.019225283 -0.030672006 -0.030446203 0.3972814 1.1199148 0.23900633
0.5018106 0.58585984 -0.4417699 1.3463396 -0.16598539 -0.093462095 0.023708008 -0.041807342
0.0048477426 -0.19915818 -0.22698855 -0.92008936 -0.3656606 -0.89675033 0.856838 -1.0821567
0.06802681 0.15708975 0.059611082 0.0196755 0.030293208 -0.19007342 -0.19956832 -0.92315227
-0.4775483 -0.73293203 0.5343278 -0.88666195 0.06806661 0.17247735 0.017942118 0.04729612
-0.027406495 -0.23825401 0.36532116 0.4863694 -0.0482892 -0.18995947 0.2511748 0.38667816
0.28556824 0.24090484 0.2314948 -1.984393e-05 -0.063938215 -0.46532843 -0.03463475 -0.0651648
0.005446713 -0.0031688032 -0.2908289 -0.02255412 0.08321087 0.33480862 0.31970996 7.450715e-05
-0.020043189 0.0026990217 1.2629186 -0.2195926 0.20072895 0.8571642 -0.2524068 1.1058112
-0.35782462 -0.121287145 -0.10414729 -0.030409437 -0.021613045 0.6024748 1.0103263 0.36998782
0.9406288 0.7771086 -0.2975707 1.2537304 -0.10125473 -0.08866919 0.014308732 -0.027789215
0.050184824 -0.19552894 -0.5727659 -0.6948398 -0.26008278 -0.5568729 0.34127715 -0.62677956
0.010501263 0.024322802 0.0023229811 0.005485804 0.0738674 -0.15680008 -0.10404794 -0.40181702
-0.2725186 -0.28778335 0.41386637 -0.27374852 0.0011337956 0.005003682 0.00076998543 0.001294997
0.070477664 -0.17096242 -0.23839048 -0.9414816 -0.2158649 -0.5480495 0.7910569 -1.0653555
0.08002038 0.16386281 0.019332953 0.06370425 -0.013786636 0.48013398 0.9836216 0.15327781
1.0860008 0.4798581 -0.31977606 1.3445065 -0.14499635 -0.10983003 0.014515881 -0.04483428
-0.3520291 0.079563305 0.025764871 0.27509362 0.32339892 -0.06126981 0.03515145 0.56870073
0.6042141 0.4635459 0.4952524 0.0001785952 0.034279265 -0.097161844 -0.1722961 -0.94992
-0.2978265 -0.6826289 0.8407776 -0.8048905 0.08082093 0.16358493 0.02814478 0.03671153
-0.014868364 0.50910246 1.2023664 0.22341906 0.96165115 0.71322525 -0.2756116 1.5176903
-0.15207562 -0.09737672 0.0130412 -0.04240543 -0.021576457 0.3592737 0.9894795 0.3382424
0.8154757 0.4766026 -0.47564837 1.3889126 -0.16177925 -0.13073725 0.020010533 -0.046385285
0.06732854 -0.06772524 0.36229393 -0.37548098 -0.3111678 -0.803788 0.18241355 -0.3069316
0.0068216664 0.012305766 0.0013983498 0.0013283778 -0.014855663 0.502869 1.0747067 0.36029282

fcs.0.bias f4 [64]
00000000: 3f92 78bc b7f3 c9bc b292 1e3f 0ef9 81ba
00000010: 92bc 373e f1b4 0c3b 6cf2 c23e 437d 243f
00000020: 23b0 f73c bb63 223f 69d0 96ba eec3 013e
00000030: 3878 213f 28dc b13e f026 133f c65a 333e
00000040: 1bf3 cdba 3d88 0e3f c43e e73c c665 2c3e
00000050: 4997 5a3f 769b 493e 7595 f43e e444 41bd
00000060: a51d a43b e730 97bd 1eed 803d 0721 1a3f
00000070: f1ce ce3d 5ed5 f93e aacf 033f f0f3 2f3f
00000080: 4d60 e43e 07ab 073f 0b3d 1b3f 0959 d1bc
00000090: c193 313d ffb4 a53e adc5 08bd be22 7b3d
000000a0: e3b8 fe3e efe1 213f 6507 873d c933 5d3f
000000b0: a7da 1f3f b06a e8bc 7d6b 013b 339c 5dbc
000000c0: 9c3b 023f 999a 94bc 888f 083d dbd5 fa3e
000000d0: 4eb3 6f3b e6f7 253f 06c8 0bbc 0f75 4a3f
000000e0: 9b53 823b 37eb 393f 2abb f63e 0a2e a93e
000000f0: 8802 193a 63f3 86ba 706b c639 7486 123f
-0.015171587 -0.024652345 0.6194259 -0.0009916143 0.17943028 0.0021470154 0.38075578 0.64253634
0.030235356 0.63433427 -0.0011506203 0.12672397 0.63074064 0.34738278 0.5748129 0.17515096
-0.001571271 0.55676633 0.028228171 0.16835698 0.8538709 0.1968821 0.47770277 -0.04718484
0.0050084167 -0.07382374 0.062952265 0.60206646 0.10098065 0.487956 0.51488745 0.68731594
0.44604722 0.5299534 0.6064002 -0.02555515 0.0433538 0.32364652 -0.033391643 0.06131243
0.49750432 0.6323537 0.06593207 0.8640714 0.6244301 -0.028371185 0.0019747906 -0.01352601
0.50872207 -0.018140124 0.033340007 0.48991284 0.003657538 0.6483139 -0.008531576 0.7908487
0.0039772517 0.72624534 0.4818967 0.33042938 0.0005836864 -0.0010295924 0.0003784555 0.5723641

fcs.1.weight f4 [2, 64]
00000000: 39c8 a7bf d07e bb3f 22c2 ae3f d75f aabf
00000010: be36 d63f c830 cd3f f62d babf 0b50 b43f
00000020: 3693 a1bf b95f d3bf 4fc7 c33f ab57 cf3f
00000030: a4ca b5bf 910c af3f bf40 c2bf 7a5b d93f
00000040: 1dd0 afbf 20b8 aa3f 2502 dd3f 11eb c03f
00000050: 68dc b13f 2a85 be3f 0149 c7bf 1005 a43f
00000060: f5c4 b5bf 01af 9b3f 8d95 d13f 5012 af3f
00000070: 2a18 db3f 0261 c23f 31f4 a13f 31dc b53f
00000080: ed6f b7bf 62a5 ab3f ef2f c4bf b75f a13f
00000090: acbe c83f 2a32 e9bf 5a4d b1bf 194c c23f
000000a0: 2f62 bc3f 11b1 d8bf feb9 cc3f 0100 d8bf
000000b0: 110e b13f 5011 a63f 0b02 aabf 4804 a33f
000000c0: 78b2 ba3f 2ab5 a63f 96bd e6bf 9633 ae3f
000000d0: fc47 a7bf 8a84 af3f 1b54 e8bf e7e4 d5bf
000000e0: 4ff6 d23f 37f7 c2bf e78a da3f c49c c6bf
000000f0: be86 bc3f f45b b1bf 4645 a6bf 1200 b73f
00000100: ffd1 9e3f 7406 d5bf d029 a6bf fbed ad3f
00000110: be95 c7bf bb2f e3bf 6d50 ba3f 8f6c babf
00000120: bec4 9e3f ae32 de3f a2a6 d2bf 3d38 d6bf
00000130: 3db4 b33f f060 a4bf 0a98 b43f 757c d7bf
00000140: ee04 a73f 0f34 b6bf 6ae1 cfbf a308 dcbf
00000150: d216 9ebf 03bc dbbf 9b9b b83f e476 a9bf
00000160: e179 ab3f e4e0 9ebf e719 dbbf 2b76 b5bf
00000170: 5c84 c8bf 4164 d6bf c040 a6bf 5cf4 abbf
00000180: 7aad b23f 8c2a acbf b3f8 b33f 6cc5 acbf
00000190: 04bc cdbf 03af e03f 2499 a63f 0987 ccbf
000001a0: 00ee aabf 50a7 cb3f 0654 cebf a6f3 d33f
000001b0: 17a4 a4bf 53e9 abbf cbad b03f 404a abbf
000001c0: 9c7a a9bf 2531 9abf fb32 e43f be4c a9bf
000001d0: 78dc 9e3f 265f b2bf f8c4 d83f 5722 d03f
000001e0: 673d d0bf becc d63f 6423 d6bf 8f72 bc3f
000001f0: b887 afbf d475 a13f dfbe a73f 6c78 a5bf
-1.3107978 1.4648075 1.3652995 -1.3310498 1.6735456 1.6030512 -1.4545276 1.4086927
-1.262305 -1.6513587 1.5295199 1.6198629 -1.4202466 1.367571 -1.5176009 1.6981041
-1.3735386 1.333744 1.726628 1.5071737 1.3895388 1.4884388 -1.5569154 1.2814045
-1.4200732 1.2162782 1.6373764 1.3677464 1.7116749 1.5185854 1.2652646 1.4207822
-1.4331032 1.3409846 -1.5327128 1.2607335 1.5683188 -1.8218434 -1.3851731 1.5179473
1.4717463 -1.6929036 1.599426 -1.6875001 1.3832418 1.2974033 -1.3281873 1.2735682
1.4585714 1.3024037 -1.8026607 1.3609493 -1.3068843 1.3712323 -1.8150667 -1.671048
1.6481417 -1.5231694 1.707364 -1.5516591 1.472862 -1.3856187 -1.298989 1.4296896
1.2407836 -1.6642594 -1.298151 1.3588251 -1.5592573 -1.7748941 1.4555794 -1.456438
1.2403791 1.7359216 -1.6457102 -1.6735913 1.4039379 -1.2842083 1.4108899 -1.6834856
1.304838 -1.4234637 -1.6240666 -1.7190136 -1.2350714 -1.7166752 1.4422487 -1.3239408
1.339657 -1.2412381 -1.711728 -1.4176687 -1.5665393 -1.6749345 -1.298851 -1.3433948
1.3959191 -1.3450484 1.4060272 -1.3497748 -1.6073003 1.7553409 1.3015485 -1.597871
-1.3353882 1.5910435 -1.6119392 1.6558731 -1.2862576 -1.343058 1.3803037 -1.3382034
-1.3240542 -1.2046248 1.7828058 -1.3226545 1.2411032 -1.3935287 1.693511 1.626048
-1.6268739 1.6781232 -1.672955 1.472246 -1.3713293 1.2614083 1.3105124 -1.2927375

fcs.1.bias f4 [2]
00000000: a869 643f 4942 7abf
0.8922372 -0.97757393
