cache/ckpts/woselfloop-genius_NormalNN-genius_trialNo0.pt (torch, 12123 bytes, 5 tensors)

alpha_params f4 [64, 21]
-1.0506059 -1.6780088 -1.9583352 -1.5960976 -1.4951494 -0.386206 -1.4277229 0.32009298
-1.1968505 -0.29884133 -0.35981947 -0.5918206 0.23266454 -0.1604756 0.85949415 0.060986716
0.5857864 0.69673884 0.20009765 1.3059003 0.508409 2.9535592 1.5678144 1.994143
1.4015608 1.5852138 -0.027066493 1.5529319 -0.52849597 1.2641691 0.27670613 0.31597787
0.6429273 -0.2780965 0.20036416 -0.7868987 -0.20848691 -0.5797571 -0.7803898 -0.4327103
-1.4111207 -0.77066565 3.2727008 1.4055551 2.0630367 0.8835345 1.729433 -0.3733297
1.8674234 -0.6926053 1.3441994 0.11245576 0.14379069 0.6723009 -0.4740047 0.32206327
-0.60586864 -0.16815844 -0.56471425 -0.6223255 -0.4381549 -1.2037545 -0.7962133 3.342396
1.3079616 2.1629598 0.61733603 1.8737341 -0.9450636 1.9532235 -1.0700188 1.3233628
0.4098399 0.048584852 0.6852295 -0.558141 0.16860507 -0.7575573 -0.4585465 -0.676361
-0.5305276 -0.71084434 -0.952543 -1.0642081 3.2532027 1.5108454 2.1393573 0.9136446
1.7361763 -0.43651834 1.8459066 -0.6284421 1.3698319 0.19283111 0.12842695 0.61157227
-0.49634048 0.2807055 -0.56681544 -0.3154184 -0.41088188 -0.75418335 -0.4620226 -1.188484
-0.92272705 2.8328433 1.6297772 1.8607455 1.3499568 1.4428848 -0.31016842 1.4216431
-0.7586734 1.15947 0.21269254 0.36370453 0.54511094 -0.2916392 0.12814488 -0.8431854
-0.18717168 -0.53368896 -0.80609006 -0.3004531 -1.2730372 -0.68466717 -0.99921614 -1.6277905
-1.9419899 -1.54936 -1.4939344 -0.5193318 -1.4260435 0.077117026 -1.1872631 -0.38474375
-0.43301308 -0.5853763 0.1529077 -0.21430296 0.78016657 -0.013419721 0.55057913 0.66794425
0.2717567 1.2481419 0.47217667 2.3349848 0.73245883 2.598986 0.05440844 2.334587
-0.7760392 2.0787468 -0.8160608 1.3822405 0.15259944 0.11122427 0.3815026 -0.51325494
0.14367881 -0.67981535 -0.07938337 -0.797217 -0.49908096 -0.77923155 -1.1838616 -0.8908406
-1.302057 -1.3456286 -2.161076 -0.85852706 -1.9342399 0.49326295 -2.0233412 0.6888966
-1.5499263 -0.0060688322 -0.09512843 -0.60495913 0.49955174 -0.2836585 0.6029391 0.35993764
0.65999156 0.74050844 0.57161725 1.20072 0.9132464 -0.14930099 -0.8147394 -1.1531812
-1.0501497 -1.5638413 -1.3297172 -1.6436269 -1.1147679 -1.4197701 -0.92321473 -0.9593053
-0.9184747 -0.64876205 -1.0048275 -0.3932781 -0.7743939 -0.23369655 -0.25128317 0.2262789
0.39696816 0.9490968 2.8339458 1.5979338 1.8545189 1.4535227 1.3941853 -0.0008843369
1.3442128 -0.44497168 1.2006567 0.3215112 0.5054571 0.464073 -0.15794595 0.084742494
-0.77913666 -0.16269892 -0.55696946 -0.7433848 -0.31862235 -1.2294704 -0.6277593 3.287243
1.5217372 2.1229837 0.88111186 1.7257622 -0.47110996 1.8477712 -0.74384725 1.3437194
0.15653653 0.15052503 0.60590595 -0.49138644 0.20404576 -0.60283554 -0.31220514 -0.5337178
-0.70561755 -0.59711224 -1.259782 -0.9060821 -1.0982729 -1.4244792 -2.086966 -1.2505629
00000000: 417a 86bf fec8 d6bf baaa fabf ed4c ccbf
00000010: 0e61 bfbf cbbc c5be a0bf b6bf 3ae3 a33e
00000020: 6632 99bf bb01 99be 423a b8be 8e81 17bf
00000030: 9d3f 6e3e b753 24be cf07 5c3f 35cd 793d
00000040: 19f6 153f 7a5d 323f 66e6 4c3e be27 a73f
00000050: 1827 023f 1d07 3d40 24ae c83f 1440 ff3f
00000060: 5866 b33f 49e8 ca3f 8dba ddbc 79c6 c63f
00000070: 834b 07bf 4bd0 a13f 6dac 8d3e dac7 a13e
00000080: e296 243f aa62 8ebe 432c 4d3e 3172 49bf
00000090: 987d 55be f66a 14bf a0c7 47bf 348c ddbe
000000a0: 9a9f b4bf 584a 45bf ee73 5140 3be9 b33f
000000b0: cb08 0440 512f 623f 0f5e dd3f 1225 bfbe
000000c0: bb07 ef3f 954e 31bf ba0e ac3f 354f e63d
000000d0: de3d 133e e91b 2c3f beb0 f2be 7ae5 a43e
000000e0: 351a 1bbf ba31 2cbe 1d91 10bf b950 1fbf
000000f0: d755 e0be a114 9abf a3d4 4bbf d1e9 5540
00000100: 496b a73f ef6d 0a40 bc09 1e3f 85d6 ef3f
00000110: b0ef 71bf 3a03 fa3f 60f6 88bf f463 a93f
00000120: 89d6 d13e e900 473d 336b 2f3f 54e2 0ebf
00000130: cfa6 2c3e 46ef 41bf 9bc6 eabe ff25 2dbf
00000140: a8d0 07bf e5f9 35bf dcd9 73bf f937 88bf
00000150: 7934 5040 6263 c13f 3beb 0840 9de4 693f
00000160: 063b de3f 557f dfbe ab46 ec3f 95e1 20bf
00000170: a756 af3f 8575 453e 5b82 033e 0090 1c3f
00000180: 5720 febe a2b8 8f3e d11a 11bf 857e a1be
00000190: 1c5f d2be 2912 41bf 3a8e ecbe 3e20 98bf
000001a0: d737 6cbf 4e4d 3540 8a9c d03f e92c ee3f
000001b0: 62cb ac3f 73b0 b83f 65ce 9ebe 67f8 b53f
000001c0: 6c38 42bf 8369 943f 13cc 593e 7b37 ba3e
000001d0: 648c 0b3f bc51 95be 6938 033e 00db 57bf
000001e0: efa9 3fbe d79f 08bf eb5b 4ebf fdd4 99be
000001f0: e2f2 a2bf 5946 2fbf a1cc 7fbf 705b d0bf
00000200: 2093 f8bf 6e51 c6bf 3e39 bfbf eef2 04bf
00000210: 9888 b6bf 88ef 9d3d 3df8 97bf 22fd c4be
00000220: e4b3 ddbe 39db 15bf d693 1c3e 3c72 5bbe
00000230: ffb8 473f 64de 5bbc c1f2 0c3f 65fe 2a3f
00000240: b223 8b3e 1dc3 9f3f 24c1 f13e 6470 1540
00000250: 6c82 3b3f c955 2640 62db 5e3d e069 1540
00000260: 81aa 46bf 300a 0540 5ce9 50bf 42ed b03f
00000270: 0743 1c3e 8dc9 e33d 4f54 c33e ad64 03bf
00000280: 8a20 133e 6108 2ebf c093 a2bd 6a16 4cbf
00000290: 8a87 ffbe b87b 47bf c788 97bf 210e 64bf
000002a0: cea9 a6bf 8f3d acbf 124f 0ac0 6ec8 5bbf
000002b0: 2c95 f7bf f68c fc3e 6c7e 01c0 875b 303f
000002c0: fc63 c6bf 0edd c6bb b2d2 c2bd 9ade 1abf
000002d0: 3fc5 ff3e b03b 91be 385a 1a3f bf49 b83e
000002e0: 35f5 283f f691 3d3f 8255 123f 31b1 993f
000002f0: 84ca 693f 5ce2 18be c392 50bf 719b 93bf
00000300: 4e6b 86bf f42b c8bf 2c34 aabf 5e62 d2bf
00000310: b7b0 8ebf 07bb b5bf cd57 6cbf 0895 75bf
00000320: 2821 6bbf 4515 26bf 309e 80bf bf5b c9be
00000330: ae3e 46bf 264e 6fbe 30a8 80be a8b5 673e
00000340: 693f cb3e 02f8 723f 5e5f 3540 1889 cc3f
00000350: e060 ed3f 080d ba3f aa74 b23f d8d2 67ba
00000360: 2a0f ac3f 54d3 e3be 1eaf 993f 1e9d a43e
00000370: a365 013f fa9a ed3e 95bc 21be 798d ad3d
00000380: 8075 47bf 8c9a 26be 8d95 0ebf 774e 3ebf
00000390: 7822 a3be 495f 9dbf d5b4 20bf 3062 5240
000003a0: 49c8 c23f f7de 0740 8c90 613f c7e5 dc3f
000003b0: 5335 f1be c483 ec3f c66c 3ebf fffe ab3f
000003c0: 1d4b 203e 3c23 1a3e a71c 1b3f 0197 fbbe
000003d0: 5ff1 503e 6e53 1abf 5ad9 9fbe bba1 08bf
000003e0: 5aa3 34bf 59dc 18bf 8940 a1bf fff4 67bf
000003f0: 3594 8cbf 5655 b6bf da90 05c0 7212 a0bf

fcs.0.weight f4 [64, 12]
0.052660875 -0.0057326327 -0.0879565 0.17895624 0.021512698 0.0639582 0.0022895597 0.22019307
-0.0006112192 -0.0005507884 -1.1443907e-05 -2.260322e-05 -0.0539991 0.19445099 -0.030081885 -0.1299985
-0.081011355 -0.055368863 -0.12510644 0.49521086 -0.0026744618 -0.005620547 -0.0006942149 -0.0008853752
-0.06382829 -0.026128743 0.29706046 -0.108618416 0.1096637 0.16089736 -0.11870399 0.84299546
-0.012366922 -0.00016392938 0.0016965115 -0.0030293313 -0.065168194 -0.015094615 0.17971767 -0.027746662
0.16066538 -0.008391626 -0.027800381 0.93368095 -0.009709747 0.005113071 -0.0018660694 0.0032047331
-0.086239815 -0.02781636 0.37743548 -0.05566428 0.092125356 0.13105844 -0.12979311 0.85313416
-0.011914973 -0.0015371752 0.0012693033 -0.0019110478 0.110373996 0.1221368 -0.10379419 0.011487706
0.17351083 0.10689707 -0.1520238 0.38287202 -0.00010061688 -0.00028265518 -2.7480017e-05 -0.00017946912
0.10072085 0.16552578 -0.059475854 0.08392159 0.006337493 0.021894598 -0.107437655 0.08215364
-0.00010052813 -0.00029238086 -2.5973746e-05 -0.000111206056 -0.08611815 -0.0912947 -0.17722088 -0.03467441
-0.0807382 0.21992226 -0.32497594 1.0540869 0.12093242 -0.020966427 -0.023682844 0.0061076405
-0.09796647 -0.1907991 0.12557407 -0.024693657 -0.005365959 -0.06600041 -0.09978643 0.60404354
-0.026403341 0.002236227 -0.002316476 0.0016426735 -0.24150774 -0.029443845 -0.09289003 -0.09970213
-0.045838527 -0.049865387 -0.09957128 -0.111080304 0.069084436 -0.07147857 -0.00932086 -0.011741227
0.0396501 0.043805085 0.053803515 0.06530488 0.018247448 0.059089545 -0.16545978 0.23835303
-0.0004566366 -0.00039096907 -0.00016895351 -0.0003377755 -0.11534168 -0.05255638 0.28375962 -0.026539164
0.091357425 0.08284491 -0.029128583 0.92702454 0.0052234353 -4.916117e-05 0.0034496975 -0.0034883416
0.11483095 -0.045852836 -0.086306535 0.07124461 0.29928237 0.107335694 -0.12250098 0.67008203
-0.00033536387 -0.0003447731 -0.00018958443 -0.00019196916 0.16127789 -0.14633691 0.15406287 -0.061975818
0.1679632 0.041642014 -0.10460792 0.025905045 -4.9999657e-05 -0.00020988131 -1.8540504e-05 -0.000120876684
0.1517324 -0.124705404 0.13044778 -0.027755857 0.0025323252 -0.031309977 -0.0821934 0.116273075
-0.00013559806 -0.00026450923 -2.4860035e-05 -0.00015208234 -0.0014530248 -0.051109344 0.37729153 -0.094465524
0.26418588 0.061657548 -0.09696104 0.95907855 -0.007351782 0.0022700157 0.00018681069 0.00040694626
-0.10382718 -0.122607365 -0.029759618 -0.18742016 0.19586007 0.182914 -0.056256067 1.0057005
-0.09385547 -0.0030421668 -0.0056954795 -0.030199982 0.07086626 0.22033964 -0.19794518 0.087657
-0.012799457 0.02784977 -0.12678792 0.11361081 -1.5295054e-05 -0.00070792047 -8.020981e-05 -8.2012724e-05
0.10944025 0.12430103 -0.006824485 -0.058442555 0.033815272 0.041011367 -0.036499873 0.13064878
-0.00012630326 -0.00022802265 -1.1092314e-05 0.0001548961 0.09752777 -0.019128362 0.07937572 0.052680563
0.12287014 0.10626029 -0.13782628 0.26940638 -0.00019971994 -0.00036157476 -2.8449034e-05 -0.00015669542
-0.04454904 -0.026269991 0.3613225 -0.098082036 0.17502733 0.19932273 -0.1268107 0.95316195
0.0010694019 0.004963232 -0.0004750868 0.0033640407 -0.13865437 0.034021825 -0.14243095 0.24470045
00000000: eeb2 573d cfd8 bbbb 8a22 b4bd 4e40 373e
00000010: 663b b03c 84fc 823d 700c 163b 4b7a 613e
00000020: 3a3a 20ba c962 10ba 35ff 3fb7 0c9c bdb7
00000030: 292e 5dbd 291e 473e 496e f6bc 541e 05be
00000040: 48e9 a5bd 76ca 62bd e71b 00be 478c fd3e
00000050: 0646 2fbb 912c b8bb f9fb 35ba 8618 68ba
00000060: 68b8 82bd f20b d6bc 4f18 983e 5573 debd
00000070: 5d97 e03d 47c2 243e 141b f3bd 8dce 573f
00000080: a19e 4abc 75e4 2bb9 7b5d de3a bf87 46bb
00000090: e776 85bd 674f 77bc e907 383e f84c e3bc
000000a0: 7785 243e 087d 09bc a0bd e3bc b705 6f3f
000000b0: a115 1fbc 8c8b a73b e696 f4ba 8006 523b
000000c0: 809e b0bd 23df e3bc 393f c13e 3a00 64bd
000000d0: 38ac bc3d 2f34 063e 7ce8 04be 0067 5a3f
000000e0: 0537 43bc 0a7b c9ba c05e a63a 207c faba
000000f0: c30b e23d dc22 fa3d 0c92 d4bd ee36 3c3c
00000100: d3ac 313e daec da3d 21ac 1bbe cd07 c43e
00000110: 4702 d3b8 5631 94b9 e384 e6b7 e02f 3cb9
00000120: bc46 ce3d 977f 293e f49c 73bd 15df ab3d
00000130: bfaa cf3b 4d5c b33c 4608 dcbd 2b40 a83d
00000140: a1d2 d2b8 b24a 99b9 32e2 d9b7 4c37 e9b8
00000150: b65e b0bd b7f8 babd 6479 35be c106 0ebd
00000160: 125a a5bd 4d33 613e 3f63 a6be 52ec 863f
00000170: 6bab f73d c9c1 abbc 8602 c2bc 9a22 c83b
00000180: a5a2 c8bd d760 43be 7d96 003e 5a4a cabc
00000190: edd4 afbb 392b 87bd d45c ccbd 99a2 1a3f
000001a0: d24b d8bc aa8d 123b 05d0 17bb fa4e d73a
000001b0: ce4d 77be 3834 f1bc 213d bebd a130 ccbd
000001c0: 2ec1 3bbd a63f 4cbd 07ec cbbd 127e e3bd
000001d0: 247c 8d3d 5b63 92bd 85b6 18bc 465e 40bc
000001e0: 2568 223d f66c 333d 1361 5c3d 91be 853d
000001f0: ac7b 953c e107 723d 4a6e 29be d112 743e
00000200: ba68 efb9 fbfa ccb9 1d29 31b9 7617 b1b9
00000210: 4238 ecbd 5c45 57bd f148 913e a968 d9bc
00000220: 9a19 bb3d 98aa a93d 119f eebc 7b51 6d3f
00000230: 5a29 ab3b 6832 4eb8 5214 623b a99c 64bb
00000240: 7d2c eb3d 2fd0 3bbd 7bc1 b0bd b2e8 913d
00000250: 8a3b 993e d1d2 db3d cbe1 fabd 7f8a 2b3f
00000260: c7d3 afb9 aac2 b4b9 2fcb 46b9 544b 49b9
00000270: 0826 253e 58d9 15be a8c2 1d3e 5bda 7dbd
00000280: 8cfe 2b3e d190 2a3d ad3c d6bd d136 d43c
00000290: b9b6 51b8 9613 5cb9 6e87 9bb7 2d7f fdb8
000002a0: bd5f 1b3e 8c65 ffbd 1a94 053e 4060 e3bc
000002b0: 5ef5 253b e43e 00bd 0355 a8bd 9420 ee3d
000002c0: 542f 0eb9 d4ad 8ab9 858a d0b7 4b78 1fb9
000002d0: 6c73 beba 0858 51bd 5b2c c13e 2477 c1bd
000002e0: 5f43 873e a08c 7c3d 8293 c6bd 2c86 753f
000002f0: 38e7 f0bb 8bc4 143b 9de2 4339 675b d539
00000300: 58a3 d4bd 9219 fbbd 71ca f3bc 12eb 3fbe
00000310: 8b8f 483e cf4d 3b3e c36c 66bd cbba 803f
00000320: 4c37 c0bd 175f 47bb 25a1 babb f465 f7bc
00000330: 5422 913d b7a0 613e 24b2 4abe 8385 b33d
00000340: d0b4 51bc 3325 e43c b1d4 01be c9ac e83d
00000350: e14d 80b7 bd93 39ba 5036 a8b8 3ffe abb8
00000360: 3622 e03d 8a91 fe3d ee9f dfbb 7661 6fbd
00000370: e281 0a3d 89fb 273d e480 15bd cbc8 053e
00000380: 4670 04b9 5d19 6fb9 2019 3ab7 9b6b 2239
00000390: a4bc c73d 15b3 9cbc bd8f a23d 93c7 573d
000003a0: 57a3 fb3d ff9e d93d 5522 0dbe a2ef 893e
000003b0: ea6b 51b9 be91 bdb9 d6a5 eeb7 9b4e 24b9
000003c0: 0e79 36bd 2a34 d7bc 43ff b83e 3cdf c8bd
000003d0: 5d3a 333e 421b 4c3e aada 01be 6c02 743f
000003e0: 2c2b 8c3a 9ca2 a23b 1215 f9b9 3d77 5c3b
000003f0: 69fb 0dbe 785a 0b3d 6bd9 11be c192 7a3e

fcs.0.bias f4 [64]
0.21823335 0.085744664 -0.0085902 -0.0060843364 0.01692793 0.20638348 0.09121715 -0.028868178
-0.02486481 -0.1253265 0.27190137 -0.00068983366 0.00423375 0.06273462 0.01033021 0.030075632
-0.037313856 0.10235994 0.1891312 0.115219176 0.060489744 0.099419735 -0.015600362 0.1255685
0.29282507 0.07527135 0.1355201 -0.05854008 0.016853264 -0.04150983 0.015241036 0.16916403
-0.059130557 -0.14441103 -0.12065838 0.042705398 0.13148896 -0.040236264 -0.032812018 0.2563073
0.033560734 0.05729417 0.08418835 -0.16331837 -0.07450472 -0.08988007 -0.06965716 0.09366556
0.18481988 -0.00945822 0.22585805 -0.061900835 -0.04853907 0.04716578 0.058645446 -0.07543064
0.11628479 -0.03635502 0.028152805 -0.016670935 0.13969702 0.15377119 0.1382499 0.05084597
00000000: 9078 5f3e e69a af3d e9bd 0cbc 1d5f c7bb
00000010: 71ac 8a3c 3156 533e 0fd0 ba3d f57c ecbc
00000020: 49b1 cbbc 9755 00be a836 8b3e f4d5 34ba
00000030: 45bb 8a3b 027b 803d 0b40 293c 2c61 f63c
00000040: 6ad6 18bd 17a2 d13d 9cab 413e 08f8 eb3d
00000050: 18c4 773d 939c cb3d a998 7fbc 0795 003e
00000060: 2bed 953e de27 9a3d c8c5 0a3e b9c7 6fbd
00000070: db0f 8a3c 3606 2abd 8ab5 793c 5639 2d3e
00000080: e232 72bd 7ce0 13be be1b f7bd dbeb 2e3d
00000090: 0ba5 063e c8ce 24bd e565 06bd b63a 833e
000000a0: fb76 093d 4bad 6a3d f16a ac3d ee3c 27be
000000b0: ee95 98bd 0b13 b8bd 6aa8 8ebd bbd3 bf3d
000000c0: 6c41 3d3e a6f6 1abc 5547 673e bb8b 7dbd
000000d0: e7d0 46bd e830 413d 3536 703d 617b 9abd
000000e0: b826 ee3d 00e9 14bd b6a0 e63c 7c91 88bc
000000f0: bc0c 0f3e 3276 1d3e 6291 0d3e dd43 503d

fcs.1.weight f4 [2, 64]
-1.5028614 1.4682512 1.8020465 1.901398 1.7476151 1.4201062 -1.4704324 1.949325
-1.8040097 -1.2393638 1.3933532 1.699961 -1.6741589 -1.448184 -1.5038095 1.7958907
-2.2818143 1.4228319 1.4949095 1.368756 1.8029238 1.494343 -2.2268794 1.8178835
-1.4365063 1.3096355 -1.8091143 2.118705 1.8357013 2.130408 1.8177088 1.5212927
-1.7417884 2.1510212 -2.0242207 1.8339831 1.8186117 -2.2196562 -1.68304 1.4507629
1.7680352 -1.9404317 1.8574638 -2.3682666 -1.5944887 2.268922 -1.9018323 1.8087509
1.5164646 1.8281927 -1.6204454 -2.0916512 -2.2819507 1.8081889 -1.4411458 -2.297239
1.8309762 -2.2882104 1.795337 -1.6176275 1.8026123 -1.4775748 -1.5065446 1.8181297
1.3813568 -1.544099 -1.7257353 -1.8596374 -1.6143271 -1.4928638 1.3666469 -2.009635
1.8019055 1.0867604 -1.4028047 -1.7107128 1.6060709 1.4427571 1.3666974 -1.7499852
2.2875798 -1.4006906 -1.3320445 -1.4691783 -1.6738143 -1.5879214 2.1807494 -1.8650054
1.3049611 -1.2673182 1.7387478 -2.204356 -1.6892723 -2.2867727 -1.8634406 -1.3989314
1.6766216 -2.1855044 1.9353008 -1.930281 -1.821108 2.1695738 1.5921911 -1.4239372
-1.6319501 1.8678163 -1.8530053 2.3709745 1.5900162 -2.3717046 1.9505901 -1.8682866
-1.3478215 -1.7435313 1.5331496 2.1139832 2.2850788 -1.8270127 1.2696611 2.2912674
-1.7825656 2.3854594 -1.7409599 1.4868095 -1.6790018 1.2839293 1.4454267 -1.7061659
00000000: c35d c0bf a8ef bb3f 76a9 e63f 0261 f33f
00000010: dab1 df3f 0ac6 b53f 2137 bcbf 7b83 f93f
00000020: cae9 e6bf 79a3 9ebf 6659 b23f 5298 d93f
00000030: d74a d6bf 185e b9bf d47c c0bf bfdf e53f
00000040: 3f09 12c0 5b1f b63f 3259 bf3f 6633 af3f
00000050: 35c6 e63f a246 bf3f 3185 0ec0 68b0 e83f
00000060: 70df b7bf 23a2 a73f 0f91 e7bf dd98 0740
00000070: 43f8 ea3f 9b58 0840 afaa e83f b8b9 c23f
00000080: ecf2 debf 55aa 0940 d58c 01c0 f5bf ea3f
00000090: 45c8 e83f d90e 0ec0 db6d d7bf 99b2 b93f
000000a0: fa4e e23f 1160 f8bf 60c1 ed3f ae91 17c0
000000b0: 3518 ccbf 0536 1140 3e6f f3bf 2685 e73f
000000c0: 831b c23f 3802 ea3f c16a cfbf 9ddd 05c0
000000d0: 7b0b 12c0 bc72 e73f 7777 b8bf f705 13c0
000000e0: 6e5d ea3f 0a72 12c0 9acd e53f 6b0e cfbf
000000f0: 00bc e63f 2c21 bdbf 74d6 c0bf 79b8 e83f
00000100: 4dd0 b03f 09a5 c5bf e5e4 dcbf 9908 eebf
00000110: 45a2 cebf 2916 bfbf 49ee ae3f dc9d 00c0
00000120: d7a4 e63f f71a 8b3f 1b8f b3bf a3f8 dabf
00000130: bb93 cd3f 44ac b83f f1ef ae3f 84ff dfbf
00000140: b567 1240 d449 b3bf 6f80 aabf 090e bcbf
00000150: 8c3f d6bf 0241 cbbf 6691 0b40 7fb8 eebf
00000160: f708 a73f 7c37 a2bf 4a8f de3f 2b14 0dc0
00000170: 133a d8bf 7c5a 12c0 3985 eebf 2f10 b3bf
00000180: 899b d63f 4edf 0bc0 f0b7 f73f 7313 f7bf
00000190: 111a e9bf 4cda 0a40 ebcc cb3f 9343 b6bf
000001a0: bee3 d0bf 9b14 ef3f 472f edbf 0cbe 1740
000001b0: a785 cb3f 02ca 17c0 f0ac f93f 0424 efbf
000001c0: 6a85 acbf 092c dfbf 3f3e c43f 804b 0740
000001d0: bb3e 1240 8ddb e9bf 4184 a23f 20a4 1240
000001e0: 1c2b e4bf 5eab 1840 c6d7 debf c64f be3f
000001f0: 88e9 d6bf cc57 a43f be03 b93f a563 dabf

fcs.1.bias f4 [2]
1.1109973 -1.1507959
00000000: 2935 8e3f 484d 93bf
