cache/ckpts/woselfloop-genius_NormalNN-genius_trialNo6.pt (torch, 8347 bytes, 5 tensors)

alpha_params f4 [64, 9]
-1.2258774 -1.933848 -2.3581986 -1.1983093 -2.3167055 0.83774877 -2.2515259 1.2288146
-1.776489 3.3407042 2.078223 2.3985853 0.8688296 2.0391796 -0.57913536 2.051469
-0.3690026 1.8680495 3.2365584 2.075985 2.2347994 1.4776176 1.8890541 0.27884308
1.8433378 0.13516928 1.9401709 3.2891672 1.9272013 2.4415781 0.5608453 2.4341142
-1.861174 2.3959816 -1.6352152 2.0022843 3.2842393 2.1993222 2.2942078 1.8018925
1.8769711 0.45910442 1.7980436 0.34967855 2.048771 3.2413652 2.059628 2.362992
1.0056583 2.0744445 -0.7737715 2.1217642 -1.0004016 2.0102274 -1.3198202 -2.0299618
-2.3664598 -1.478045 -2.0162659 -0.350815 -2.0022619 -0.18981491 -2.0590203 3.0062962
0.9220065 2.0341432 1.7483493 0.5642285 1.6988581 0.17590155 1.4268297 0.040338915
-1.4077936 -2.153409 -2.4727087 -1.6442944 -2.102158 -0.4133519 -2.0558798 -0.33353034
-2.0232148 -1.3019997 -2.2175744 -2.3605168 -1.943404 -1.8823884 -1.3046035 -1.8726628
-0.92006403 -2.240822 3.2746673 2.0251637 2.3131015 1.0029391 2.136223 -0.95977336
2.188218 -1.2104442 2.0151677 3.358122 2.1298757 2.4189734 1.3592817 2.1590567
-0.3296698 2.1084273 -0.37501007 2.0628948 -1.3170329 -1.9442676 -2.4005964 -1.2905852
-2.2273178 0.38988915 -2.1567848 0.5160152 -2.0530596 -1.4381597 -2.2958813 -2.3968453
-1.8456197 -1.9611216 -0.7002762 -1.9071313 -0.3535033 -2.143604 -1.2799724 -2.173575
-2.3563783 -1.7027199 -2.1683097 -0.46706632 -2.1053867 -0.17752853 -1.9479936 3.2261026
1.883237 2.3316066 0.42605597 2.204912 -1.0652921 2.1986165 -0.7342638 1.763001
-1.4099417 -2.4907675 -2.3280482 -1.7372526 -2.0482998 0.5252192 -2.0172067 0.6363497
-1.9988747 3.3304844 2.0529609 2.4365597 1.282968 2.2597446 -0.55095947 2.2151136
-0.58920735 2.0207198 3.254568 2.0396628 2.3486285 1.3844118 2.048992 -0.05731065
1.9775496 -0.018857222 1.9887067 3.3732493 2.0093627 2.4359517 0.8259266 2.0912542
-0.46724275 2.060525 -0.14470552 1.8906525 3.163995 2.1686203 2.2524014 1.6078546
1.9901235 -0.126664 1.9241132 -0.22545932 1.9057214 3.276851 2.0889528 2.401334
1.3427728 2.1793127 -0.4766647 2.1244507 -0.5253067 2.0201225 -1.3788145 -2.109277
-2.5002053 -1.5565317 -2.1478724 -0.29184076 -2.1017156 -0.09405775 -2.1698475 3.2527044
1.9387102 2.2862809 0.12696849 2.228083 -1.9466416 2.2361057 -1.5054604 1.8407847
-1.4220887 -2.1393902 -2.5210848 -1.163345 -2.444928 1.2064158 -2.3801837 1.0255597
-2.1182787 3.3235705 -1.921476 2.3830898 2.3381755 -2.0834968 2.7184322 -2.349047
2.5793512 -2.664303 -1.5637923 -2.2039707 -2.5569336 -1.3307241 -2.2381175 0.04796565
-2.1313066 0.043898445 -2.1176875 3.3860486 2.0559938 2.391952 0.90121114 2.1291604
-0.4471026 2.1877048 -0.48738736 2.0469832 3.3090773 2.0584028 2.3639414 1.2282938
00000000: 8de9 9cbf 5588 f7bf baec 16c0 3362 99bf
00000010: e744 14c0 b476 563f 0019 10c0 cc49 9d3f
00000020: fe63 e3bf 19ce 5540 9b01 0540 6c82 1940
00000030: 9e6b 5e3f eb81 0240 3742 14bf 454b 0340
00000040: e9ed bcbe 3f1c ef3f c623 4f40 f0dc 0440
00000050: f406 0f40 9322 bd3f 86cc f13f 85c4 8e3e
00000060: 7ef2 eb3f d169 0a3e 8557 f83f b781 5240
00000070: 88ae f63f d142 1c40 8f93 0f3f 87c8 1b40
00000080: f33a eebf c357 1940 bb4e d1bf 6d25 0040
00000090: fa30 5240 b2c1 0c40 4dd4 1240 6aa4 e63f
000000a0: 9740 f03f bc0f eb3e 4b26 e63f 1109 b33e
000000b0: 101f 0340 8772 4f40 f2d0 0340 433b 1740
000000c0: 69b9 803f b3c3 0440 e415 46bf fcca 0740
000000d0: 290d 80bf 91a7 0040 deef a8bf e5ea 01c0
000000e0: 1474 17c0 9430 bdbf 800a 01c0 069e b3be
000000f0: 0f25 00c0 d75e 42be fdc6 03c0 2867 4040
00000100: 9e08 6c3f 672f 0240 e9c9 df3f 4771 103f
00000110: 2f74 d93f 891f 343e 5ba2 b63f 6b3a 253d
00000120: 9532 b4bf 74d1 09c0 dc40 1ec0 3d78 d2bf
00000130: c289 06c0 dca2 d3be 8993 03c0 7dc4 aabe
00000140: 5a7c 01c0 eda7 a6bf bdec 0dc0 b512 17c0
00000150: 76c1 f8bf 1af2 f0bf 3ffd a6bf 6ab3 efbf
00000160: 5189 6bbf a169 0fc0 2694 5140 489c 0140
00000170: db09 1440 4f60 803f e1b7 0840 b5b3 75bf
00000180: c40b 0c40 d6ef 9abf 82f8 0040 79eb 5640
00000190: e24f 0840 76d0 1a40 f1fc ad3f fc2d 0a40
000001a0: 7bca a8be 79f0 0640 5201 c0be 7806 0440
000001b0: 8994 a8bf c3dd f8bf 5fa3 19c0 e531 a5bf
000001c0: 608c 0ec0 8d9f c73e c308 0ac0 9219 043f
000001d0: 5465 03c0 9e15 b8bf b8ef 12c0 ea65 19c0
000001e0: 443d ecbf 0806 fbbf 4d45 33bf e11c f4bf
000001f0: 62fe b4be cf30 09c0 23d6 a3bf da1b 0bc0
00000200: e7ce 16c0 baf2 d9bf 96c5 0ac0 5123 efbe
00000210: a8be 06c0 0aca 35be db57 f9bf 7778 4e40
00000220: e90d f13f 0b39 1540 0224 da3e 471d 0d40
00000230: 7e5b 88bf 22b6 0c40 b6f8 3bbf 04aa e13f
00000240: f878 b4bf bc68 1fc0 befe 14c0 4b5e debf
00000250: 5817 03c0 c474 063f ea19 01c0 d0e7 223f
00000260: 20db ffbf a826 5540 b663 0340 98f0 1b40
00000270: 4c38 a43f a89f 1040 ae0b 0dbf 6cc4 0d40
00000280: 4bd6 16bf 7953 0140 d84a 5040 d689 0240
00000290: ee4f 1640 6834 b13f af22 0340 92be 6abd
000002a0: 5820 fd3f 767a 9abc f18d fe3f 51e3 5740
000002b0: 6699 0040 a2e6 1b40 ed6f 533f 1cd7 0540
000002c0: 713a efbe a4df 0340 af2d 14be e700 f23f
000002d0: e57e 4a40 adca 0a40 5827 1040 2ece cd3f
000002e0: 5ebc fe3f 35b4 01be 5749 f63f cfde 66be
000002f0: aeee f33f edb7 5140 67b1 0540 75af 1940
00000300: fbdf ab3f dc79 0b40 650d f4be 00f7 0740
00000310: 807a 06bf b049 0140 fe7c b0bf 65fe 06c0
00000320: 5d03 20c0 6e3c c7bf be76 09c0 276c 95be
00000330: 8282 06c0 5aa1 c0bd c8de 0ac0 4f2c 5040
00000340: a827 f83f 6d52 1240 0704 023e e998 0e40
00000350: 8d2b f9bf 5b1c 0f40 edb2 c0bf d59e eb3f
00000360: 0107 b6bf c5eb 08c0 7459 21c0 7de8 94bf
00000370: b379 1cc0 d56b 9a3f ee54 18c0 8a45 833f
00000380: e191 07c0 61b5 5440 edf2 f5bf 8b84 1840
00000390: aba4 1540 0358 05c0 cbfa 2d40 c956 16c0
000003a0: 1714 2540 f183 2ac0 592a c8bf db0d 0dc0
000003b0: cda4 23c0 2b55 aabf 513d 0fc0 a177 443d
000003c0: 5467 08c0 dbce 333d 3188 07c0 05b5 5840
000003d0: 6795 0340 be15 1940 c6b5 663f 2a44 0840
000003e0: a2ea e4be 5b03 0c40 d68a f9be c601 0340
000003f0: ecc7 5340 dfbc 0340 d14a 1740 bb38 9d3f

fcs.0.weight f4 [64, 12]
-0.32333598 -0.058509823 0.10904198 0.14761315 -0.088225804 0.5055189 -0.23367342 1.0735245
0.33263016 -0.28037205 -0.0082482835 -0.10679154 -0.037103925 0.0470422 0.30251372 0.046971403
0.060002673 0.38210985 -0.1158666 1.3526837 0.6266881 -0.13130972 0.21436997 -0.13560884
0.04455028 0.2720585 0.35091993 0.045838125 0.26788756 0.23877044 -0.04891637 1.107773
0.27230772 -0.015937977 0.07332922 -0.05198882 -0.04944679 -0.019359084 -0.13845862 -0.059349865
0.108264096 0.2536485 -0.1794087 1.0330709 0.77190083 -0.24198307 0.1724728 -0.17099543
0.021097539 0.37551382 0.38491672 -0.20662881 0.28284 0.2143178 -0.02738915 0.8719025
0.118623085 -0.041668605 0.042553566 -0.03289928 -0.15255393 0.077393994 0.1613508 -0.15671493
0.057184998 0.44783083 -0.11710644 1.1926496 0.41083473 -0.25930434 0.10064337 -0.1483686
-0.08493336 0.14102551 0.06455375 -0.21755491 0.021693163 0.17245789 -0.07921659 0.8172442
0.2083927 -0.011812143 0.26179034 -0.11542334 0.06543371 -0.03267437 0.0056899404 -0.044565372
-0.028553465 -0.04142882 -0.02611336 0.48137832 0.29245824 0.51131654 0.4884838 0.040561546
-0.048293233 0.07174371 -0.13769585 0.14203784 0.0023542054 0.12768206 -0.013278936 0.6447653
0.28869072 0.123857245 0.33579153 -0.12371482 -0.5610618 -0.05527521 0.009570889 -0.021424185
-0.12417207 -0.11229217 0.14276756 -1.1618845 0.5653827 0.77983177 0.68318665 0.08229168
-0.039048634 -0.36282256 0.5166417 0.010482934 0.057630412 0.44329098 0.003930653 0.8691707
0.63620293 -0.14481734 0.028664041 -0.0512244 -0.0512906 0.21587707 0.19705205 0.13284367
0.287694 0.43871602 -0.10440047 1.2901939 0.30275506 -0.17715621 0.09618013 -0.12414781
-0.024206068 0.115342766 -0.21263576 -0.33691883 0.104003176 0.2989114 -0.12120338 1.0543731
0.2590625 -0.09378998 0.242972 -0.1370938 -0.039018832 0.34326997 0.19321929 -0.18816714
0.10823534 0.052335594 -0.067269824 0.7648209 0.07147258 -0.024301067 0.067241736 -0.05185401
-0.12035259 -0.025575252 0.002472458 -0.00950321 -0.27092516 -0.12937146 0.089506276 -0.5040571
0.664241 0.796038 0.75362325 0.10497493 -0.1253915 0.013055907 0.06751482 -0.05266979
0.2357709 0.2936742 -0.12257768 1.2623882 0.6884229 -0.10249019 0.444677 -0.19140084
0.06067137 0.16040562 0.12914875 0.02590797 0.067919426 0.27718848 -0.14413376 0.90516514
0.20357594 -0.20506501 0.015458395 -0.08884877 -0.006060986 0.22335818 -0.2606135 0.09442889
0.39955926 0.40312836 -0.084890686 1.259244 0.33275616 -0.15069838 0.11741462 -0.11917273
-0.05157369 0.1970146 0.36805072 0.10318832 0.2362177 0.19649848 -0.07322591 1.3326356
0.27366272 -0.13103648 0.10974012 -0.11499525 -0.048195478 0.017103259 0.06528185 0.06255945
0.1883051 0.22154115 -0.09545893 1.2847512 0.6174109 0.047971044 0.3565105 -0.1739299
-0.060859445 0.14739557 0.34143725 0.11784923 0.29314616 0.2803214 -0.3643517 0.88974947
0.2016986 -0.11939492 0.07715127 -0.09513253 -0.00354977 0.23534137 0.19039823 0.112689085
00000000: 4b8c a5be ffa7 6fbd 6751 df3d e727 173e
00000010: bbaf b4bd b069 013f 1648 6fbe 4069 893f
00000020: 804e aa3e ed8c 8fbe cf23 07bc 86b5 dabd
00000030: 49fa 17bd 52af 403d 14e3 9a3e 1665 403d
00000040: 5dc5 753d e7a3 c33e 784b edbd bd24 ad3f
00000050: a26e 203f 0e76 06be cd83 5b3e 0bdd 0abe
00000060: 5b7a 363d 404b 8b3e c7ab b33e c2c0 3b3d
00000070: 8f28 893e 3d80 743e 885c 48bd 81cb 8d3f
00000080: eb6b 8b3e 5c90 82bc a12d 963d 3bf2 54bd
00000090: b888 4abd f196 9ebc 19c8 0dbe d818 73bd
000000a0: 91b9 dd3d 37de 813e eab6 37be ab3b 843f
000000b0: 4b9b 453f 69ca 77be b69c 303e 6d19 2fbe
000000c0: bfd4 ac3c 5943 c03e ce13 c53e 8196 53be
000000d0: 68d0 903e 2076 5b3e 365f e0bc 0135 5f3f
000000e0: a9f0 f23d b3ac 2abd a64c 2e3d 65c1 06bd
000000f0: 1937 1cbe be80 9e3d 2539 253e e179 20be
00000100: d13a 6a3d 154a e53e 80d5 efbd bea8 983f
00000110: ee58 d23e 8ac3 84be 1c1e ce3d f0ed 17be
00000120: 8bf1 adbd fe68 103e c234 843d b7c6 5ebe
00000130: dcb5 b13c cd98 303e 4f3c a2bd ea36 513f
00000140: e564 553e b887 41bc 6209 863e 1263 ecbd
00000150: 1c02 863d 8fd5 05bd ae72 ba3b 2e8a 36bd
00000160: f5e8 e9bc 44b1 29bd afeb d5bc 3877 f63e
00000170: 16bd 953e a4e5 023f 8c1a fa3e dd23 263d
00000180: 20cf 45bd 5eee 923d 2400 0dbe 5e72 113e
00000190: 0349 1a3b 16bf 023e e58f 59bc 570f 253f
000001a0: 45cf 933e dea8 fd3d deec ab3e 325e fdbd
000001b0: bfa1 0fbf 4268 62bd 38cf 1c3c c681 afbc
000001c0: ed4d febd 70f9 e5bd a931 123e a2b8 94bf
000001d0: ecbc 103f 0ea3 473f 52e5 2e3f 8a88 a83d
000001e0: 76f1 1fbd e1c3 b9be a142 043f 9dc0 2b3c
000001f0: de0d 6c3d 09f7 e23e b5cc 803b f981 5e3f
00000200: 32de 223f ff4a 14be dad0 ea3c add0 51bd
00000210: 1816 52bd e10e 5d3e 03c8 493e 2c08 083e
00000220: a14c 933e 639f e03e eacf d5bd 1325 a53f
00000230: b602 9b3e 7068 35be 17fa c43d 3541 febd
00000240: ce4b c6bc d438 ec3d 30bd 59be a080 acbe
00000250: 9eff d43d ea0a 993e 7a39 f8bd b3f5 863f
00000260: d7a3 843e f614 c0bd a7cd 783e 5162 0cbe
00000270: 36d2 1fbd 15c1 af3e 47db 453e e3ae 40be
00000280: 7daa dd3d d95d 563d c3c4 89bd 4dcb 433f
00000290: 3760 923d 0813 c7bc 09b6 893d df64 54bd
000002a0: 6b7b f6bd 3183 d1bc f608 223b 5ab3 1bbc
000002b0: b4b6 8abe f479 04be 114f b73d e309 01bf
000002c0: b30b 2a3f 25c9 4b3f 74ed 403f 19fd d63d
000002d0: a166 00be 71e8 553c 3645 8a3d 47bc 57bd
000002e0: ed6d 713e 775c 963e 020a fbbd f095 a13f
000002f0: 7c3c 303f 60e6 d1bd b4ac e33e 95fe 43be
00000300: 8b82 783d 5f41 243e 923f 043e f33c d43c
00000310: 5719 8b3d a6eb 8d3e cd97 13be e7b8 673f
00000320: 3676 503e 90fc 51be 3545 7d3c 58f6 b5bd
00000330: 3c9b c6bb 02b8 643e 226f 85be ef63 c13d
00000340: 0893 cc3e d766 ce3e 2bdb adbd e82e a13f
00000350: 045f aa3e ad50 1abe 1477 f03d d510 f4bd
00000360: ef3e 53bd 32be 493e 2571 bc3e 6654 d33d
00000370: 0ee3 713e e636 493e 77f7 95bd ce93 aa3f
00000380: 851d 8c3e 6d2e 06be 6ebf e03d a182 ebbd
00000390: 9f68 45bd 221c 8c3c 7eb2 853d 2b1f 803d
000003a0: 0dd3 403e afdb 623e f97f c3bd ba72 a43f
000003b0: a40e 1e3f 497d 443d 8b88 b63e ae1a 32be
000003c0: c147 79bd ddee 163e ddd0 ae3e f05a f13d
000003d0: 4117 963e 4986 8f3e 4e8c babe 9fc6 633f
000003e0: 148a 4e3e 5385 f4bd 7c01 9e3d d8d4 c2bd
000003f0: 42a3 68bb 54fd 703e c1f7 423e 89c9 e63d

fcs.0.bias f4 [64]
0.22062565 0.29768425 0.7962281 0.00059566257 0.8190605 0.4176538 0.4408328 0.41368312
0.4265728 0.37009868 0.088568136 0.8785396 0.38896605 0.56514287 0.3468523 0.09059046
0.3038206 0.69366366 0.79877543 0.15623417 0.6030049 0.7768515 0.63147396 0.05939641
0.3252038 0.7999819 0.3048441 0.0729264 0.71135676 0.005918811 0.023210702 0.7942455
0.32809004 0.21530949 0.4601096 0.2249301 0.015369661 0.32205978 -0.43576407 0.34255964
0.7639151 0.039692447 0.019844659 0.32282448 0.36755538 0.015123587 0.51967967 0.083053425
0.24308416 0.2014899 -0.025997935 0.3649652 0.19430734 0.61564416 0.0015758135 0.47022563
0.15278026 0.71279013 0.87943083 0.040830925 -0.000837987 0.018045003 0.23025326 0.33520687
00000000: b1eb 613e 126a 983e 9bd5 4b3f 3d26 1c3a
00000010: f3ad 513f b8d6 d53e d6b4 e13e 46ce d33e
00000020: c067 da3e 937d bd3e 3663 b53d f9e7 603f
00000030: 8f26 c73e 34ad 103f a096 b13e 7e87 b93d
00000040: 608e 9b3e f193 313f 8c7c 4c3f dafb 1f3e
00000050: 875e 1a3f bddf 463f 47a8 213f a649 733d
00000060: 1d81 a63e 9dcb 4c3f 8714 9c3e 705a 953d
00000070: 7a1b 363f 96f2 c13b 5f24 be3c ac53 4b3f
00000080: 6bfb a73e 177a 5c3e 7c93 eb3e 1354 663e
00000090: 08d1 7b3c 05e5 a43e 781c dfbe fa63 af3e
000000a0: f18f 433f 8c94 223d 4491 a23c 4049 a53e
000000b0: 3830 bc3e ecc8 773c ba09 053f ea17 aa3d
000000c0: 0eeb 783e 5e53 4e3e 9ff9 d4bc b8dc ba3e
000000d0: 81f8 463e db9a 1d3f 878b ce3a 6ac1 f03e
000000e0: 6e72 1c3e 6a79 363f 6122 613f 543e 273d
000000f0: 5bac 5bba 1dd3 933c 83c7 6b3e 3ca0 ab3e

fcs.1.weight f4 [2, 64]
-1.2681824 1.098947 1.2533624 1.2918506 1.1980501 1.082283 -1.247941 1.0280002
-1.1973001 -1.1936258 1.1231503 1.1646094 -1.270506 -1.1216427 -1.2426884 1.2690504
-1.115105 1.1658092 1.2648876 1.0985948 1.1930782 1.1025697 -1.2555456 1.2167023
-1.2413034 1.2656927 -1.2211518 1.2115468 1.292497 1.2022138 1.2220464 1.249909
-1.2452105 1.2340965 -1.2384237 1.1683888 1.2643927 -1.2496299 -1.1626894 1.1391732
1.2519408 -1.2644113 1.2219126 -1.2346251 -1.1587341 1.2318261 -1.1513417 1.1408201
1.284369 1.2775608 -1.3031039 -1.166441 1.1721154 1.2059433 -1.2722311 -1.1891555
1.2871245 -1.1507726 1.2132292 -1.2580116 1.2874004 -1.256773 -1.2075969 1.2546195
1.2040844 -1.2707276 -1.18353 -1.2335854 -1.0588326 -1.2253978 1.2397902 -1.0821832
1.1897619 1.226031 -1.2177663 -1.1883026 1.2446257 1.174634 1.1191427 -1.2323064
1.0529561 -1.2509934 -1.1329406 -1.2875702 -1.0349879 -1.3021065 1.1361946 -1.2702066
1.1663178 -1.3430417 1.1327904 -1.261828 -1.1202735 -1.3489347 -1.2673595 -1.1730434
1.198725 -1.2365702 1.1030368 -1.2582123 -1.284207 1.1476918 1.0822656 -1.1963608
-1.1046795 1.1459236 -1.2190771 1.1659892 1.2183132 -1.2901844 1.2079552 -1.2047414
-1.1457914 -1.1870959 1.2666805 1.165648 -1.1956524 -1.2230135 1.1336641 1.1012356
-1.2435515 1.1906896 -1.1542352 1.1695921 -1.189284 1.150824 1.2200435 -1.1086675
00000000: cd53 a2bf 4caa 8c3f 2e6e a03f 5c5b a53f
00000010: b559 993f 4088 8a3f 88bc 9fbf 8395 833f
00000020: 2141 99bf bbc8 98bf 64c3 8f3f ec11 953f
00000030: f19f a2bf fd91 8fbf 6a10 9fbf 3e70 a23f
00000040: c3bb 8ebf 3c39 953f d6e7 a13f c19e 8c3f
00000050: c9b6 983f 0121 8d3f b8b5 a0bf e7bc 9b3f
00000060: 08e3 9ebf 3802 a23f b44e 9cbf f713 9b3f
00000070: 8b70 a53f 24e2 993f 046c 9c3f 05fd 9f3f
00000080: 0f63 9fbf e0f6 9d3f ab84 9ebf c48d 953f
00000090: 9fd7 a13f dff3 9fbf 02d3 94bf 6dd0 913f
000000a0: 993f a03f 3bd8 a1bf a267 9c3f 3208 9ebf
000000b0: 6651 94bf 7aac 9d3f 2a5f 93bf 6506 923f
000000c0: 3466 a43f 1d87 a33f 1ccc a6bf f04d 95bf
000000d0: e107 963f 5a5c 9a3f 78d8 a2bf 3f36 98bf
000000e0: 7fc0 a43f 844c 93bf 184b 9b3f 8606 a1bf
000000f0: 89c9 a43f f0dd a0bf 8992 9abf 5f97 a03f
00000100: 701f 9a3f 34a7 a2bf e97d 97bf 20e6 9dbf
00000110: d487 87bf d6d9 9cbf 72b1 9e3f fb84 8abf
00000120: 1e4a 983f 95ee 9c3f c4df 9bbf 4d1a 98bf
00000130: e54f 9f3f 685a 963f 1140 8f3f 37bc 9dbf
00000140: 44c7 863f 8d20 a0bf 3304 91bf 1acf a4bf
00000150: 7c7a 84bf 6dab a6bf d36e 913f 2196 a2bf
00000160: e749 953f cae8 abbf 47ff 903f 9483 a1bf
00000170: 1f65 8fbf e4a9 acbf d638 a2bf 4926 96bf
00000180: d26f 993f ef47 9ebf 4f30 8d3f 1a0d a1bf
00000190: e560 a4bf 91e7 923f ae87 8a3f 5a22 99bf
000001a0: 2366 8dbf a0ad 923f b80a 9cbf 223f 953f
000001b0: b0f1 9b3f c324 a5bf 479e 9a3f f734 9abf
000001c0: 4ba9 92bf c2f2 97bf 9622 a23f f433 953f
000001d0: 230b 99bf b58b 9cbf e81b 913f 4af5 8c3f
000001e0: b22c 9fbf 8468 983f fbbd 93bf 32b5 953f
000001f0: 753a 98bf 334e 933f 632a 9c3f d1e8 8dbf

fcs.1.bias f4 [2]
0.6542697 -0.74993044
00000000: 387e 273f 71fb 3fbf
