cache/ckpts/woselfloop-genius_NormalNN-genius_trialNo8.pt (torch, 6491 bytes, 5 tensors)

alpha_params f4 [64, 3]
000000 32 c8 9a 3c 1d 3d e7 3a 3f 37 fc 3d a1 9f 21 3c
       0.018894289 0.0017642115 0.12315225 0.009864719
000010 43 75 f1 3c 72 44 9d 3d 62 56 90 3c 67 cc 29 3d
       0.02947486 0.076790705 0.017619316 0.0414547
000020 51 db ba 3d 29 95 a5 3c c7 a0 8b bc 41 bd e1 3d
       0.091238625 0.020212727 -0.017044438 0.110224254
000030 8a 12 9c 3c e9 6c 54 3c 73 b5 31 3e 2e b9 86 3c
       0.019051809 0.012965419 0.17354374 0.016445722
000040 42 24 38 3b 79 8c c2 3d c9 56 81 3c e5 f0 5b 3d
       0.0028097783 0.09499449 0.015788453 0.05369653
000050 4c 57 c4 3d 86 a2 99 3d 90 25 31 be 4e 7b ab 3e
       0.09586963 0.07501702 -0.17299485 0.33492512
000060 73 b4 a3 3c ae a0 d5 3c 84 c6 0d 3e 82 eb 1c 3c
       0.019983506 0.026077595 0.13845259 0.009577634
000070 d1 de 46 3d 43 ee 03 3d 4b ff 95 3d c5 01 6a be
       0.048552338 0.032209646 0.07324084 -0.22852238
000080 6d e0 bc 3e 06 29 7a 3c 40 8f 06 3d 02 82 f2 3d
       0.36889973 0.01526857 0.032851458 0.11841203
000090 2b 7e 7a 3c 10 41 ea 3c fa ae a7 3d 43 96 ad 3c
       0.01528887 0.028595477 0.08187671 0.021189814
0000a0 0f 67 15 3d c1 ba ad 3d 7a d0 88 3c bb c9 34 3d
       0.036475237 0.08482886 0.016700972 0.044137698
0000b0 f4 e3 e4 3d da 3d 30 3c 6b 85 8d 3c f8 4e 02 3d
       0.11176291 0.010756934 0.017275533 0.03181359
0000c0 42 45 5d 3c 85 ae 0b 3d 02 71 c8 3d 9d 54 a1 3c
       0.013505282 0.03410198 0.097871795 0.019693667
0000d0 c8 a6 40 3d f1 e3 ce 3d b7 83 a8 3c 00 18 f1 3c
       0.047034055 0.1010207 0.020570619 0.02943039
0000e0 01 67 13 3e 79 ff 8a 3d 85 46 39 be 9c e2 a4 3e
       0.14394762 0.06787009 -0.18093307 0.3220414
0000f0 7a f5 d3 3c 5f 32 5d bd e5 85 54 3e 4e 7e 8f 3c
       0.025873888 -0.054003116 0.20754202 0.017516281
000100 b8 57 9e 3b 27 3b cb 3d fa 55 97 3c a5 08 3e 3d
       0.0048322342 0.09923392 0.018473614 0.046394963
000110 93 e7 07 3e ea f4 5e 3d 44 66 08 be 21 0e 83 3e
       0.13271932 0.054432787 -0.13320261 0.25596717
000120 c7 0d ae 3c dd 3d 5b 3c 35 f7 b7 3d dd 54 0e 3c
       0.021246804 0.013381449 0.08982698 0.008687225
000130 bf 1e c4 bc e9 e8 5f 3d 6b 0b c8 3c 4f 5e 08 3c
       -0.023940442 0.05466548 0.024419507 0.008323266
000140 47 22 00 3e 93 cd 6c 3d 4a dc fe bd f0 ad 79 3e
       0.12513076 0.05781324 -0.124443606 0.24382758
000150 7f 4e d6 3c 38 de 10 bd 8a f5 4f 3e 55 13 00 3c
       0.026160477 -0.035368174 0.2030851 0.007817109
000160 78 e3 59 3c 78 1b 91 3d e5 21 55 3c a1 9d 3d 3d
       0.013298862 0.070853174 0.013008569 0.046292905
000170 b8 51 be 3d ff 97 b1 3c 6b ed 61 3c ff 79 0a 3e
       0.0929293 0.021678923 0.013789515 0.135231
000180 3e 3d 6d 3c 66 b6 32 3d 12 21 cb 3d a9 e8 9e 3d
       0.014479933 0.04363098 0.09918417 0.0775922
000190 78 02 1d be cb 0e ab 3e 07 a6 68 3c 67 5a 4c 3d
       -0.15332973 0.33409724 0.01419974 0.049890902
0001a0 ba 70 de 3d b2 fc 68 3c 76 43 a3 3d fb 0a 19 3d
       0.10861345 0.0142204035 0.079718515 0.037363987
0001b0 a9 ba 99 3d b5 6b 16 be 42 f1 98 3e 1a cd 1f 3c
       0.07506306 -0.14689524 0.29871565 0.00975349
0001c0 27 94 cd 3b 1c 48 2a 3d 68 29 b8 3d 4f 40 5d be
       0.0062737647 0.041572675 0.089922726 -0.21606563
0001d0 14 c6 ce 3e 77 e9 1b 3c 8d f7 40 3d 14 8e a6 3c
       0.40385497 0.009516112 0.047111083 0.02033142
0001e0 e6 39 a6 3c c4 14 72 3c 3a 6f 3f 3e eb 6a 49 3c
       0.02029128 0.014775459 0.18694773 0.012293558
0001f0 79 f4 e5 3c 76 a2 ad 3d 64 67 d3 3b 93 f3 0b 3d
       0.028070675 0.084782526 0.006451534 0.034167837
000200 c3 22 b1 3c 10 9d d2 3c 96 90 16 be 6a 39 7b 3e
       0.021623021 0.025709659 -0.14703593 0.2453362
000210 08 3f 86 3c 65 7b 3f 3d 40 c8 0d 3e 3b d9 17 3c
       0.016387478 0.046748538 0.1384592 0.0092681
000220 73 bf c8 3c a7 5b a1 3d 0f 12 86 3c 8e 42 47 3d
       0.024505353 0.078788094 0.016366033 0.048647456
000230 63 18 ba 3d 2b 1b 31 3c e1 0e da 3c 10 35 42 3d
       0.09086683 0.0108097 0.026618423 0.047413886
000240 d5 59 31 3c 9d bf 03 3d c5 96 ed 3d 11 16 1e 3c
       0.01082464 0.03216516 0.11601023 0.009648816
000250 34 b5 10 3c df ec 63 3d 8a 28 2a 3c 10 bd 32 3d
       0.008832265 0.05564582 0.010385642 0.043637335
000260 d5 6c 15 3d 02 72 4e 3c 21 6e cc 3c 5c 41 81 3d
       0.036480743 0.012600424 0.024954857 0.063112944
000270 97 0f f0 3b 06 08 cc 3c b6 b8 7c 3d 64 6b b0 3c
       0.007326077 0.02490617 0.06169959 0.021535583
000280 85 82 d8 3c bd d2 28 3e 6c 7b 73 3d aa 7c 43 be
       0.026429424 0.1648664 0.059443876 -0.19090524
000290 51 2d 8d 3e ac 49 a0 3d 21 e1 41 be aa 0d a2 3e
       0.27573636 0.07826552 -0.18933536 0.3165105
0002a0 1c 2e 94 3d 22 03 23 be 5f 21 ac 3e c5 e7 6f 3b
       0.07235357 -0.15919164 0.3361921 0.0036606651
0002b0 f7 a1 ad 3d 11 10 b1 3d 7d 2e 51 3c 4b 6b 36 3d
       0.08478158 0.086456425 0.012767431 0.044535916
0002c0 c1 79 6e 3d 42 08 74 3c fd 8b bb 3c b8 11 b2 3d
       0.058221582 0.014894547 0.0228939 0.08694786
0002d0 80 b1 13 3d 0c 99 2b bd 23 5b 25 3e 41 ab 2c 3c
       0.03605795 -0.041894004 0.16148047 0.010538877
0002e0 1f ee 26 3d 84 16 9c 3d 54 da 8d 3c 61 16 d2 3c
       0.040754434 0.07621482 0.017316021 0.025645437
0002f0 61 87 b9 3d 6e ff d8 3c 09 c8 08 3d e1 78 12 3e
       0.090590246 0.026488986 0.033393893 0.14303924

fcs.0.weight f4 [64, 12]
000000 67 80 2f be 52 fd c2 bd af 35 ef 3e d3 a6 42 be
       -0.17138825 -0.09520973 0.46720645 -0.19008951
000010 bd 66 e0 3d 50 41 20 3e 06 0b 22 be 80 c1 44 40
       0.10957096 0.15649915 -0.15824518 3.0743103
000020 81 a0 1d 3e bc fb d8 bc 8d 27 8c 3b 5a ed ed bb
       0.15393259 -0.026487224 0.0042771758 -0.0072609605
000030 ff 6d 9e 3d 52 1a d6 3b c5 39 33 bd ec 63 94 bd
       0.07735824 0.0065338993 -0.043756265 -0.07245621
000040 63 18 c6 be 99 50 9e be 0a b7 c5 bd ec 7a 62 40
       -0.3869048 -0.30920866 -0.096540526 3.5387526
000050 2d 1c c1 3e 27 2e cb bd 69 a2 b8 3d 63 43 f9 3b
       0.3771681 -0.09920912 0.09015352 0.00760691
000060 c6 aa 28 be 43 b6 6b 3f ee ad a8 3f 1f cc 5c 3e
       -0.16471395 0.92074984 1.3178079 0.21562241
000070 0c eb a4 3e 46 69 f0 3e 9a 4a 9a 3e c5 e8 89 3f
       0.32210577 0.46955317 0.3013504 1.0774161
000080 f9 9a d7 3c 57 83 62 bb 39 14 c2 3a 14 7d 80 bb
       0.026319014 -0.0034563148 0.0014807052 -0.0039211605
000090 13 7e 41 be 7a 1e c7 bd 7d 5e 26 3e 83 5f 65 3c
       -0.1889575 -0.0972261 0.16246982 0.013999823
0000a0 d1 a0 aa 3d d7 75 91 3c 4f 91 71 be f3 e9 4f 40
       0.083314545 0.017756386 -0.23590587 3.2486541
0000b0 c1 d4 22 3e 61 aa 85 bd 22 fb 99 3b a8 d5 6b bc
       0.15901472 -0.06526638 0.004699127 -0.014394201
0000c0 3e 9f 19 be 61 ff 55 3e 90 67 48 3f e6 5a e6 bd
       -0.15002152 0.208982 0.78283024 -0.11247806
0000d0 94 28 6e 3e 65 c1 71 be 63 0a 8b be d4 f4 3d 40
       0.23257667 -0.2360893 -0.27156362 2.9680681
0000e0 55 28 bc 3d f1 58 13 bd 1b 33 d3 3a 02 38 84 3a
       0.0918738 -0.035973493 0.0016113253 0.0010087492
0000f0 1c d0 4f be 9c d6 fb 3d 20 73 03 3f 98 94 6c be
       -0.20294231 0.12296793 0.5134754 -0.23103559
000100 af ad 67 3d 00 15 8b 3e d2 44 46 bd c5 19 16 40
       0.056562122 0.2716446 -0.048405476 2.3453228
000110 66 22 c8 3d 16 30 08 bd c3 d4 35 3b 1e f4 7e ba
       0.09772186 -0.033248983 0.0027745224 -0.00097257074
000120 71 c3 68 bd fd f8 b7 3f 0c a4 8b 3f 4f 30 82 3e
       -0.056827012 1.437286 1.0909438 0.25427482
000130 ce f9 f4 3e 24 87 9a 3e 6e e0 2c 3f 47 cc 4a 3f
       0.47846836 0.3018123 0.6752995 0.7921795
000140 43 fc 59 3c 6e 62 c0 ba 75 8f 16 3b ae 68 6c bb
       0.013304773 -0.0014677772 0.002297369 -0.0036073136
000150 91 2d 14 be fe 1a 5c be c8 63 8d bc ec a2 52 be
       -0.14470507 -0.21494672 -0.017259493 -0.20569962
000160 f3 1a 0e be f0 3a 4c be 79 3d 75 be 9b ac 63 40
       -0.13877468 -0.19944358 -0.23949231 3.55741
000170 9d 68 78 3f 4a 0a e3 bc a8 c2 16 3f 68 b7 8a bd
       0.9703463 -0.027714867 0.5889077 -0.06773263
000180 9a 4c 2d be a4 c9 9c 3e 2f 39 3c 3f 56 7e e7 3d
       -0.16923752 0.3062259 0.73524755 0.113033935
000190 31 66 3f 3f 6b 5e 47 3f 41 37 63 3e 0f 85 2d 40
       0.74765307 0.77878445 0.22189046 2.7112463
0001a0 5d ad a8 3d 2c 50 21 bc ba 5e c5 3a ca 9f 0f ba
       0.082361914 -0.009845775 0.0015058138 -0.00054788275
0001b0 1c d7 21 3e 89 5e 6c 3e c4 e5 ed 3e d3 6e 1e 3f
       0.15804714 0.23082937 0.4646436 0.61887854
0001c0 a2 19 90 3d d2 a4 a9 3e a1 05 f3 3e 36 d8 61 3d
       0.07036139 0.3313356 0.47465232 0.055137835
0001d0 5b 80 ba 3b d7 67 24 3b 43 78 7f b8 0f 09 8b 3a
       0.0056915707 0.0025086307 -6.090874e-05 0.0010607558
0001e0 20 36 88 be b5 01 23 bd e2 47 75 be 4d fb 2a be
       -0.26603794 -0.03979655 -0.23953202 -0.16697426
0001f0 78 e3 76 be 10 5b 51 bc 30 f9 f2 bd e3 48 76 40
       -0.2411021 -0.012778059 -0.11863935 3.8481987
000200 6b 05 89 3f 37 27 c2 3d d4 e7 2d 3f af 5d 1b be
       1.0704778 0.09480136 0.67931867 -0.15172456
000210 05 f9 27 be 9e 9c 10 3f 75 a3 4e 3f 82 1d 35 3e
       -0.16403587 0.5648898 0.80718166 0.17687038
000220 14 d1 e6 3e 04 95 cc 3e 9b 3e 64 3e b4 05 de 3f
       0.4508139 0.3995744 0.22289507 1.734549
000230 6d 20 55 3d 49 57 bf bb 8b fb 2e 3b 53 58 41 ba
       0.052032877 -0.0058392626 0.0026700224 -0.0007375527
000240 95 56 35 bd a7 68 fb 3f 15 99 57 be ac 58 e6 3d
       -0.044272024 1.9641312 -0.2105449 0.112473816
000250 45 78 d1 3e 6d 1a e2 3e 01 49 fb 3e 0d 14 6c 3f
       0.4091207 0.44160786 0.49079135 0.92218095
000260 23 2c 2b 3c db 1b c3 ba f4 fb 74 b9 1d 90 fa ba
       0.010447535 -0.0014885621 -0.00023363513 -0.0019116435
000270 40 83 e0 bc 2d 31 6a 3e ca 72 bc 3f 51 84 36 3d
       -0.027406335 0.22870322 1.4722531 0.04455978
000280 52 45 89 3e 92 6b 16 3f 74 8c a7 3d 34 07 27 40
       0.268107 0.5875789 0.08181086 2.6098146
000290 b3 2b 29 3d 7b b4 a8 bc 88 19 9c bb ef ea b9 bb
       0.04130144 -0.020593872 -0.0047637857 -0.005673758
0002a0 a8 24 91 be 1d f7 4a 3f ff f7 5c 3f 3f b1 ac 3e
       -0.2834828 0.79283315 0.8631591 0.33728978
0002b0 1f bf f3 3e f3 e3 11 3f 03 10 9a 3e f0 52 93 3f
       0.4760675 0.5698845 0.3009034 1.1509686
0002c0 c2 8f 0e 3d fb 55 98 bb e9 7f 18 3b 66 d8 e4 3a
       0.034805067 -0.0046489215 0.00232696 0.0017459511
0002d0 bb 38 6c be b5 08 80 3f 75 38 d1 bd 5f d6 ab bd
       -0.23068516 1.0002657 -0.102158464 -0.083904974
0002e0 26 ba 7b be 76 72 95 be 46 66 4a be 93 4e 81 3f
       -0.24582729 -0.2918889 -0.19765577 1.0102104
0002f0 98 f9 84 3e e7 63 aa bc 2b bb 55 3d 25 b0 f4 3b
       0.25971675 -0.02079959 0.05218045 0.007467287
000300 cf 1e b7 bc fd 1a 59 3f b0 11 9f 3f 4f 37 48 3f
       -0.022353558 0.84806806 1.2427273 0.78209394
000310 7a c5 0e 3f 92 0e 97 3e e6 04 06 3f 54 a3 80 3f
       0.55770075 0.29503304 0.52351224 1.0049844
000320 aa d9 a0 3c 49 bf 9f bb f0 e1 7f 3a 74 d3 a9 39
       0.01963504 -0.004875098 0.00097611453 0.00032391737
000330 56 1e 63 be d8 46 55 3f 9a c7 ca 3f f6 51 b4 3e
       -0.22179541 0.83311224 1.5842164 0.3521878
000340 b6 94 de 3e b4 a3 23 3f 2b ce 57 3e d6 dc b0 3f
       0.43472832 0.63921666 0.2107474 1.3817394
000350 1b 3b c3 3c 8c e7 ef bb dd d0 3f ba 83 6f 81 ba
       0.023831895 -0.0073213037 -0.0007317195 -0.0009875152
000360 1c 50 bb bd a7 c1 2e 3e ed 24 d7 3f 7a d0 1c be
       -0.09146139 0.1706606 1.6808144 -0.15313902
000370 2b bf 09 3f 8e 3f 0c 3f 6f 65 bf 3d ce c3 21 40
       0.53807324 0.54784477 0.09345519 2.527576
000380 c2 5c b4 3d a0 85 54 bc e6 21 25 3b 5f 46 da ba
       0.08806755 -0.012971312 0.0025197207 -0.0016653052
000390 c1 82 ba bd 86 67 8c be 80 c0 47 be 82 10 50 be
       -0.091069706 -0.27422732 -0.19507027 -0.20318797
0003a0 47 e9 7b be 20 f2 33 be 94 d8 14 be 5f cd 7a 40
       -0.24600707 -0.17572832 -0.14535743 3.9187849
0003b0 d3 0f 70 3f 48 1a 1f 3d 8a 55 bd 3e 09 c2 2c ba
       0.93774146 0.038843423 0.36979324 -0.0006590193
0003c0 9c 8d 08 be d3 ad ee 3c a5 b9 88 3d 96 23 b7 bd
       -0.1333527 0.02913562 0.06676034 -0.08942334
0003d0 d1 af aa bd e2 57 2c bf ab bb 81 bd a4 c8 65 40
       -0.083343156 -0.673216 -0.06334623 3.5903711
0003e0 c4 65 42 3e 43 0d a0 bd f5 0e e3 bb 48 0f 13 bc
       0.18984133 -0.078150295 -0.0069292733 -0.008975811
0003f0 11 99 17 be ef 22 1b 3f 57 f3 25 3f f9 98 b0 3e
       -0.14804484 0.6060018 0.6482443 0.3449171

fcs.0.bias f4 [64]
000000 a7 23 a6 bb 09 29 07 bf 08 47 4e 3e 39 67 b5 bc
       -0.005070168 -0.5279699 0.20144284 -0.022143947
000010 71 30 86 be ed c7 2b 3e f0 cc fe 3b a5 17 c3 be
       -0.26208833 0.16775484 0.0077758953 -0.38103977
000020 c7 a9 c0 bc 03 db aa bd 54 a1 fc be 1e 61 52 bd
       -0.023518456 -0.083425544 -0.49341834 -0.05136215
000030 31 28 b3 3c 76 30 06 3d 50 8c 32 be a9 7c 45 3f
       0.02186975 0.03276106 -0.17436337 0.7714334
000040 14 b4 bc bb 09 77 e0 bd ab eb 29 be 0b 86 ed be
       -0.0057587717 -0.10960204 -0.16593806 -0.4639133
000050 8b d4 2d be 14 e9 9a bd fb 55 60 bd 62 0e 9a be
       -0.1697561 -0.075639874 -0.054769497 -0.30089098
000060 99 77 1a be 8b 20 92 3e a7 2e bf bc 4c d4 b4 be
       -0.15084685 0.28540453 -0.023337675 -0.3531822
000070 6a ad 24 be 02 be 62 3f 83 eb 0c bf e4 9a 15 3e
       -0.16081777 0.8857118 -0.5504686 0.14609867
000080 a4 72 1e 3b 6f fb 02 bf 50 65 54 bd 6b b0 0a bf
       0.0024177218 -0.5116491 -0.05185443 -0.5417544
000090 95 6d 95 be 50 b1 f6 3e 13 f7 94 be 58 1e 04 3f
       -0.29185167 0.48182154 -0.29094753 0.516088
0000a0 06 42 4d be 06 77 6e bd 44 62 60 3f 9f 75 43 be
       -0.20044717 -0.05821898 0.8764994 -0.19087838
0000b0 18 33 ef bd 79 6c 48 3e ca ce 94 bd 19 3b 9b 3d
       -0.11679667 0.19572629 -0.072660044 0.07579631
0000c0 81 db a5 be e1 db 21 3d fd f6 2d be 0d 6a 07 be
       -0.3239403 0.039516333 -0.1698875 -0.13224049
0000d0 5b ac 0c bf 48 97 b3 bd a7 4d c3 bd c6 a1 c5 be
       -0.54950494 -0.08769089 -0.095362954 -0.38599986
0000e0 d5 2d 94 be 40 6e 06 bf f0 fb f1 3e 07 2a 19 3c
       -0.28941217 -0.5251198 0.47262526 0.009348399
0000f0 0e 2e af be bb 6a 98 be 04 bf 9d bd 8c cc 34 3d
       -0.34214824 -0.2976893 -0.07702449 0.044140384

fcs.1.weight f4 [2, 64]
000000 c1 55 0d 40 b3 e1 20 40 fc ab fb 3f 30 b3 ff 3f
       2.208359 2.5137756 1.966186 1.9976559
000010 99 f9 0c 40 de b0 e5 3f 73 ea fc 3f 94 c0 62 40
       2.2027342 1.79446 1.9759048 3.543004
000020 8a 3f 19 40 87 c6 c2 3f 76 40 61 40 3a 79 e5 3f
       2.394503 1.5216836 3.5195594 1.792762
000030 62 34 fc 3f f5 63 13 40 48 d5 fd 3f 0a 32 bf 3f
       1.9703486 2.302976 1.9830713 1.4937146
000040 49 b2 d4 3f 07 bf 0a 40 64 99 10 40 a6 f5 4c 40
       1.6616908 2.1679094 2.2593622 3.2024932
000050 f5 99 1f 40 b3 4e 08 40 27 2f ff 3f 1a c1 24 40
       2.4937718 2.1298034 1.9936265 2.574286
000060 25 cf 09 40 79 ab 54 3f 1f 80 24 40 03 5f 33 40
       2.153268 0.83074147 2.57032 2.802674
000070 cc 4c 25 40 c1 a8 af 3f e6 5a 26 40 75 84 1e 40
       2.5828123 1.3723375 2.599298 2.4768345
000080 4a 97 f0 3f 58 88 6d 40 6a a6 fc 3f 1d cb 2f 40
       1.879617 3.7114468 1.9738286 2.746772
000090 15 db 62 40 9f c5 d1 3f 90 20 83 40 53 ec f6 3f
       3.5446217 1.6388434 4.097725 1.929087
0000a0 25 96 12 40 38 19 fe 3f c7 79 85 3f 61 c5 0b 40
       2.290414 1.9851446 1.0427788 2.183922
0000b0 de 5c 00 40 25 79 e9 3f 3c b0 f7 3f 81 11 ee 3f
       2.0056682 1.8240095 1.9350657 1.8599092
0000c0 9e b7 28 40 a7 cd 10 40 3a ff f1 3f fd be 0e 40
       2.636207 2.262552 1.8906014 2.230407
0000d0 26 1e 26 40 57 3c 15 40 5d 84 2d 40 4b 9c 6c 40
       2.59559 2.3318079 2.7112038 3.6970394
0000e0 42 5a 66 40 cb db 57 40 94 1b 16 40 1e 0c f3 3f
       3.599259 3.37279 2.3454332 1.8988073
0000f0 f0 6d 1b 40 cb f5 0c 40 a6 7a 01 40 4f f3 37 40
       2.428585 2.202502 2.0231109 2.8742254
000100 a5 b2 11 c0 c1 aa 2d c0 57 67 f6 bf 6b 70 f8 bf
       -2.2765286 -2.713547 -1.9250287 -1.9409307
000110 71 34 06 c0 77 2d fe bf d9 c2 fb bf ba 83 66 c0
       -2.0969508 -1.9857625 -1.9668838 -3.60179
000120 98 b7 18 c0 5a a4 b4 bf 73 2b 6a c0 fe 4a ed bf
       -2.3862057 -1.4112656 -3.658902 -1.8538511
000130 79 bf fe bf e2 40 0f c0 0d f0 05 c0 b6 87 c0 bf
       -1.9902183 -2.2383351 -2.0927765 -1.5041416
000140 3e cf de bf 84 44 13 c0 08 5a 0a c0 bd d0 5b c0
       -1.7406995 -2.3010569 -2.161745 -3.4346154
000150 7e 96 16 c0 68 a2 18 c0 fc 74 07 c0 6c 1f 2f c0
       -2.3529353 -2.3849125 -2.1165152 -2.7362928
000160 34 83 0e c0 05 bd 64 bf b8 44 2b c0 a2 77 39 c0
       -2.226758 -0.8935092 -2.6760693 -2.8979268
000170 44 67 1c c0 ab 0f c6 bf a7 7e 29 c0 96 d0 1b c0
       -2.4438028 -1.5473531 -2.6483552 -2.434606
000180 fd 3f f3 bf ef e5 6f c0 78 e0 06 c0 04 cb 37 c0
       -1.9003903 -3.748409 -2.1074505 -2.871766
000190 dd 9d 6a c0 2c 8f dd bf 11 be 85 c0 23 2c fe bf
       -3.6658852 -1.7309318 -4.1794515 -1.985722
0001a0 82 f6 0a c0 23 b0 04 c0 4a e1 87 bf aa e0 10 c0
       -2.1712956 -2.0732505 -1.0615628 -2.2637124
0001b0 d2 c7 f5 bf 79 a0 ee bf 7c ad ed bf 15 79 f5 bf
       -1.9201605 -1.8642722 -1.8568568 -1.9177576
0001c0 ce e5 20 c0 d1 e2 09 c0 db 1e f3 bf 72 da 0d c0
       -2.5140262 -2.1544688 -1.8993791 -2.2164578
0001d0 9c 68 28 c0 c0 fd 18 c0 b3 30 38 c0 16 22 71 c0
       -2.6313848 -2.3904877 -2.8779724 -3.7677054
0001e0 01 f2 69 c0 b7 7f 52 c0 b4 ed 13 c0 16 e3 fd bf
       -3.6553957 -3.289045 -2.3113832 -1.9834926
0001f0 98 f1 15 c0 07 20 13 c0 cf a1 fe bf 8a 26 31 c0
       -2.3428707 -2.2988298 -1.989313 -2.7679772

fcs.1.bias f4 [2]
000000 30 1c b2 3f d3 39 b2 bf
       1.3914852 -1.3923897
