cache/ckpts/woselfloop-genius_NormalNN-genius_trialNo7.pt (torch, 6491 bytes, 5 tensors)

alpha_params f4 [64, 3]
00000000: 3707 d83d 2f06 da38 4e6f 7e38 61c7 d73d
00000010: 1b58 b738 841b fa38 483b d73d 9757 ab38
00000020: d3da 7137 35ba d73d 8563 d938 c491 bb36
00000030: c09b d73d afa1 0a39 9021 bd38 0cc8 d73d
00000040: 0f16 8938 b9d8 cc38 9c9e d83d 6d32 2739
00000050: dfac 7b38 877f d73d d081 d138 fb47 0639
00000060: bf08 d83d c363 1739 8106 c738 f2f0 d73d
00000070: 68b0 0238 5c51 0f39 9196 d73d 9f7f f538
00000080: 90e5 bf38 b193 d73d 1d9c 2139 d0b5 17b8
00000090: 2f87 d83d 7d01 1d39 b199 f038 20ea d73d
000000a0: ef77 bc38 ed42 dc38 8f22 d83d cb82 f638
000000b0: 864b f838 eaa2 d73d 13da aa38 d1ed a438
000000c0: 7ad1 d73d 211c 1739 3ac3 a738 ef86 d73d
000000d0: edbf e138 ba2f bc38 5353 d73d dcb5 bf38
000000e0: bb3e 1239 46a2 d73d e85e 0739 1a73 3b38
000000f0: 0dd1 d73d 66ee 2339 5caf cb38 89cf d73d
00000100: dd2b 3b39 57e2 aa37 bc0f d83d 66d1 bb38
00000110: eb96 17b7 ac76 d73d 778c 1b39 9af8 1c39
00000120: 05d7 d73d df9e cf38 9ea3 5eb8 7eb8 d63d
00000130: 26c0 0039 1acc d438 e7c0 d73d c7b2 f438
00000140: d4c1 9ab6 d575 d73d 7a2f 1739 ae26 4538
00000150: 5e41 d73d b362 e538 8244 36b7 ea71 d73d
00000160: 6352 b938 04d8 3b39 df67 d73d fe00 2539
00000170: 360d 1538 4c4d d73d 474b 8fb7 b7d5 a1b8
00000180: b837 d83d 1d0b e738 5415 cd38 2b42 d73d
00000190: cd20 0c39 64ca 1735 5efa d73d 32fc ceb7
000001a0: 21eb 9bb5 8fab d73d 58a8 dd38 e21b 0439
000001b0: 594c d73d 36b2 1739 8428 9d38 7129 d83d
000001c0: ac76 2739 8ed9 4d38 f1d0 d73d 0dfd 1d39
000001d0: ce52 8437 cca1 d73d 3c12 0538 50e2 3b39
000001e0: 4ca7 d73d 42da 0839 5d4d c638 fcd0 d73d
000001f0: ec6b 8838 3c35 bc36 6076 d73d b11c 0539
00000200: e0ae d638 4bf0 d73d dabf 3839 2003 4c39
00000210: b8c4 d73d 0af2 d3b7 16ec e536 95ad d73d
00000220: 1d48 0a39 0104 ad38 68ef d73d 8eda 9638
00000230: ad38 5b38 64a8 d73d e154 1239 29a9 9138
00000240: bcc2 d73d e80b 1539 4b2f 9638 5f9c d73d
00000250: 8426 c038 5cb2 c838 774e d83d 49cf 3239
00000260: 8440 1338 4daf d73d 4644 8238 fd44 8a38
00000270: e3ad d73d 3448 8d38 264a a438 97a3 d73d
00000280: 5781 3638 132d 8fb8 a203 d83d e8c4 6138
00000290: a3a6 f538 f0ea d73d 019d 0a39 4fe1 1d39
000002a0: 9410 d73d 1088 0c38 118e 1339 9cba d73d
000002b0: 3804 8c38 feed fa38 0e66 d73d c2d8 d937
000002c0: 5cc9 5937 3afa d73d c9fa 9f38 6b93 bdb6
000002d0: ce90 d73d 4902 d438 e1b7 0439 18e0 d73d
000002e0: 1324 3f39 a26e a138 ecec d73d 449b 0939
000002f0: 4dc0 e738 e0b6 d73d 0b8f f338 61e4 4539
0.10548251 0.00010396202 6.066198e-05 0.105360754 8.742531e-05 0.00011926054 0.10509354 8.17023e-05
1.4415668e-05 0.10533563 0.00010365903 5.5900036e-06 0.10527754 0.00013220937 9.018474e-05 0.10536203
6.536778e-05 9.767846e-05 0.10577127 0.00015945146 6.0004062e-05 0.10522371 9.990076e-05 0.0001280605
0.10548543 0.00014437646 9.490271e-05 0.105440035 3.1158706e-05 0.00013667851 0.10526765 0.00011706282
9.150349e-05 0.10526217 0.00015412313 -3.617053e-05 0.10572659 0.00014973241 0.00011472719 0.10542703
8.986878e-05 0.000105028834 0.105534665 0.00011754556 0.00011839629 0.1052912 8.146851e-05 7.864426e-05
0.10538001 0.00014410961 7.999544e-05 0.105237834 0.00010764585 8.973428e-05 0.1051394 9.141464e-05
0.00013947014 0.10528998 0.00012909959 4.469147e-05 0.1053792 0.00015633702 9.7124575e-05 0.10537631
0.0001785005 2.0370977e-05 0.10549876 8.955858e-05 -9.03544e-06 0.10520682 0.00014834279 0.0001496993
0.105390586 9.900121e-05 -5.3081305e-05 0.10484408 0.00012278612 0.000101469646 0.1053484 0.000116681265
-4.612122e-06 0.105205216 0.00014418169 4.7004483e-05 0.10510515 0.00010937955 -1.0863996e-05 0.10519774
8.836833e-05 0.00017914182 0.10517859 0.00015735996 3.5536672e-05 0.1051279 -1.7081982e-05 -7.716886e-05
0.105575025 0.000110170084 9.7791344e-05 0.105106674 0.0001336366 5.65464e-07 0.105458006 -2.4674551e-05
-1.1616831e-06 0.10530769 0.00010569458 0.00012598888 0.10512609 0.00014466871 7.49389e-05 0.10554779
0.0001597057 4.9078422e-05 0.10537899 0.00015066956 1.5774185e-05 0.10528907 3.1726653e-05 0.00017918018
0.10529956 0.00013051278 9.455786e-05 0.105379075 6.5050874e-05 5.609034e-06 0.10520625 0.00012694557
0.00010236888 0.10543879 0.00017619078 0.0001945612 0.10535568 -2.5265868e-05 6.852216e-06 0.10531155
0.0001318757 8.2500286e-05 0.1054371 7.193266e-05 5.2266452e-05 0.10530165 0.00013955265 6.945647e-05
0.105351895 0.00014214183 7.1613664e-05 0.10527872 9.1624475e-05 9.569965e-05 0.10561841 0.00017052623
3.5107616e-05 0.10531483 6.2116e-05 6.593203e-05 0.10531213 6.736853e-05 7.8339406e-05 0.10529249
4.351264e-05 -6.827167e-05 0.10547568 5.3827564e-05 0.00011713549 0.10542858 0.00013219194 0.00015056621
0.10501209 3.350532e-05 0.00014071936 0.1053364 6.676506e-05 0.000119652585 0.10517512 2.5969352e-05
1.2981091e-05 0.10545774 7.628423e-05 -5.6498006e-06 0.10525666 0.000101093734 0.00012657001 0.10540789
0.00018228618 7.697685e-05 0.10543236 0.00013123179 0.00011050757 0.105329275 0.00011613787 0.00018872462

fcs.0.weight f4 [64, 12]
00000000: 0f6c a739 dbcc 9e38 0b85 22b9 5546 59ba
00000010: a078 6a36 c1af 6d39 381e 1b39 b536 5e38
00000020: 7dbb 44b8 9eb2 9238 3e88 383a 9286 fbb8
00000030: 7519 cbb9 3753 143a f38b 10ba 2aad 31ba
00000040: 13d2 283a d907 7ab8 12d3 bcb7 6296 5139
00000050: 6085 cf37 07e2 5b3a 1f0b 49ba 0682 9238
00000060: 0a42 54ba 4643 293a 3daf 7b38 82f9 c0b9
00000070: 747f 24ba d70b 0039 d64b d139 dbc5 1ab8
00000080: fc56 4a37 4ca6 9f39 07ee b1b8 9070 cc39
00000090: 5cfe 243a 3eb1 0ab8 fab3 12b9 d33a 73b8
000000a0: 2995 9b37 a94e 27b9 fd75 5c39 d1fa 6c3a
000000b0: e501 4338 bbb5 2738 3d51 1038 bd5a 11b7
000000c0: 1372 3b39 0846 17b8 8e87 01ba e5a4 16b9
000000d0: 9612 1eb6 29d6 45b8 1264 7c38 9cb3 2b3a
000000e0: 5c7c 4f37 868b 2839 bc4a 8038 86c7 5bba
000000f0: e16f e039 54fe 503a 78ca eab9 b55b 49b9
00000100: 02a8 4d39 b365 12ba 28e8 0bb9 b48d aa38
00000110: 87bd 1039 a920 8db9 4311 36b9 0c67 73b9
00000120: 9468 da39 86c0 2939 9e01 dcb9 f742 e8b8
00000130: abf7 efb9 784f 13b8 6cfc e038 355a b4b8
00000140: caeb 93b9 a0ca 2a38 3300 1539 553c 593a
00000150: 8b83 973c a74d 96b9 8cc5 cbb6 dccf 1e38
00000160: e404 80b8 a80d db38 e3d2 2d3a 10af 82b9
00000170: 521b a7b7 f424 e438 af3a c5b8 8b2e 6337
00000180: b189 d137 ed6b 4ab7 9933 7db9 0efd 9539
00000190: 6ade 9bb6 a892 9eb8 520b d8b8 f3e0 f5b7
000001a0: 8f6a 3338 afd8 d038 ad6e 2d39 538d 0638
000001b0: 9ce4 1f3c 693e 943a ebad 173b 801f a7b8
000001c0: 42da a4b9 ece0 5d37 7fa6 b239 f58e 683a
000001d0: 3802 8636 ba87 fbb7 67cd 2038 a693 32b9
000001e0: a0d7 9abc 71da a83a 6b94 d838 f727 86b9
000001f0: 99d8 5d3a 20a6 1438 d91e 4bba cce3 f739
00000200: 80e0 e3b8 4f6a dfb9 91ef f538 8092 3cb8
00000210: c465 223b 5a71 163a 8bd3 86b4 6922 14b9
00000220: 2e5c 9236 99c9 5036 bdf1 5f3a c7a2 3bb8
00000230: 7b96 9d39 37a9 9bb9 f8d0 64b8 be52 34b9
00000240: f982 a739 b6b8 08ba 14af 6c3a d452 acb9
00000250: c1fa 583a a3d3 a2b8 6415 9338 4f31 34b9
00000260: c9a4 2eb8 cf11 7d38 a81a 7538 9fe3 3939
00000270: e77b c639 560e 14ba a044 2c39 faf9 7f38
00000280: e578 5fb7 09fd 6bb9 68b1 ce35 8c9a 1db8
00000290: 5531 3239 3a1d 10b6 6bf5 003a 87e5 5b3a
000002a0: 9772 b83a 7865 c9b8 985d 8cb9 9cd7 c2b7
000002b0: aa17 9fb9 306c 58ba 472e 7bb8 1a95 3fb9
000002c0: 499d 3aba 31e7 a537 ed8a 9c39 0926 a139
000002d0: c300 7cbb f117 d839 d827 093a 1146 2138
000002e0: 0827 aa39 0e26 11b9 8851 fd37 a1cd 1639
000002f0: ef84 d936 6953 483a 0b79 a6b9 675d eb38
00000300: ab82 47b7 d0f2 153a cfb7 38b9 3a61 7f39
00000310: f8ea ad38 ac82 78b9 2c80 91b9 183a ab38
00000320: 09fb 9f37 2b34 4e3a 9e90 0537 5392 c238
00000330: dd47 ef3a b88d e5b8 65ef 543a 1ca0 f4b7
00000340: c153 1838 a0cd 0a39 bab3 0cba 9d23 d9b8
00000350: 326a 1938 e725 8137 d75f 33b6 eaa1 d6b8
00000360: 8a30 493a 0ff7 9039 f70a e538 c285 fbb8
00000370: 8e70 f337 2eb5 03b9 5b94 48b9 b199 9239
00000380: f0d5 29b8 6a01 26b9 35a0 83b9 3799 b2b7
00000390: 9eef faba 9319 7f3a 342a 0039 683e ee39
000003a0: dd4a cab9 0276 3b39 97ec c239 a0d3 5bb8
000003b0: 629a cb39 298c 4db5 f632 9fb9 1f2c 7cb9
000003c0: d92e d33a 28d3 02bb 9941 3d3a 452d 40ba
000003d0: 8530 0637 80e4 3439 4136 333a 47b7 283a
000003e0: 0962 a9b8 943f 9437 c7fc c838 aa71 2a38
000003f0: 145f 07bb 21ac 8639 e046 753a 4c6a cbb9
0.00031933232 7.5721844e-05 -0.00015499086 -0.00082883734 3.493893e-06 0.00022667555 0.00014793209 5.2979874e-05
-4.6904654e-05 6.9950926e-05 0.00070393446 -0.00011993678 -0.00038738144 0.0005658152 -0.0005514018 -0.00067778176
0.0006439995 -5.9611953e-05 -2.2509634e-05 0.00019987815 2.473843e-05 0.0008387868 -0.00076691987 6.986041e-05
-0.0008096999 0.0006456863 6.0006267e-05 -0.00036806992 -0.00062750955 0.00012211442 0.0003992009 -3.690073e-05
1.2060391e-05 0.00030450744 -8.484354e-05 0.00038993778 0.0006294006 -3.3066834e-05 -0.00013990692 -5.79905e-05
1.8546898e-05 -0.00015955664 0.00021024789 0.000904006 4.6493387e-05 3.9985152e-05 3.4407934e-05 -8.6638e-06
0.00017876206 -3.6066427e-05 -0.00049411587 -0.00014366543 -2.3554653e-06 -4.7167912e-05 6.017468e-05 0.0006549896
1.2367116e-05 0.00016073705 6.117436e-05 -0.00083839183 0.00042807966 0.0007972468 -0.0004478281 -0.00019203017
0.00019612911 -0.00055846124 -0.00013342558 8.132626e-05 0.00013803515 -0.0002691795 -0.00017363303 -0.00023212674
0.00041658117 0.00016188817 -0.00041962875 -0.00011075095 -0.0004577016 -3.5121542e-05 0.000107281696 -8.599871e-05
-0.000282137 4.0719868e-05 0.00014209822 0.0008286883 0.018495342 -0.00028668085 -6.072869e-06 3.786372e-05
-6.1044266e-05 0.000104452774 0.0006630851 -0.00024925964 -1.9920673e-05 0.0001087877 -9.404623e-05 1.3541091e-05
2.4978859e-05 -1.2065267e-05 -0.00024147182 0.00028608035 -4.6452524e-06 -7.561344e-05 -0.00010301791 -2.9311026e-05
4.2776166e-05 9.958573e-05 0.00016539796 3.2079708e-05 0.009759095 0.0011310104 0.0023144435 -7.969048e-05
-0.00031443132 1.3224995e-05 0.00034074855 0.00088714 3.9937695e-06 -2.9984734e-05 3.833827e-05 -0.00017030406
-0.018901646 0.0012882483 0.000103273276 -0.00025588248 0.00084627565 3.5440666e-05 -0.0007748432 0.00047281233
-0.0001086602 -0.0004261308 0.00011727133 -4.495913e-05 0.0024779895 0.00057389366 -2.5113363e-07 -0.00014127199
4.36187e-06 3.111176e-06 0.0008542797 -4.4735873e-05 0.0003005749 -0.0002968998 -5.4554053e-05 -0.00017196962
0.00031950304 -0.00052155124 0.0009028774 -0.00032868108 0.00082771113 -7.7641824e-05 7.0134905e-05 -0.00017184507
-4.16383e-05 6.0336486e-05 5.8437377e-05 0.0001772777 0.00037857817 -0.0005647888 0.00016428763 6.1029546e-05
-1.3319984e-05 -0.0002250561 1.5399828e-06 -3.757565e-05 0.0001699378 -2.1474684e-06 0.00049193826 0.0008388389
0.0014072236 -9.603327e-05 -0.00026772614 -2.3227003e-05 -0.00030344474 -0.0008255867 -5.9886162e-05 -0.00018270724
-0.0007118774 1.977719e-05 0.00029858146 0.0003073665 -0.0038452602 0.00041216568 0.00052320724 3.8450646e-05
0.00032454007 -0.00013842454 3.0197916e-05 0.00014381717 6.4825795e-06 0.00076418236 -0.0003175217 0.00011223071
-1.1891748e-05 0.0005720081 -0.00017616081 0.00024354915 8.293049e-05 -0.00023699802 -0.0002775205 8.164736e-05
1.9071174e-05 0.000786605 7.961089e-06 9.277896e-05 0.001825567 -0.00010945968 0.0008122831 -2.9161623e-05
3.6317626e-05 0.00013237307 -0.00053673575 -0.00010354 3.6576945e-05 1.5395648e-05 -2.6728865e-06 -0.00010234474
0.00076747744 0.00027649893 0.00010921613 -0.00011993527 2.902027e-05 -0.00012560628 -0.00019128753 0.000279618
-4.0491985e-05 -0.0001583152 -0.0002510563 -2.12906e-05 -0.0019144898 0.0009731289 0.00012222753 0.00045441394
-0.0003858422 0.00017877671 0.00037178837 -5.241076e-05 0.000388342 -7.657241e-07 -0.00030364812 -0.00024049029
0.0016111984 -0.0019962285 0.00072195526 -0.00073309644 7.998319e-06 0.0001725126 0.00068363926 0.0006436002
-8.0768084e-05 1.767258e-05 9.5838266e-05 4.0637016e-05 -0.0020656036 0.00025686718 0.00093565695 -0.00038798375

fcs.0.bias f4 [64]
00000000: 6537 10b8 bf30 3f38 e46b e839 e376 e636
00000010: 6615 3bb8 19a2 93b8 1c71 84b9 8af5 01b9
00000020: e823 a738 b5a6 403a 9727 a436 4f8a 1bba
00000030: 502f 39b8 5fa7 2d39 2ade 3cb9 b2aa 1538
00000040: 50cd 54b9 34ed 89b9 1b0c 02b8 5951 673a
00000050: 29b6 1a39 79ae a839 9a9e e6b7 548e a2b9
00000060: e871 be38 460d 5839 c995 7f39 390c 3ab8
00000070: dbf4 1938 be1f 10b8 4ae9 35b8 d3e8 1fb8
00000080: f0ec 5a38 7afb b139 144f 7f38 3603 8139
00000090: 762c fab7 fe9e 37b9 3e53 84b7 e46b a739
000000a0: d428 62b8 847c 1439 6060 9139 1d4d cdb9
000000b0: b930 9339 a996 2739 7cab 8338 a9a5 cc38
000000c0: 53be 2638 83d2 a937 a474 1439 0e31 e738
000000d0: eac2 c038 8e44 eab7 3a44 13b8 8938 4aba
000000e0: 75ee abb8 1209 bc39 4e8b 18ba c9db 6339
000000f0: 9c56 3db9 6f3b bcb7 823a 2eb8 2735 30b8
-3.4383866e-05 4.5583347e-05 0.00044330873 6.8683744e-06 -4.4604203e-05 -7.039699e-05 -0.00025261275 -0.00012393869
7.9698686e-05 0.000734906 4.8921897e-06 -0.00059333903 -4.41515e-05 0.00016560916 -0.0001801184 3.568334e-05
-0.0002029438 -0.00026307406 -3.100569e-05 0.00088240724 0.00014754444 0.0003217345 -2.7491991e-05 -0.0003100509
9.081123e-05 0.0002060431 0.00024374494 -4.435724e-05 3.6706082e-05 -3.4361838e-05 -4.337103e-05 -3.812539e-05
5.2195915e-05 0.00033947435 6.0870385e-05 0.0002460719 -2.9823026e-05 -0.00017511469 -1.5774389e-05 0.00031933107
-5.3920623e-05 0.00014160766 0.0002772836 -0.000391581 0.00028074326 0.00015982486 6.278508e-05 9.7583346e-05
3.9754737e-05 2.0244397e-05 0.00014157832 0.000110240755 9.191579e-05 -2.7926897e-05 -3.5111072e-05 -0.0007714113
-8.1983315e-05 0.00035864912 -0.0005819098 0.00021730283 -0.00018056709 -2.2439022e-05 -4.1539322e-05 -4.2011172e-05

fcs.1.weight f4 [2, 64]
00000000: 87b7 b33a c1a3 743a 5e9d bd3a 5e93 853a
00000010: 186b f43a 3872 c33a e84e c73a aca4 bf3a
00000020: 67d8 be3a 96cc cb3a d957 883a ca08 cc3a
00000030: f530 bf3a 2f5e ae3a 1b4b ae3a 2ce8 c13a
00000040: c33e da3a ed8c c23a 029c b53a 4664 c93a
00000050: 7409 c63a 2441 cc3a 072a b23a 2ef0 f03a
00000060: ee37 903a d95c b03a 2396 c43a e658 d73a
00000070: 030c be3a da06 d33a 5736 ed3a 69e8 693a
00000080: 0e0b cb3a 062a b93a 5c45 843a b88c a93a
00000090: ed1d cb3a 057b d73a 1475 e13a 5c92 b93a
000000a0: c6cb bd3a 4986 b13a f064 c43a 79fc bd3a
000000b0: 5da5 2b3a c54c ab3a 4235 b33a 6fd3 bc3a
000000c0: 3e09 c33a 7e39 823a 2552 d93a 620a 783a
000000d0: 1c09 c43a 93ae b43a 6a41 d33a 9031 d13a
000000e0: cabb aa3a cd2f 873a 163d 913a 5384 b13a
000000f0: e8fa cd3a 7aba dd3a ad73 b93a 4aa5 e13a
00000100: 69e2 a7ba cb13 9fba 3f09 a4ba 0b00 c6ba
00000110: ccf0 95ba 2dee bfba 669a cfba df03 c9ba
00000120: 38ee baba 1989 b1ba 0f64 93ba f895 1aba
00000130: e617 afba a11b b3ba 4242 a1ba ac1e a6ba
00000140: 61b5 b8ba 1572 b4ba 8f0b 97ba afb7 bdba
00000150: 0b9a 96ba a206 aeba 65b0 6dba 8215 95ba
00000160: 660f 88ba 82d0 b7ba ab2e 77ba 040c acba
00000170: 5326 abba 2260 c5ba 52ce acba c5fa 15ba
00000180: 08fa bdba f833 b1ba 6ecd c1b9 1596 baba
00000190: dfef acba 482a c1ba a93e 75ba 60c3 9aba
000001a0: a0ca aaba 4299 6eba 557a b0ba 7bee 76ba
000001b0: b79a 40ba 9e2a 96ba 89ae dbba ed61 b2ba
000001c0: 4abb b6ba 9d01 12ba 4a26 caba 0b90 8bba
000001d0: c2c9 96ba bc44 4eba 5a7e 59ba e78a bcba
000001e0: 9122 a9ba b83c aeba 5382 40ba 24c9 97ba
000001f0: 379f 92ba e4ff c0ba ba00 c2ba 725d a9ba
0.0013711312 0.00093322626 0.0014466455 0.0010191014 0.0018647639 0.0014911359 0.0015206011 0.001462122
0.0014560343 0.0015548642 0.0010402157 0.0015566584 0.0014586734 0.0013303215 0.001329753 0.0014793924
0.0016650785 0.0014843025 0.0013855698 0.0015364967 0.0015109018 0.0015583378 0.0013592847 0.0018382126
0.0011002996 0.0013455405 0.0014998358 0.0016429692 0.0014499429 0.0016100064 0.001809786 0.00089228764
0.0015490965 0.0014126904 0.0010091471 0.0012935614 0.001549659 0.0016439861 0.001720103 0.0014157998
0.0014480285 0.0013544048 0.0014983695 0.0014494798 0.00065477734 0.0013069144 0.0013672488 0.0014406274
0.0014880074 0.0009935347 0.0016580267 0.00094619964 0.0014956328 0.0013784937 0.0016117517 0.0015960205
0.0013025936 0.0010313928 0.0011080827 0.0013543464 0.0015715035 0.0016916536 0.0014148854 0.0017215398
-0.0012808564 -0.0012136636 -0.0012514963 -0.0015106214 -0.0011439561 -0.0014643125 -0.0015838861 -0.0015336237
-0.0014261669 -0.0013544887 -0.001124503 -0.0005896981 -0.0013358563 -0.001366485 -0.0012303072 -0.0012673936
-0.0014092141 -0.0013766909 -0.001152383 -0.0014474298 -0.001149 -0.0013277123 -0.00090671174 -0.0011374208
-0.0010380566 -0.0014023932 -0.00094292563 -0.001312614 -0.0013057686 -0.0015058557 -0.0013184047 -0.00057212665
-0.0014494071 -0.0013519516 -0.00036964886 -0.0014235402 -0.0013194046 -0.0014737332 -0.00093553454 -0.0011807494
-0.0013030358 -0.00091018167 -0.0013464192 -0.00094196916 -0.0007347273 -0.0011456793 -0.001676039 -0.0013609506
-0.0013941315 -0.00055696984 -0.0015422788 -0.0010647787 -0.001150422 -0.00078685186 -0.0008296721 -0.0014384658
-0.0012903978 -0.0013293242 -0.00073436386 -0.001158033 -0.0011186366 -0.0014724699 -0.0014801242 -0.0012921526

fcs.1.bias f4 [2]
00000000: 2e63 063f 11aa 22bf
0.52495086 -0.6354075
