cache/ckpts/woselfloop-genius_NormalNN-genius_trialNo7.pt (torch, 8347 bytes, 5 tensors)

alpha_params f4 [64, 9]
000000 36 6b 17 3d f2 69 57 3e 36 2b 69 3d 67 be 80 3e
       0.03696748 0.21036509 0.056925975 0.25145265
000010 5e 9f 16 bd 0f a6 74 3e de 76 bc 3c 64 57 04 3e
       -0.03677308 0.23891471 0.023005899 0.12923962
000020 07 48 1b 3d 42 ae 4f 3e 23 8e bf bd e6 f7 f2 3e
       0.037910488 0.20281318 -0.09353282 0.47454756
000030 25 16 03 bd e4 eb 83 3e 55 f9 bc 3c 21 8d e9 3d
       -0.03200354 0.25765908 0.02306811 0.11403871
000040 19 6a 3a bd f3 fd ca 3c cc 0a 1e 3e 09 81 33 3d
       -0.04551134 0.024779296 0.15433806 0.04382423
000050 54 40 e4 3e ff 09 4c be 93 7d db 3e 27 fb 20 be
       0.44580328 -0.19925688 0.42869243 -0.15720807
000060 76 38 27 3e 15 e8 62 bd 85 0c 02 3e 83 bc 27 3e
       0.16330132 -0.055397112 0.12700088 0.16380505
000070 05 2c 00 be 13 f0 ec 3e 99 41 e9 3c b0 89 99 3e
       -0.12516792 0.46276912 0.028473662 0.2998786
000080 75 d4 42 3d 6c 62 0d 3e 7d 02 09 bd 84 2a 02 3d
       0.047565896 0.13807076 -0.03344964 0.031778827
000090 78 b7 c5 3d 02 cd e3 3b d9 83 c0 3e 53 cb 44 bd
       0.096541345 0.006951929 0.37600592 -0.048045468
0000a0 44 da b8 3e f7 d2 c2 bd da 2f 30 3e b3 2b 89 bd
       0.36104023 -0.095128946 0.17205754 -0.06697788
0000b0 da 37 13 3d 23 53 50 3e 05 fa d8 bd c8 c9 fa 3e
       0.035941936 0.20344214 -0.105945624 0.48982072
0000c0 fb c6 04 bd 10 58 8f 3e 49 5c bc 3c 73 e4 f1 3d
       -0.032416325 0.27996874 0.022993224 0.11811151
0000d0 18 83 21 bd e2 48 ec 3c e1 33 ee 3d 4c c9 17 3c
       -0.03943166 0.028843347 0.11630989 0.0092643015
0000e0 85 cb e6 3e 36 85 ce bd 28 8e ba 3e 97 b3 c6 bd
       0.45077148 -0.10084002 0.36436582 -0.09702223
0000f0 95 76 15 3e b3 7e 24 bd f7 ed 56 3d bb ba c8 3d
       0.14596017 -0.040159892 0.052473035 0.09801241
000100 ac 18 7c 3d 3f ff cd 3e d1 f6 c7 bd 6c 60 d4 3e
       0.061546966 0.402338 -0.09763873 0.41479814
000110 97 1a 40 be 54 65 33 3e e1 90 e1 bd 49 f6 9e 3d
       -0.18760143 0.17519122 -0.110139616 0.07761819
000120 f8 49 da 3c a7 35 20 3e 08 a2 12 3e 16 e3 32 3e
       0.0266466 0.15645467 0.14319623 0.17469439
000130 b3 65 ad 3d 01 d2 e4 3d 3a 36 83 3d 16 ea a6 3d
       0.08466663 0.111728676 0.06406827 0.08150117
000140 89 7a ad 3c e3 31 5c 3e 3b df 03 be 67 ed fa 3e
       0.021176593 0.21503405 -0.12878124 0.4900925
000150 9f f4 93 3c 56 e4 8c 3e 16 25 3f 3d 92 2a de 3d
       0.01806098 0.27517956 0.046666227 0.108479634
000160 19 3f 5b bd ad 0f db 3b 90 19 18 3d 9b 89 2d 3e
       -0.05352697 0.0066852183 0.037133753 0.16947024
000170 a6 17 2e 3d 1c 59 55 3e fd 07 70 bd 50 14 69 3e
       0.04250302 0.20834774 -0.05860137 0.22761655
000180 67 5f 88 3c ad 32 ae 3d db a4 82 3d 2c 92 d5 3d
       0.016647054 0.085057594 0.063791 0.10428271
000190 22 0c 62 3d c5 94 d1 3e 59 f7 db bd 6b 59 d8 3e
       0.055187352 0.40933815 -0.10740537 0.4225572
0001a0 46 d0 44 be 0d 6f 33 3e f7 1a ca bd 04 d5 86 3d
       -0.19220075 0.17522831 -0.098684244 0.06583598
0001b0 28 02 22 3c 44 28 48 3e f7 24 f8 3d 28 19 a8 3e
       0.009888209 0.1954661 0.121164255 0.32831693
0001c0 fd 35 1f bd 08 a1 bb 3e 98 b7 cd bd 11 f2 80 3e
       -0.038869847 0.36646295 -0.10044783 0.25184682
0001d0 d9 d1 08 bb b4 90 c0 3d 31 6b 44 3d ea 37 cb 3e
       -0.0020877032 0.094026 0.04795379 0.39691097
0001e0 37 e9 98 bd 48 6c d6 3e f0 01 40 be f3 27 42 3e
       -0.07466357 0.41879487 -0.18750739 0.18960552
0001f0 ae 20 bf bd 9c 0d 8d 3d 04 89 1f 3c 00 af 46 3e
       -0.09332405 0.068873614 0.009737257 0.19402695
000200 a5 7f 01 3e a6 b0 a4 3e f3 73 87 bc 43 c4 a8 3e
       0.12646349 0.32166022 -0.016534781 0.32962236
000210 4e c3 2e bd 6b 2d 67 3e 33 c9 05 3d e6 4c dd 3d
       -0.042666726 0.2257592 0.03266258 0.10805683
000220 bd 8e 81 3d c6 71 ce 3e 14 a4 11 be d8 9e c6 3e
       0.06326053 0.40321177 -0.14222747 0.38793063
000230 95 85 07 be 1c 62 1f 3e f0 af 5b bd a7 6c ed 3c
       -0.13234551 0.1556477 -0.053634584 0.028982474
000240 50 30 0f 3d 5e 79 ad 3d d6 17 0c 3d 88 6b ac 3d
       0.034958184 0.084704146 0.03420242 0.084189475
000250 4b 31 5c 3d 34 62 ef 3c 86 92 00 3d a2 09 93 3c
       0.053757947 0.029221632 0.031389736 0.01794893
000260 e8 23 4f 3d 71 ef bf 3d 46 98 99 bc 98 df c3 3e
       0.050571352 0.09371842 -0.018749367 0.38256526
000270 d4 74 53 bd 1b f4 bb 3e ac e5 8f bd 66 9e 19 3e
       -0.051625088 0.36709675 -0.07026228 0.1500183
000280 c4 46 80 bd c5 0c b1 3c 69 7f a8 3d cc 12 5b 3d
       -0.062634975 0.021612534 0.082274266 0.053484723
000290 88 a7 b8 3e 99 96 96 bd ff a1 c7 3e 92 b5 3a be
       0.36065316 -0.07352943 0.3899078 -0.18233326
0002a0 a9 1a 45 3e 47 98 a4 bd 6f 26 83 3d dc 7c 13 3e
       0.19248451 -0.08036857 0.06403815 0.14403099
0002b0 87 04 6e 3d cd e4 e3 3e c6 a9 5c be 27 c9 d6 3e
       0.058109786 0.445105 -0.21549138 0.41950342
0002c0 e4 73 1b be 0e b8 28 3e 8f 72 31 bd bc 74 09 3e
       -0.15180928 0.16476461 -0.043322142 0.13423437
0002d0 d1 8f e2 3d fe 6d ca 3d 73 00 a9 3e 6e 8e f9 bd
       0.11062587 0.098842606 0.33008155 -0.121853694
0002e0 19 9b e9 3e bf 1f 49 be 72 5e 94 3e a3 96 12 bd
       0.45626143 -0.19641016 0.28978306 -0.03578819
0002f0 fa 9f 0f 3e 21 df 6f 3d 51 54 fb 3d 56 f3 b3 3d
       0.1402587 0.0585624 0.122719415 0.08786647
000300 c5 ea e2 3d 0c 25 f3 3d 96 86 53 3c 67 09 94 3d
       0.11079935 0.118723005 0.012910506 0.07228356
000310 d4 2f 5e 3c 50 3b d1 3d 89 26 b6 3d b8 35 3c 3d
       0.013561208 0.10216391 0.08894069 0.045949668
000320 ad 43 c7 3e d2 4e bb bd e9 a3 cb 3e cb 8f 2f be
       0.3891882 -0.09145893 0.3977349 -0.17144696
000330 f0 37 40 3e 90 65 95 bd a5 e6 86 3d 7e 6c a7 3c
       0.18771338 -0.07294762 0.06586961 0.020437475
000340 28 a3 6d 3d 06 ea cc 3c 3e 7e 58 3d 85 c9 1c 3d
       0.058016926 0.025013935 0.05285477 0.03827812
000350 87 20 aa 3c d2 b1 ac 3c 86 25 80 3c 47 bb 2e 3d
       0.020767463 0.021080885 0.015642893 0.04265907
000360 4a 83 3b 3e 60 c4 01 be 5c 0d eb 3e a3 e5 12 3d
       0.18311802 -0.12672567 0.4590863 0.03586353
000370 36 c4 86 3e 30 45 1e 3d 3e 3f f8 3d 8a c9 1c bd
       0.26321572 0.0386402 0.121214375 -0.03827814
000380 28 a9 c5 3b 80 54 72 3c 35 37 61 3d f1 4b aa 3b
       0.006032128 0.014790654 0.05498429 0.005197041
000390 be 4e 5d 3d 5b 63 d0 3b ee 3e 03 3d 21 8c 5f bb
       0.054030173 0.0063595003 0.032042436 -0.0034110623
0003a0 d5 b1 18 3d 21 05 e6 3c 62 90 4e 3e 5a f1 01 be
       0.03727897 0.028078618 0.20172265 -0.12689725
0003b0 a2 7c f5 3e ea 49 78 bc 46 2e 93 3e 01 01 12 3d
       0.4794665 -0.015154341 0.2874624 0.03564549
0003c0 e6 71 ee 3d 66 a6 b4 bc 9c 1f 9c 3b 2c 2a 4a 3d
       0.11642818 -0.022052001 0.0047645103 0.049356624
0003d0 3c aa ee 3d a0 81 77 3d ef 61 97 3d 98 0a dd 3d
       0.116535634 0.060426354 0.07391726 0.10793036
0003e0 1f f8 b9 bc 1f 8d ad 3d 50 b9 1a 3c 1b 5b 8a 3d
       -0.022701321 0.08474182 0.009443596 0.06755658
0003f0 9a 1d cd 3d 73 14 34 3d 96 3a c9 3e 5c f2 a9 bd
       0.10015412 0.043964814 0.3930251 -0.082981795

fcs.0.weight f4 [64, 12]
000000 d4 b8 18 3d 52 51 82 3e 85 0b 96 3f 83 14 a2 c0
       0.03728564 0.25452667 1.1722265 -5.065004
000010 c5 23 1b c0 75 cc e0 c0 48 37 87 40 2d 48 6f c1
       -2.4240582 -7.024958 4.225498 -14.955121
000020 75 e7 9e 3d c3 81 ac 3d 76 4b 6a 3c fc c0 9e 3c
       0.07758991 0.084231876 0.014300218 0.019379131
000030 38 0c 10 bf a2 5f 8b 3c ee 26 94 3d d3 35 f0 bd
       -0.56268644 0.017013375 0.07233988 -0.11729016
000040 fa 87 1e bf 89 8a 2b bd 0f 7b 52 bd 4c 1a 8a 41
       -0.61926234 -0.041880164 -0.05138689 17.26284
000050 6c b3 a3 c0 a5 45 9a bf 8d 4f e8 be 41 91 98 be
       -5.115652 -1.2052504 -0.45373192 -0.2979832
000060 2f 1f 52 bd fb d2 9c be 7b 78 73 40 42 2e 84 c0
       -0.05129927 -0.30629715 3.8042285 -4.1306467
000070 fe bb 0f 40 3f ec 1a c0 10 89 16 c1 4b b1 74 41
       2.2458491 -2.4206693 -9.408463 15.293284
000080 c8 47 14 bf 67 07 3d bf 32 eb d7 be 08 57 17 be
       -0.5792203 -0.7383942 -0.42171627 -0.14779294
000090 21 ba 1c be 29 c2 5a 3b 9b 76 8b be 1b 7f 4a bf
       -0.15305378 0.0033379889 -0.27238926 -0.791002
0000a0 28 c4 e7 bf bf 38 b5 bd 9d e7 55 c0 88 41 8d 41
       -1.8106737 -0.08848714 -3.3422616 17.656998
0000b0 b6 d7 93 c0 3b a2 a6 bf 71 57 52 bf 5e bd b6 be
       -4.620082 -1.3018259 -0.82164675 -0.3569135
0000c0 85 62 fe be d7 c8 09 bf e6 9b 3a 3f ea 91 46 c0
       -0.4968454 -0.5382208 0.7289413 -3.102656
0000d0 89 99 bd bf e0 cd fb bc 76 02 0d c0 12 b2 60 41
       -1.481248 -0.030737817 -2.2032752 14.043474
0000e0 6e 02 61 c0 8d 1a 1c c0 72 89 00 c0 f3 59 91 be
       -3.5157733 -2.4391205 -2.008389 -0.28388938
0000f0 ff b1 28 be 2f 7b e8 3c b7 f4 4c 3d 9f ae c8 bd
       -0.1647415 0.028379051 0.050038066 -0.09798931
000100 87 1a 87 bf ce bc ef bd f8 45 3d be a5 8e 52 41
       -1.055497 -0.117059335 -0.18483722 13.159825
000110 dc 9c bb c0 63 0a b5 bf 40 25 1d bf b0 23 8c be
       -5.862898 -1.4143795 -0.61384964 -0.27370977
000120 a9 8b 0e bf 2e 70 df 3d 16 6f 4e 3f 8e 36 6c c0
       -0.55681854 0.109100685 0.80638254 -3.6908298
000130 c5 0d 31 3f 9b cd cf bf 5a c0 c6 c0 53 95 84 41
       0.69161636 -1.6234621 -6.2109804 16.572912
000140 ae 64 1f c0 3e 10 be bf 64 a0 65 bf d6 47 79 be
       -2.49052 -1.4848707 -0.8969786 -0.2434381
000150 10 bf 11 be 73 00 ff 3d 11 88 7f 40 3a 4a a0 c0
       -0.14233041 0.124512576 3.9926798 -5.009061
000160 3b 93 05 40 8c ac ea bf ad fd 1d c1 7d 4d 7d 41
       2.0871112 -1.8333907 -9.874433 15.831418
000170 73 eb 12 bf 4c 95 4c bf 95 83 09 bf d7 c1 33 be
       -0.57390517 -0.7991531 -0.53716403 -0.17554413
000180 d0 98 9d be 2c 85 08 3f 12 fa 12 3f 58 d8 3e 3e
       -0.3078065 0.53328204 0.57412827 0.18637216
000190 9b e9 c8 3b 3e 95 de bd bc 7b ff bc a5 35 a6 c1
       0.0061313636 -0.108683094 -0.03118693 -20.776194
0001a0 93 47 c4 40 79 a2 b7 40 e0 5a 56 3f 2b c0 55 3d
       6.133737 5.738583 0.83732414 0.05218522
0001b0 72 ba af be c4 b8 1b 3a c3 c4 42 bb df 77 14 3c
       -0.34321934 0.0005940313 -0.002971933 0.009061783
0001c0 4e 67 0a bf e0 72 af bc ec 5e 0d 3d 87 9f 7f 41
       -0.5406388 -0.021417081 0.034514353 15.976447
0001d0 b2 64 be c0 a6 a0 a8 bf 1e 9b cc be fb be b8 be
       -5.949792 -1.3174026 -0.39962095 -0.36083207
0001e0 e4 30 80 3d cb 3b 9b 3e d9 1b 99 3e 87 67 7f c0
       0.06259325 0.30319056 0.2990406 -3.9906938
0001f0 8e 40 59 c0 84 6a b7 c0 27 20 bb 40 bf d1 4c c1
       -3.394565 -5.7317524 5.847675 -12.801208
000200 88 b7 bb 3d 6f 29 ed 3d 77 75 b5 3c 95 ca b9 3c
       0.09165865 0.115801685 0.022150738 0.022679606
000210 e8 91 10 be 29 aa 58 3e 10 8c 95 40 c1 da b2 c0
       -0.14118159 0.21158661 4.6733475 -5.5892034
000220 17 4a ab 40 a1 e1 20 c0 ad d5 21 c1 b8 73 85 41
       5.352794 -2.5137713 -10.114667 16.681503
000230 69 13 8b be 98 21 fa be 46 81 63 be c1 ca f0 bd
       -0.27163246 -0.48853755 -0.22217283 -0.11757422
000240 d5 e3 0c bf 91 ff d2 3d dd cd a5 3e 8d fd 14 bd
       -0.55035144 0.10302652 0.32383624 -0.036374617
000250 c4 e9 c3 bc 01 d9 bf 3d 71 81 11 3b 72 26 a9 c1
       -0.02391518 0.09367562 0.0022202397 -21.143772
000260 c4 45 31 41 ed 0b 3d 41 8a f3 38 40 5e 8f 5f bc
       11.079533 11.815412 2.8898644 -0.013645021
000270 e6 80 8c be e3 00 28 3e e0 4e 59 40 0a 0d 7f c0
       -0.27442092 0.16406588 3.3954391 -3.9851708
000280 a8 19 45 3f 69 db 2f c0 92 ab 15 c1 7a 3c 95 41
       0.76992273 -2.7477667 -9.354387 18.65453
000290 88 94 68 bf 26 74 67 bf 8a e1 0b bf 07 b7 c8 bd
       -0.9085164 -0.90411603 -0.5464102 -0.09800535
0002a0 ae 54 e3 be 17 bb d4 3d 2d 8e b1 3e 57 ac 62 be
       -0.44400543 0.10387247 0.34678784 -0.22136055
0002b0 5f d7 87 3d 77 41 74 3d df 90 15 be cf 2f a9 c1
       0.06632876 0.059632745 -0.14606045 -21.148344
0002c0 ec 6e 4f 41 eb bd 59 41 5a 86 70 40 e5 2a 2b 3e
       12.964581 13.608867 3.7582002 0.16715582
0002d0 14 61 c9 bd fa 84 c0 3f 43 f3 35 40 be 6f 85 c0
       -0.09832969 1.5040581 2.8429725 -4.1698904
0002e0 57 3f b2 40 3c a3 02 c0 b6 46 f4 c0 75 0e 6a 41
       5.570232 -2.041213 -7.6336317 14.62853
0002f0 df 98 0b be c6 65 a6 be 8c 76 9d 3d 0c 01 1c be
       -0.13632534 -0.32499522 0.07688627 -0.15234774
000300 37 0e bc 3e 8b cf 8c 3e 17 2e 46 3e e9 68 51 bf
       0.36729595 0.27502093 0.1935352 -0.81800705
000310 d0 2f 52 be f3 64 58 be bd 83 00 bf 44 8c d3 3f
       -0.20526052 -0.21132259 -0.50201017 1.6527181
000320 24 83 95 b8 b5 53 86 ba bd 85 18 3a 87 a8 f0 b9
       -7.1293005e-05 -0.0010248335 0.00058182684 -0.0004590193
000330 09 ed 8a be da 5b 11 bf 61 a7 3c 3f f7 6c 5d c0
       -0.27133968 -0.5678078 0.736929 -3.4597757
000340 78 22 24 c0 3b 2d 77 3c d7 f7 27 c0 bb 0b 6f 41
       -2.5646038 0.015086467 -2.624502 14.940364
000350 76 1e 5b c0 ef 15 08 c0 e4 84 ea bf 66 37 54 be
       -3.4237342 -2.1263387 -1.8321805 -0.20724258
000360 31 f3 f8 be 55 08 4e 3e 80 63 5a 40 c4 d3 94 c0
       -0.4862304 0.20120366 3.412323 -4.6508503
000370 56 69 8c 3f 47 03 c0 bf 28 64 1a c1 83 a2 8a 41
       1.0969646 -1.5001 -9.649452 17.329351
000380 f6 65 48 bf 2f 78 47 bf 51 b4 f2 be 23 c5 fb bd
       -0.7828058 -0.7791776 -0.47403196 -0.1229346
000390 0b 10 09 bc ff d1 44 be 0e 37 8a 40 0e 1a 9b c0
       -0.008365641 -0.19220732 4.3192205 -4.8469305
0003a0 e9 7a 8d 40 80 21 23 c0 97 86 14 c1 90 2f 7e 41
       4.4212537 -2.5489197 -9.282859 15.886612
0003b0 1a c7 0e bf b1 32 23 bf 50 d5 ce be 49 57 28 be
       -0.55772555 -0.63749224 -0.4039712 -0.16439547
0003c0 bb f9 bf bc bf df 50 40 86 03 40 bf 7f 6a 38 c0
       -0.02343451 3.2636564 -0.75005376 -2.8815
0003d0 3e 0a cd 40 de 67 64 c0 c7 b8 0d c1 9e f4 8c 41
       6.4075003 -3.5688396 -8.857612 17.619442
0003e0 fc a8 ea be 22 41 2f be 23 53 b2 3d 19 32 5d bd
       -0.4583205 -0.1711469 0.08707263 -0.054002855
0003f0 31 d9 cf 3d ce 84 ae be 56 4a 7a 3f 8c 83 df bf
       0.10148848 -0.34085697 0.9776968 -1.746202

fcs.0.bias f4 [64]
000000 02 d5 65 c1 14 1b 1b bd 9c 10 2a bd d5 d5 8d be
       -14.364504 -0.03786762 -0.041519746 -0.27702203
000010 73 37 b3 bc b4 5e 99 bc ad d4 00 bd e6 fa 92 bd
       -0.021877026 -0.018721916 -0.031452823 -0.07176761
000020 68 a6 d7 c1 33 6b ee bc 70 47 47 c1 92 23 c8 bd
       -26.956253 -0.029103851 -12.454941 -0.097724095
000030 25 f4 e0 c1 77 36 09 be ee 7e e9 c1 57 53 61 bd
       -28.119211 -0.13399683 -29.186977 -0.05501112
000040 db c7 0d bb 9d 58 60 bd 72 e0 9a bd f3 11 e0 bc
       -0.0021634016 -0.05477201 -0.07562341 -0.027352309
000050 25 54 6d bc 08 76 a2 bd e2 6c 88 bd cc f9 a0 b9
       -0.014485394 -0.07932669 -0.06661393 -0.0003070369
000060 58 56 a0 be 62 61 da bc 32 25 06 bd 56 71 95 b9
       -0.31315875 -0.026657764 -0.032750316 -0.00028503936
000070 94 01 be bd 54 2c 72 be c8 e6 58 be ba 0b 47 bb
       -0.09277645 -0.23649722 -0.21181786 -0.003037198
000080 e6 36 58 bd d0 52 f4 bd 56 0f 54 bc df 17 40 bb
       -0.05278673 -0.11929858 -0.0129431095 -0.0029311103
000090 cd ae 65 bd 7a 09 2a c1 ab 1c f2 c1 3b 23 4b bd
       -0.056074906 -10.627314 -30.263998 -0.049594145
0000a0 ae ec 47 b9 b5 1d cc bc 8f 6e f4 be 97 8c 68 bd
       -0.00019066289 -0.02491651 -0.477406 -0.056774702
0000b0 0b fd 31 bd 56 56 0d bc 12 70 43 bd e9 ec e5 b9
       -0.04345421 -0.008626541 -0.0477143 -0.00043854796
0000c0 51 6b 7c be c0 0a fe bc d0 43 af bc 18 e4 da bc
       -0.24650313 -0.031010985 -0.02139464 -0.026720092
0000d0 fe da 6b be 80 58 ac bc 12 17 21 be 66 7d 2f be
       -0.23032758 -0.021038294 -0.15731457 -0.1713768
0000e0 64 94 e3 3e 93 e4 b5 38 4c 77 8e bd e3 28 76 b9
       0.4444915 8.673328e-05 -0.06956348 -0.0002347562
0000f0 b0 61 c1 bd 5c d0 59 bc 34 d3 f1 c1 96 67 6e bd
       -0.094424605 -0.013294306 -30.228127 -0.058204256

fcs.1.weight f4 [2, 64]
000000 30 cf cb 41 e3 f3 dc 41 2c 76 df 41 5b 7f e4 41
       25.476166 27.619085 27.932701 28.562185
000010 5e 1a d5 41 ac 4d e1 41 4a 86 e0 41 eb a4 db 41
       26.637875 28.162926 28.06557 27.455526
000020 e4 6b ce 41 8a 74 ea 41 9c 17 a3 41 fe f4 dc 41
       25.802681 29.306904 20.386528 27.619625
000030 7a 73 02 42 d9 96 e0 41 40 6a 08 42 2a c4 df 41
       32.61277 28.073656 34.10376 27.970783
000040 61 a2 4c 41 41 8e d2 41 ec 50 d2 41 0e 70 d9 41
       12.789643 26.31946 26.289513 27.179714
000050 e9 d7 eb 41 bb 05 a0 41 6c fe db 41 a1 c3 e0 40
       29.480425 20.002798 27.49923 7.0238805
000060 0f 5c db 41 12 d9 a2 40 b2 2e e5 41 19 18 75 41
       27.41995 5.088998 28.6478 15.318383
000070 eb e0 d9 41 32 e9 cc 41 08 ce e4 41 3c 05 ca 41
       27.234823 25.613865 28.600601 25.252556
000080 79 2b e4 41 28 6c 1a 41 e0 e8 df 41 44 82 ce 41
       28.521227 9.651405 27.988708 25.813606
000090 84 03 ee 41 ad e5 a3 41 ba a2 0d 42 ff 95 d6 41
       29.751717 20.487146 35.408913 26.82324
0000a0 42 7a 95 41 bb 20 19 41 93 8b d2 40 25 39 d4 41
       18.684696 9.570491 6.579538 26.527903
0000b0 c1 ae d3 41 5b 8b d3 41 e2 a6 e4 41 b0 71 07 41
       26.46033 26.443045 28.581486 8.465256
0000c0 db 75 e8 41 cc 87 d5 41 a7 f8 69 41 dc 1b e1 41
       29.057547 26.691307 14.623206 28.138603
0000d0 bf e3 dc 41 0b 81 0c 42 be 40 2f 41 b7 68 d9 41
       27.611204 35.12602 10.953306 27.17613
0000e0 40 e7 ea 40 c5 9e ac 41 5c d4 c9 41 5a a2 7f 41
       7.3407288 21.577524 25.228691 15.977137
0000f0 8d 4d 0e 42 4b d2 d4 41 d0 14 0f 42 97 26 f2 41
       35.575733 26.602682 35.770325 30.268843
000100 89 09 cf c1 c1 31 e0 c1 8f 58 e0 c1 e3 c2 e4 c1
       -25.879656 -28.024294 -28.043242 -28.59516
000110 2a 1f d6 c1 7d fe e3 c1 f0 c8 e0 c1 ac 71 dd c1
       -26.765217 -28.499262 -28.098114 -27.680504
000120 01 e7 d1 c1 d4 be e9 c1 64 10 aa c1 88 7c df c1
       -26.237795 -29.218178 -21.258003 -27.935806
000130 69 46 05 c2 6f 30 e1 c1 65 6a 0b c2 0a 8b e0 c1
       -33.31876 -28.14865 -34.8539 -28.06789
000140 3f 23 53 c1 a6 68 d4 c1 cf 86 d3 c1 3d a4 dc c1
       -13.196105 -26.551098 -26.440825 -27.580194
000150 e8 02 ec c1 3b b1 a3 c1 d1 d5 dd c1 92 40 fa c0
       -29.50142 -20.461538 -27.729403 -7.820382
000160 e3 e1 dc c1 bf 1d b8 c0 9a be e6 c1 f6 63 79 c1
       -27.610296 -5.753631 -28.843067 -15.586905
000170 a9 42 db c1 5a 16 d0 c1 9c 26 e6 c1 cd 33 cb c1
       -27.407549 -26.010914 -28.768852 -25.400293
000180 a5 dd e4 c1 e6 8b 23 c1 51 f2 e1 c1 62 57 d0 c1
       -28.608225 -10.221655 -28.243319 -26.042667
000190 1c ae ef c1 13 23 a9 c1 9e 61 10 c2 4f 8d d8 c1
       -29.960014 -21.142126 -36.09533 -27.068998
0001a0 33 e1 95 c1 6a a6 21 c1 a9 1d ea c0 ba a1 d5 c1
       -18.73496 -10.103128 -7.3161206 -26.703968
0001b0 75 d6 d4 c1 e6 10 d5 c1 e9 4c e5 c1 bf 50 0f c1
       -26.604715 -26.633251 -28.662554 -8.957213
0001c0 e9 fc e7 c1 25 77 d6 c1 bb 50 6a c1 35 9e e1 c1
       -28.998491 -26.808176 -14.64471 -28.20225
0001d0 c7 d7 de c1 0e d2 0f c2 f1 04 37 c1 33 f4 da c1
       -27.85536 -35.95513 -11.438706 -27.369238
0001e0 4b e1 fa c0 69 be b1 c1 8b 3a cb c1 00 2f 81 c1
       -7.8400016 -22.217974 -25.403585 -16.14795
0001f0 90 75 10 c2 ae 23 d6 c1 44 ec 10 c2 18 21 f2 c1
       -36.114807 -26.767422 -36.23073 -30.26616

fcs.1.bias f4 [2]
000000 1e 68 82 3f 01 07 82 bf
       1.0188024 -1.0158387
