cache/ckpts/woselfloop-genius_NormalNN-genius_trialNo95.pt (torch, 9627 bytes, 5 tensors)

alpha_params f4 [64, 13]
000000 f6 b1 7f 3f 83 e0 85 3e 74 8e a5 bf d5 68 79 3d
       0.9988092 0.2614785 -1.2934098 0.06089099
000010 1d 6a a9 3e 0e 39 75 bd 02 0b 83 bf d3 b6 88 be
       0.3308877 -0.059868865 -1.0237734 -0.26701984
000020 b7 21 c5 be 49 b2 f9 be 20 17 ee be 10 75 f3 be
       -0.38502285 -0.48768833 -0.46502018 -0.4755025
000030 87 0c 35 3d fa 87 9a 3e 01 93 ec 3d 9d af ab 3f
       0.0442014 0.30181867 0.11551476 1.3412968
000040 d9 0f e6 be a4 b3 b1 3f d5 67 11 bf 41 a3 47 3f
       -0.44933966 1.3882947 -0.5679906 0.7798348
000050 5b c7 f9 bd 55 57 b9 3e b6 2e b6 3d f4 34 67 3e
       -0.12196227 0.36199442 0.08895628 0.22578794
000060 b9 54 23 bd 62 51 23 3e dd 94 11 3e e0 b0 17 3f
       -0.03987572 0.15949014 0.14216943 0.59254265
000070 e6 f7 d8 3e 18 39 14 3f 7d 23 8e 3e de 54 cb 3e
       0.42376631 0.5789962 0.2776145 0.39713186
000080 d1 11 44 3e 01 42 33 3e 93 92 8f 3e 5a 4c 57 3d
       0.19147421 0.17505647 0.28041515 0.05256305
000090 a2 d4 c1 3e 17 47 fe bd bd c1 8c 3e e6 18 4b bc
       0.37857538 -0.12415903 0.2749156 -0.012396073
0000a0 6c d0 44 bd 74 43 bb bd d8 4d a8 bd 65 db 9e be
       -0.04805033 -0.09143725 -0.082179725 -0.3102676
0000b0 5e 01 86 be 5e d2 04 bf 01 52 b9 be 7e 22 dd be
       -0.26172918 -0.51883495 -0.36195377 -0.43190378
0000c0 f5 07 f2 bd 2f a6 be be 95 bc 4c 3d de 76 9f be
       -0.11817924 -0.37236163 0.049984533 -0.31145376
0000d0 a1 af 8f 3e b5 c4 a4 3d 91 80 a1 3f 3c 57 99 be
       0.28063682 0.080453314 1.261736 -0.29949367
0000e0 4d 86 ab 3f 79 db dc be 72 f4 44 3f 39 de 3b bd
       1.340036 -0.43136194 0.76935494 -0.045866225
0000f0 b1 a7 a9 3e ce 69 db 3c 93 58 4a 3e c6 48 11 bd
       0.3313575 0.02678385 0.19760351 -0.035469793
000100 36 cc 2c 3e 10 82 b1 3e 5c 91 3a 3e 3b 1e a4 3f
       0.16874775 0.34669542 0.18219513 1.2821726
000110 1b 2e fb be c5 5f b7 3f ba 61 1e bf 61 2f 4d 3f
       -0.49058613 1.4326102 -0.6186787 0.8015042
000120 b1 6d 0e be a4 36 cc 3e d7 f5 da 3c 0c 48 7b 3e
       -0.13909031 0.39885437 0.026728554 0.24539202
000130 a2 ce 77 bd f9 20 0b 3e 1a ba 0e be d5 72 fe be
       -0.060499795 0.13586797 -0.1393818 -0.49696985
000140 1b 2a ed be 43 d2 1a bf 18 ad 96 be 7d 85 fe be
       -0.46321186 -0.60477084 -0.29428935 -0.49711218
000150 c1 e5 fa bd ec cc 69 be d1 93 ae be af af f2 bb
       -0.12250853 -0.22832078 -0.3409715 -0.007406197
000160 3a 9f b3 be 85 03 42 3d 7b ad 69 be 73 27 cc 3d
       -0.35082418 0.047366638 -0.22820084 0.09968462
000170 4b 7a 49 3e 31 fb 16 3f 9f 72 83 3e 17 2a e0 3e
       0.19675557 0.5897704 0.25673386 0.43782112
000180 6f 03 67 3e b1 5b 89 3e 1b 75 42 3e 5a ac 0a 3e
       0.22559904 0.26827767 0.18989985 0.1354231
000190 be d3 4a 3e 4f 98 65 3e 5a ae 86 3b f6 e4 24 3e
       0.19807336 0.22421382 0.00411014 0.16102967
0001a0 f0 a7 5e bc 9a 56 0d bd d3 99 c4 bd 5d f6 cb bd
       -0.013589844 -0.034506418 -0.09599652 -0.099590994
0001b0 29 79 5a be d8 1d 45 be 04 b2 db be 03 35 eb be
       -0.21335281 -0.19249666 -0.42909253 -0.45938882
0001c0 ca 98 fe be 9f 5e 8f be 88 95 cf be cc 7a 1f bc
       -0.49725944 -0.28001878 -0.4054377 -0.009733867
0001d0 d6 f6 b3 be 09 e4 79 3f 50 4d 87 3e 5c a9 a4 bf
       -0.35149258 0.9761358 0.26426172 -1.2864184
0001e0 76 e6 61 3d 76 20 c4 3e a0 14 89 bd 3b 1b 80 bf
       0.055151425 0.38306016 -0.06693387 -1.000831
0001f0 01 19 89 be 46 73 ae be b5 60 00 bf f8 b9 e4 be
       -0.2677689 -0.34072322 -0.50147563 -0.44673133
000200 aa 57 ef be 51 ac 59 3c 5e 13 bc 3d 67 5b 20 3d
       -0.4674657 0.013285712 0.091833815 0.039149668
000210 ff 40 28 3f 2e c7 75 3d 0a 3e 9c 3f a9 d6 b3 be
       0.65724176 0.060004406 1.2206433 -0.3512471
000220 16 6b 83 3f 25 26 43 be f0 23 81 3e b7 9c bb 3e
       1.0267055 -0.1905752 0.2522273 0.36643
000230 db 86 8b be c8 6e e7 3e 67 f7 68 be 2c 8a b3 3e
       -0.27251324 0.45201707 -0.22750627 0.35066354
000240 37 52 6a 3d fb 40 b7 3f f9 0a f9 be 1b 0e b3 3f
       0.057207312 1.4316705 -0.48641184 1.398868
000250 12 be 09 bf 1f 0b 4b 3f 78 73 fd bd 17 68 b6 3e
       -0.5380565 0.79313844 -0.123755395 0.3562629
000260 0b 29 69 3c 30 1a 80 3e b1 96 c6 bc 6f 9f 05 3e
       0.014230977 0.2501998 -0.024241777 0.130491
000270 66 95 18 be f7 28 12 bf 5b d8 ef be b9 7d 0d bf
       -0.14900741 -0.5709376 -0.46844754 -0.5526996
000280 4d 93 b9 be 26 a3 a1 be aa b9 82 be 7e 0e 03 be
       -0.36245194 -0.31569785 -0.25532275 -0.12798497
000290 09 da 88 be c8 2b 0a be a7 8b 9c be 04 26 49 b9
       -0.26728848 -0.13493264 -0.30575296 -0.00019183016
0002a0 a1 8c 26 be a3 09 a1 3e e4 3a 12 3e 37 23 ad 3f
       -0.16264583 0.31452665 0.14280277 1.3526372
0002b0 d7 15 f4 be 0a 00 ae 3f f4 c9 02 bf 14 ce 3d 3f
       -0.47672912 1.3593762 -0.51089406 0.74142575
0002c0 3e 9e 7c bd 67 e6 b8 3e 82 40 dc 3d cf 50 5a 3e
       -0.06167435 0.36113283 0.107544914 0.21319889
0002d0 7a d5 d9 bc 19 8d 02 3e ec 8f 04 be 19 f3 1b bf
       -0.026591051 0.12749137 -0.12945527 -0.6091781
0002e0 ad a0 ae be 0a a4 41 bf c8 05 3e be 71 50 0a bf
       -0.3410696 -0.7564093 -0.18556893 -0.54028994
0002f0 eb 37 c8 bd 80 39 3c be e7 bf f1 be 7e 43 81 3e
       -0.097762905 -0.1838131 -0.47216722 0.25246805
000300 a2 a7 29 bf f4 e3 9f 3e 2f c5 bc be 93 ba be 3e
       -0.6627141 0.31228602 -0.3686919 0.3725172
000310 67 bd 64 3e f3 81 ae 3f 98 9f fa be b1 df ba 3f
       0.22337876 1.3633407 -0.48949885 1.4599515
000320 0b 22 24 bf 28 ac 59 3f 9f 1f 10 be 6c 26 d5 3e
       -0.64114445 0.85028315 -0.14074562 0.41630876
000330 d7 7f 91 3d 78 53 82 3e 6f ce 36 bd 59 7e 24 3e
       0.07104462 0.25454307 -0.044630464 0.16063823
000340 59 00 b0 3f c7 22 a1 3e 02 56 b6 bf 27 00 b8 bc
       1.3750106 0.31471846 -1.4244998 -0.02246101
000350 50 d6 dc be 92 26 1a be da 21 5e bf 13 c8 c4 be
       -0.43132257 -0.15053776 -0.86770403 -0.38433895
000360 b5 7c b9 be 40 76 09 bf 60 52 8e be 8e 9a e7 be
       -0.36227956 -0.5369606 -0.27797222 -0.45235103
000370 45 c4 94 bd e3 bb 9f 3e 18 ae 81 3e 64 04 9f 3f
       -0.07263998 0.31198034 0.25328135 1.2423215
000380 99 ce d8 be c6 ff b4 3f 3a a4 27 bf dd d2 64 3f
       -0.42345122 1.4140556 -0.65484965 0.8938425
000390 35 28 38 be e0 1a d4 3e 29 fe 08 3e 4a 00 4c 3e
       -0.17984088 0.41426754 0.13378204 0.19921985
0003a0 49 f6 12 3d 00 cb ae 3d 1a 7f bc 3e 91 e9 44 3e
       0.035879407 0.08534813 0.3681572 0.19229724
0003b0 b5 8c a9 3f 2d 56 e2 be db 8d bd 3f c4 c2 3a bf
       1.3246065 -0.44206372 1.4808916 -0.7295344
0003c0 42 46 68 3f 3c 78 26 be 62 de dd 3e 61 c6 c0 3d
       0.90732205 -0.16256803 0.43333727 0.09412838
0003d0 7a 2c 61 3e 4b 59 20 bc 6d 2e b2 3d 00 34 a5 3e
       0.21989623 -0.009786914 0.08700261 0.32266235
0003e0 d4 21 56 3e ff 55 a4 3f 44 30 04 bf 35 9d b0 3f
       0.20911342 1.2838744 -0.5163615 1.3797976
0003f0 44 a5 15 bf c1 6b 4b 3f a0 ca 35 be 70 81 ea 3e
       -0.584553 0.79461294 -0.17753077 0.45801878

fcs.0.weight f4 [64, 12]
000000 00 ef 40 bd 74 66 d2 be 67 7a 4e 3d 2a 0c 57 bd
       -0.04710293 -0.4109379 0.0504097 -0.052501835
000010 cf 78 00 3c 21 31 7d 3d e1 1a 38 bf 82 95 18 bc
       0.007841303 0.06181443 -0.71916014 -0.009312989
000020 64 b2 ee 3d 8a d7 aa 3e 94 b3 92 3e b0 bc f2 39
       0.11655119 0.33367568 0.28652632 0.0004629842
000030 a1 ed 97 bc ff 05 1e 3f ce 7b 71 3f 18 90 88 be
       -0.018545927 0.617279 0.94329536 -0.26672435
000040 88 6c cf 3e eb f7 21 3e f1 8b e9 bd 2e 99 79 3f
       0.4051249 0.1581723 -0.11403645 0.9749936
000050 14 c1 4f bd 16 93 50 bd 30 7c 47 3c 91 3d 97 bc
       -0.050721243 -0.050921522 0.012175605 -0.018461974
000060 82 5c 1d 3d f7 68 fe bb af cf 47 be 42 fd 15 bf
       0.0384183 -0.0077639776 -0.19512819 -0.58589566
000070 fb 9c 00 bf 4b 79 48 bf 01 ea 48 3f a1 f8 06 bf
       -0.50239533 -0.7831008 0.7848206 -0.5272313
000080 be f9 6a 3d 24 62 ab 3d d3 11 95 3c 4b 9f c9 3b
       0.05736708 0.08368328 0.018196976 0.0061530224
000090 66 1f 5e be 2f 5e e5 bc 94 cb 08 be bc a4 c3 3e
       -0.21691665 -0.027999012 -0.13358909 0.3821162
0000a0 89 38 2b 3e c0 50 9b bd 3f 0f f1 3c d8 f4 9e bd
       0.16720785 -0.07583761 0.029426215 -0.07761544
0000b0 6d 16 0f 3d 54 ed 71 3e bc 6f 57 3e 86 dc a9 38
       0.034933496 0.2362569 0.21038717 8.099624e-05
0000c0 31 e8 86 bc 6c a2 24 3f 8f f5 8f 3f c2 a6 95 be
       -0.01646814 0.64310336 1.1246814 -0.2922879
0000d0 5a 56 34 3f 38 34 84 3e da f1 4a be ae 53 52 3f
       0.7044426 0.2582109 -0.19818822 0.82158935
0000e0 8b 71 90 bd c0 75 a5 bd f2 06 2a bb 73 9f cf bc
       -0.070529066 -0.080791 -0.002594408 -0.025344586
0000f0 ff e7 81 bc bc 6d b2 3e 9e 4d 6c 3f 52 c7 5f 3e
       -0.015857695 0.34849346 0.92305934 0.21853378
000100 f5 98 fa 3e b8 dd 29 3f 3f 72 90 be 86 2e 87 3f
       0.48944822 0.6635394 -0.28212163 1.0561073
000110 c3 7a eb bd f8 6f a1 bd fe 71 de 3c c4 c7 21 bd
       -0.11498024 -0.078826845 0.027153965 -0.039497152
000120 73 8b 6f 3c fe c2 1d bf 1f 2f 9e 3d 45 c0 3f bf
       0.01462065 -0.6162566 0.077238314 -0.74902755
000130 d9 d2 3d 3c f7 82 ac be 91 44 f1 3e a2 ff 2a bf
       0.0115859145 -0.33693668 0.47122625 -0.66796315
000140 29 79 7a 3c f5 1f 26 3d 5e 3c f5 3b dd 24 41 3c
       0.015287676 0.04055782 0.007484003 0.011788574
000150 a6 aa e0 b9 97 9d 4f 3e 0a ac a5 3e 67 de 20 bf
       -0.00042851752 0.2027496 0.32357818 -0.6283936
000160 de d1 bc bd ba e9 df be 19 c4 b1 3e 11 57 a2 bd
       -0.092197165 -0.43733007 0.34719923 -0.07926763
000170 bb c8 66 3d dd bf 59 3d 54 c3 3f 3d 1b f8 11 3b
       0.056343775 0.05316149 0.04681714 0.0022273127
000180 d5 6c 8f bd 6e e0 12 bf be a6 50 be 25 48 80 3e
       -0.0700318 -0.573737 -0.20376107 0.25055042
000190 0e 33 4a 3d d8 49 13 bc 5c 12 46 bc 2e 01 4a 3e
       0.049365096 -0.008989774 -0.012089338 0.19727013
0001a0 99 74 34 3f a7 ad 32 3f b1 fe 25 3f d3 43 a2 38
       0.70490414 0.6979622 0.64841753 7.737395e-05
0001b0 5d b6 97 bd b5 f5 e8 be 40 2b 84 3d 21 d8 3b bd
       -0.0740783 -0.4549996 0.06453562 -0.045860413
0001c0 bd 6c 29 bd 37 8c 1e be f6 21 92 be 3a a2 3d be
       -0.041363467 -0.15483175 -0.28541535 -0.18518916
0001d0 a6 5c a5 3d 96 3c fd 3e 82 94 ee 3e 9f b2 ec 39
       0.08074312 0.49460286 0.46597677 0.0004514651
0001e0 69 6b 41 bd 34 78 82 be fa 25 94 3f 9f d5 36 be
       -0.047221575 -0.25482333 1.157409 -0.17854927
0001f0 2e 21 0c 3e 75 bb 67 3f 76 09 f4 bd 48 0c 20 3f
       0.13684532 0.9052041 -0.11915867 0.6251874
000200 62 92 c2 be b1 c0 e2 bd 36 3c e8 bd 55 d9 db bc
       -0.38002306 -0.11071909 -0.11339609 -0.02683703
000210 31 70 88 bc 96 7e 27 3f 37 df 6e 3f 71 d5 c8 3e
       -0.01665506 0.6542753 0.9330935 0.39225343
000220 8d e4 42 3f ef 6d 17 3f cc 18 64 be b6 38 90 3f
       0.7612999 0.5915212 -0.22275084 1.1267307
000230 88 3e d3 bc 23 37 85 bd 08 de 9c 3c b1 8e ac bc
       -0.025786653 -0.06504657 0.019148842 -0.021064134
000240 41 5b aa 3d dd 02 cc bd 7c 89 e3 be 8e 98 29 bf
       0.083181866 -0.09961484 -0.4444083 -0.66248405
000250 a4 75 37 be 24 ce e5 be 77 92 d3 3e 5d b1 2b bf
       -0.1791597 -0.44883835 0.4132268 -0.6706751
000260 2a da eb 3c 00 3f 8c 3d c7 fc 52 3c b3 60 66 3c
       0.028790552 0.06847954 0.01287765 0.014061141
000270 6d a8 ca bc 88 95 0d 3f a9 b8 4f 3f a4 cb e9 bc
       -0.024738515 0.5530629 0.81141144 -0.028539486
000280 bf 55 3b 3f 70 77 0c 3f 29 38 72 be ca 6b 79 3f
       0.73177713 0.5486975 -0.23654236 0.974301
000290 42 86 8b bd f3 14 ba bd 0e 14 8e 3c 11 7f f7 bc
       -0.06812717 -0.09086027 0.017343547 -0.030211957
0002a0 f6 53 98 3c f6 20 ac be 92 08 48 be ff 6d 58 bf
       0.018594723 -0.33618897 -0.1953452 -0.8454284
0002b0 12 06 c4 be 6f 9f 46 bf 98 3f 30 3f 5d 34 6f bf
       -0.3828588 -0.77587026 0.68847036 -0.93439275
0002c0 84 ca 2b 3d 26 ea d2 3d 85 62 86 3c 31 33 c2 3c
       0.04194118 0.102985665 0.0164044 0.02370605
0002d0 85 1e 4c bc 3d 0e c3 3e 1a 46 36 3f da 90 af 3d
       -0.012458448 0.380968 0.71200716 0.0857255
0002e0 28 f5 4b 3f e2 d4 8e 3e 63 15 5e be 20 e1 4f 3f
       0.79670954 0.27896792 -0.21687846 0.8120289
0002f0 6f 3b 04 bd 03 39 b2 bd c6 44 f6 3c 24 1a 31 bd
       -0.032283243 -0.0870228 0.03006209 -0.04323782
000300 50 35 37 bd b0 da 27 bf 11 7a 60 bf 48 af 9a bd
       -0.044728577 -0.65568066 -0.8768626 -0.075529635
000310 a3 27 1f bf 17 b2 1d ba f4 87 46 bf 4a 17 5d be
       -0.62169856 -0.0006015612 -0.775512 -0.21590915
000320 1d 4b 5b be b7 63 c9 3e cc e1 d5 3e 67 26 e5 39
       -0.21415372 0.3933389 0.41773832 0.00043706896
000330 34 3d 0b bd 25 66 2b 3f 24 18 34 3f 8b 69 45 be
       -0.033993915 0.66952735 0.70349336 -0.19278543
000340 52 76 3e 3f 08 a9 c3 3e 38 5b 14 be 71 12 51 3f
       0.7439929 0.38214898 -0.14487922 0.81668764
000350 61 fb 6d bd d7 87 9f bd 3e 0c ce 3c 60 ef f8 bc
       -0.05810106 -0.07789581 0.025152322 -0.03038758
000360 b0 c7 a9 bc 44 2d 0b 3f b9 45 80 3f 16 99 79 3d
       -0.020725101 0.54365945 1.0021278 0.06093701
000370 84 1c 58 3f f8 9f 0f 3f 06 83 f3 bd 38 76 8c 3f
       0.8441851 0.5610347 -0.11890225 1.0973577
000380 8d f3 6e bd ad 90 89 bd 84 74 ba 3c 18 14 c0 bc
       -0.058337737 -0.06717048 0.022760637 -0.023447081
000390 67 ed 43 bc 02 12 fe 3e a1 1c 68 3f 48 df 38 3e
       -0.011958457 0.49623114 0.90668684 0.18053925
0003a0 0f 15 31 3f 77 8c 2f 3f 86 42 46 be 09 06 94 3f
       0.6917276 0.6857371 -0.19361314 1.1564342
0003b0 70 aa fd bd 40 44 a0 bd e0 14 5f 3c b7 5e ea bc
       -0.12386024 -0.07825518 0.013615817 -0.028609617
0003c0 63 6f 9c bc 16 8c b6 3e 9e 52 61 3f cf ba 2d 3e
       -0.019096082 0.35653752 0.8801669 0.16965793
0003d0 e8 66 0b 3f 81 54 c1 3e 05 44 bc be 4a 0e 70 3f
       0.544539 0.37759784 -0.36770645 0.93771803
0003e0 16 25 b8 bd d9 fe 7b bd 04 61 18 3d 6a 05 46 bd
       -0.089914486 -0.06152234 0.037201896 -0.048345007
0003f0 1c 2e 14 bc 7c d4 00 3f 44 a1 68 3f d2 ba d9 3e
       -0.009044196 0.50324225 0.9087107 0.42525345

fcs.0.bias f4 [64]
000000 58 2c 36 3f 26 14 8a 3e bd d0 48 3f 79 93 7c bc
       0.71161413 0.26968497 0.7844351 -0.01541602
000010 e2 ab 6f 3e c0 ec f9 3d 27 ac 4c bd d9 bc 17 3f
       0.23405412 0.122033596 -0.049968865 0.59272534
000020 f9 0d a3 bd 17 a3 2a 3f 5c b0 37 3e 13 e2 89 3e
       -0.079616494 0.66655105 0.1793837 0.26930293
000030 08 a4 05 3f 49 f2 83 3e e9 fc 3c 3f b6 02 30 3e
       0.52203417 0.25770786 0.7382341 0.17188534
000040 f8 43 43 3f 82 b9 fd 3e 17 e5 b0 3e ec a4 49 3e
       0.7627559 0.49555594 0.34549782 0.19691819
000050 70 ff 9a 3d 53 97 91 3e 23 94 55 3f 24 47 5b 3e
       0.07568252 0.28435764 0.83429164 0.21413857
000060 97 bc 85 3c 6b 2d 1d 3d ef 10 0c 3f 19 85 d4 3e
       0.016325278 0.038373392 0.5471334 0.41507795
000070 5c 69 93 3e 57 eb ff 3e 4d 75 9d 3e ac 99 8d 3e
       0.2879132 0.49984238 0.30753556 0.27656305
000080 0a 5f 02 3f 69 82 84 3e aa 21 9c 3d ad ea 4b 3e
       0.5092627 0.25880745 0.076236084 0.1991374
000090 c7 21 84 3b 92 2a 8d 3e 8b 94 2e 3c df fc 71 3e
       0.004032347 0.2757154 0.010655533 0.23631619
0000a0 20 b8 2a 3f e1 46 13 3f 06 b1 14 3e 5f 8d 65 3f
       0.666872 0.5753003 0.14520654 0.8966884
0000b0 7f 9e aa 3d fa b0 ba 3c 8f 66 c1 3d ee 58 8d bc
       0.08331012 0.022789467 0.094433896 -0.017254319
0000c0 ab c2 2f 3e fb 3d 11 3c e7 d6 a0 bc 60 16 01 3f
       0.17164104 0.008864875 -0.019633723 0.50424767
0000d0 43 ac 47 3b 3a 55 fd 3e dc 2e 51 bc 98 b3 83 3c
       0.0030467666 0.49479085 -0.01276752 0.016076848
0000e0 c7 f4 1e 3e 27 55 1c 3f 97 c4 11 3f a4 06 30 3f
       0.15523063 0.6106743 0.569406 0.6876013
0000f0 a2 b5 10 3f 5c 9a 6f 3c c8 89 0d bc 23 a5 e0 3e
       0.5652715 0.0146242045 -0.008638807 0.4387599

fcs.1.weight f4 [2, 64]
000000 3c 5b b7 bf 69 df a6 3f f3 b8 a1 3f df ea 97 bf
       -1.4324718 1.3036929 1.2634567 -1.1868552
000010 77 68 ba 3f 7b 78 a5 3f b6 ae a4 bf a2 d6 92 3f
       1.456313 1.2927393 -1.2865818 1.1471751
000020 0a 36 a2 bf 01 9d b2 bf 7d 4e a2 3f f9 52 b1 3f
       -1.2672741 -1.3954164 1.2680203 1.3853446
000030 0c e9 a3 bf f7 45 b9 3f 33 e9 ac bf ac e9 ba 3f
       -1.2805495 1.4474477 -1.3508667 1.4602561
000040 c3 e8 be bf 67 d6 ae 3f 2f 24 c0 3f 5c 97 9d 3f
       -1.4914783 1.365918 1.5011042 1.2311816
000050 10 85 bb 3f 0e e0 a7 3f b1 29 ae bf f4 ea b8 3f
       1.4649982 1.3115251 -1.3606473 1.4446702
000060 d6 10 a4 bf 90 44 92 3f eb 77 98 3f 56 bc 99 3f
       -1.2817638 1.1427174 1.1911596 1.20106
000070 73 55 bb 3f b4 87 a5 3f 09 f2 b4 3f 09 7e bc 3f
       1.4635452 1.2932038 1.4136363 1.4725963
000080 e9 7d a8 bf f5 56 b9 3f e4 65 a8 bf 58 3b ba 3f
       -1.3163425 1.4479662 -1.3156095 1.454936
000090 b9 6f 96 3f 21 95 a6 bf 29 3f a1 bf 4f 7d ad 3f
       1.1752845 -1.301426 -1.25974 1.3553866
0000a0 40 8c a7 3f fb 88 b9 bf b7 42 b1 3f b2 e5 b7 bf
       1.3089676 -1.4494928 1.3848485 -1.4366972
0000b0 a5 f4 bb 3f f0 12 99 3f 04 34 b0 bf d5 7b 93 3f
       1.4684035 1.1958904 -1.3765874 1.1522166
0000c0 65 35 c7 3f 1a 8e 9a 3f 8a 77 a8 bf 6b 92 9c 3f
       1.556317 1.2074616 -1.316148 1.2232183
0000d0 9f a0 9a bf 43 84 96 3f 55 44 a5 bf c2 2a 98 bf
       -1.2080268 1.1759113 -1.2911478 -1.1888049
0000e0 c5 54 b4 3f cc 9e a0 bf db 5b ba 3f b8 1d b0 bf
       1.408837 -1.2548461 1.4559282 -1.375907
0000f0 3d 94 a4 3f d4 a0 a3 bf f4 7b 96 bf 11 c8 a7 3f
       1.2857739 -1.2783456 -1.1756577 1.310793
000100 f8 d1 b5 3f f9 d0 bf bf e4 86 99 bf 39 55 9c 3f
       1.4204702 -1.4985648 -1.199429 1.2213508
000110 fd 05 ab bf 49 b4 ba bf f6 b3 a5 3f ea 3a 98 bf
       -1.3361202 -1.4586269 1.2945545 -1.1892979
000120 3a 85 a3 3f 7a f3 bb 3f 74 16 b0 bf 4e b2 b7 bf
       1.2775033 1.4683678 -1.3756852 -1.4351289
000130 35 49 a1 3f df 5c b0 bf 08 96 9f 3f a2 a2 b8 bf
       1.2600466 -1.3778342 1.2467661 -1.4424632
000140 9a 4d b9 3f 6d 9c bc bf 10 7b b2 bf b2 32 b8 bf
       1.4476807 -1.4735237 -1.3943806 -1.4390471
000150 39 3e aa bf ab ca c4 bf f8 51 a0 3f 97 7b bf bf
       -1.3300239 -1.5374349 1.2525015 -1.4959592
000160 66 7a 9a 3f 91 96 95 bf cd d2 9f bf 8f c2 a0 bf
       1.2068603 -1.1686574 -1.2486206 -1.2559375
000170 08 28 a8 bf eb 11 b9 bf 1b 5e bc bf af 3a b5 bf
       -1.3137217 -1.4458593 -1.4716219 -1.4158534
000180 12 4b a4 3f 3e 77 bc bf ea 24 97 3f 8c f0 c8 bf
       1.283541 -1.472389 1.180814 -1.5698409
000190 ce 9e 97 bf a8 f6 9a 3f b2 5c 96 3f 8d 74 b7 bf
       -1.1845338 1.2106524 1.1747038 -1.4332443
0001a0 24 23 96 bf 59 10 ab 3f 5d fa b1 bf 38 51 b2 3f
       -1.1729474 1.3364364 -1.390453 1.3931036
0001b0 ac c7 b1 bf 71 4d 9f bf 3a 1b ba 3f 36 c4 9b bf
       -1.388906 -1.2445508 1.4539559 -1.2169254
0001c0 fa 5e b8 bf ad 61 8e bf 28 b0 a1 3f 47 10 98 bf
       -1.4403985 -1.1123558 1.2631884 -1.1879967
0001d0 ad 0c 93 3f d1 03 9a bf 87 74 91 3f ba 4b 8d 3f
       1.1488243 -1.2032415 1.1363686 1.1038735
0001e0 e2 f9 b0 bf 4a ba b4 3f ae 90 b5 bf 9e ee a5 3f
       -1.3826258 1.4119351 -1.4184778 1.2963445
0001f0 b8 8a 97 bf 90 2b 94 3f 33 16 98 3f 40 4f 96 bf
       -1.1839209 1.1575794 1.1881775 -1.1742935

fcs.1.bias f4 [2]
000000 ae c6 4d 3f b1 d5 65 bf
       0.80381286 -0.8977919
