cache/ckpts/woselfloop-genius_NormalNN-genius_trialNo1.pt (torch, 8347 bytes, 5 tensors)

alpha_params f4 [64, 9]
00000000: 86ee e9bf 036d 973d e4ae 97c0 f986 673f
00000010: e67e c9c0 78f1 c93f 1530 5bbf c019 2b3f
00000020: f67a a43f 41dc 7140 b871 573f b061 5e40
00000030: 5c84 47bf 77bc 3b40 f873 6fbf fa14 c53f
00000040: e090 31bf 485c af3f 1361 863f 1c38 a83e
00000050: 76ad 1240 75b3 713f 3e09 153f 9ac2 993f
00000060: a09b 2f3f 92f5 053f 1ec7 ff3e bffb 7e40
00000070: 0879 d83f a0b1 9140 db5e f7be d5d6 9840
00000080: 096b 05c0 3ed0 2e40 c9e3 37bf 5c67 203f
00000090: 118d e640 f476 5b3f 8e7b a640 d262 cd3e
000000a0: 8725 b140 15a8 3ec0 ad63 9f3f c094 39c0
000000b0: dee3 64bf ef41 4f40 73ce c43f c4ff 8640
000000c0: 55f5 93be a19d 8340 57a0 b4bf 425d dc3f
000000d0: 2c9f 71bf e769 1b3e 78a4 f5bf c8a7 8fbe
000000e0: 2f32 f1bf ba34 883e 9f51 0dc0 823c c13f
000000f0: de1c 62bf 191d 103f 4e83 6abf 3a6c 4b41
00000100: 341e cabe 378b 25c0 2778 f93f d265 bbbe
00000110: 13f1 8c3f 8038 803f 1e77 6f3f 3c04 3d40
00000120: f0de 8ac0 b83d 8bbd aaf4 5a3f f26d 41bf
00000130: 06a0 cdbe def3 f0bc a1dc c8be cd3c 9cbe
00000140: 1008 84bf a782 4fbf deea 81c0 bc62 033e
00000150: 2b6d 78c0 38e6 6e40 6141 1fc0 ca46 0640
00000160: 6dd5 4bc0 2bfb 343f 3be9 dd40 10e6 853f
00000170: edd4 9240 aeda 99bf c305 9240 7777 fabf
00000180: 0833 5140 23d8 8dbf 3abb f43f 89ab a140
00000190: 17ef db3f 406b a740 ef79 30bf 8413 a540
000001a0: df53 07c0 5d71 3740 4642 60bf 4fda 9d3f
000001b0: 326d 29c1 113a 6abe 5d36 2240 52eb 09c0
000001c0: 1c30 463f d67c c7bf fe43 4ebf 33f6 a2bf
000001d0: 49e3 17c0 ae5d 9fbf d2a9 22c0 3913 cd3d
000001e0: ea05 d8bf 217e 7340 eb0f d4c0 0f72 863e
000001f0: bab2 5ec0 c0a6 7b40 5986 0dc1 6c60 5a3e
00000200: 8ec4 0840 12ed 91bf 9fa7 69be 85e8 f23e
00000210: d8b2 1dbf ab6a 85bf cb19 4cc0 a650 9740
00000220: 0a09 be3f da5d 8b40 3820 35bf 8bce 9b40
00000230: b0d2 18c0 8a23 6340 f210 95bf a580 ae3f
00000240: fad6 c4c0 ffd5 8a3f d2fb edbe 345e 26bf
00000250: afa9 c3bf c4da b6be 4b93 cfbe e57b c2bd
00000260: b2d3 5fbf 888d 9a40 4371 ac3e 3ace e73f
00000270: fa51 b2bc b95c 2040 9dcf 68bf 2f29 ad3f
00000280: 456d cabf ea0c f23f 2e3a 1641 61bb 5c3f
00000290: d45c bf40 0cee 04c0 69b8 9940 bb98 1dc0
000002a0: 18ce b33f 135d 02c0 1ab5 923f 12e2 8040
000002b0: 03c7 9c3e 76ea 8fbe 207f c63e 0140 823f
000002c0: 331c 27bf faf2 223f 5a2d c63e e78f 813f
000002d0: 75b9 fd3f 789a 06c0 67a1 dd40 d130 b53e
000002e0: 70a8 9a40 9eab 15bf 35ec c13f 1e9e 8bbf
000002f0: 4674 d0bf cd4b 9c40 3f92 f53f ef48 9e40
00000300: df64 1abf 6a15 9640 6efa 06c0 44db 2f40
00000310: bb98 9ebf 79a4 9e3f 1ad9 1dbe f7bf a6bf
00000320: e1fc 18bf bad5 16c0 c9a2 a9be 26d2 86bf
00000330: 338c 253f b091 1ebf e4e3 a13f a677 8b40
00000340: fc5d cd3e 2e63 a83e a6b5 4dbd 957c b73f
00000350: a6fa 88bf dac0 3f3f 5849 913e 6f5b 833f
00000360: a917 bbc0 bf40 7e3e 2e8c 3fbf 32a8 d13d
00000370: 38b3 f1bf 42af e33e 6cc3 97be ac98 a9be
00000380: 0eef 58bf 9679 913f 1969 fa3f 2106 823f
00000390: d3bb fa3f d331 2a3e 70c4 0340 81bb c0bf
000003a0: 479c f13f f9d3 8cbf 5e9b 0941 64ed 973e
000003b0: 2f85 d0bf 87eb 983f 42dc 1dbf bb2a 9a3f
000003c0: 40cc 6b3e 5c20 373f bcf3 6b3f 3ac6 c43d
000003d0: a72e 2740 bc76 ae3d 20d2 4740 3b70 4fbf
000003e0: ee7b 5d40 b5ea bebf a63a 3c40 142d 0bc0
000003f0: 29e6 1f41 8d16 0a3f f1b5 6840 7a6d 1abf
-1.8275917 0.07393839 -4.740099 0.90440327 -6.2967405 1.5776815 -0.8562024 0.66836166
1.2850025 3.7790682 0.84157896 3.4747124 -0.7793634 2.933378 -0.9353633 1.5397027
-0.69361687 1.3700037 1.0498375 0.32855308 2.2918372 0.94414455 0.5821723 1.2012513
0.6859684 0.52327836 0.49956602 3.9841154 1.6911936 4.5529327 -0.48314556 4.7762246
-2.084658 2.73146 -0.7183195 0.62657714 7.20472 0.85728383 5.2025824 0.40114456
5.535831 -2.979009 1.2452294 -2.899704 -0.894102 3.2383993 1.5375503 4.2187214
-0.2889811 4.112992 -1.4111432 1.721596 -0.943835 0.15177117 -1.9190817 -0.28057694
-1.884344 0.26602727 -2.2081068 1.509659 -0.883253 0.562944 -0.91606605 12.7139225
-0.39476168 -2.586622 1.9489793 -0.3660112 1.101107 1.0017242 0.93541133 2.9533834
-4.339714 -0.06798881 0.8552958 -0.7555839 -0.4016115 -0.02941316 -0.39230826 -0.30515137
-1.031496 -0.81058735 -4.0599203 0.12830633 -3.881663 3.7328014 -2.4883654 2.0980706
-3.1849015 0.7069575 6.9347205 1.0460835 4.588492 -1.2019861 4.5632033 -1.9567708
3.2687397 -1.1081585 1.9119637 5.0521894 1.718234 5.231842 -0.68936056 5.1586323
-2.114494 2.8662941 -0.87601125 1.2332247 -10.589159 -0.22873713 2.534568 -2.1549878
0.7741716 -1.5584972 -0.805725 -1.2731384 -2.3732474 -1.2450464 -2.541615 0.10013432
-1.6876805 3.8045733 -6.626943 0.26258895 -3.4796586 3.9320526 -8.8453 0.21325845
2.1369967 -1.1400473 -0.22817849 0.47443023 -0.6160102 -1.0423177 -3.1890743 4.728595
1.4846509 4.3552065 -0.70752287 4.868963 -2.3878593 3.5490441 -1.1645796 1.3633009
-6.1512423 1.0846556 -0.46481186 -0.6498749 -1.5286158 -0.3571378 -0.40542063 -0.09496287
-0.87432396 4.829777 0.33680162 1.810981 -0.021767605 2.5056593 -0.9094179 1.3528193
-1.5814596 1.8910191 9.389204 0.8622342 5.9800816 -2.0770292 4.803761 -2.462447
1.404727 -2.0369308 1.1461518 4.0275965 0.30620584 -0.28108567 0.38768864 1.0175782
-0.65277404 0.63652 0.38706475 1.012204 1.9822222 -2.103178 6.9259524 0.35388806
4.833061 -0.5846499 1.515021 -1.0907629 -1.6285484 4.884253 1.9185256 4.946403
-0.6031017 4.690114 -2.109035 2.747758 -1.239036 1.2393943 -0.15414849 -1.3027333
-0.5976086 -2.3567948 -0.33132008 -1.0532882 0.6466705 -0.6194105 1.2647672 4.3583555
0.40110767 0.32888168 -0.05022206 1.4334894 -1.0701492 0.74903643 0.2837627 1.0262278
-5.846638 0.24829386 -0.7482327 0.10237159 -1.8882818 0.4446965 -0.29641283 -0.33124292
-0.8473977 1.136523 1.9563323 1.015812 1.9588569 0.16620569 2.0588646 -1.5057222
1.8875817 -1.1002189 8.600431 0.29673302 -1.6290644 1.1946877 -0.6166421 1.204429
0.23027134 0.7153375 0.92168784 0.09608121 2.6122224 0.085187405 3.1222 -0.81030625
3.460689 -1.4915377 2.9410796 -2.1746264 9.993691 0.5394066 3.6361048 -0.603233

fcs.0.weight f4 [64, 12]
00000000: 05a7 adbe af80 64bd 7123 99be c29f 5d3e
00000010: bc75 b0bf 98e4 103f 9518 67bf a17e dd40
00000020: 9492 d6c0 a915 4cc0 d944 01bf d8c9 a5bf
00000030: 49e0 abbc 238a 0340 5c5a 1b40 19b7 59c0
00000040: 1a87 9ebf 0a44 06c0 e392 8cc0 4c36 e040
00000050: 20cd 29bf 1d7f 37bf eee5 eabd df84 89be
00000060: 18d6 2fbd df42 18bf fd6f babe c801 22c0
00000070: 21a6 33c0 1ba2 84c0 d107 8c3f 8553 1dc1
00000080: 99fe 8b3d 332c c43d 51c1 203b 1d3c 6c3c
00000090: a536 30be 6992 3c40 5d18 57c0 ab1e 3cbf
000000a0: 8f99 65c0 c708 1ac0 fbf8 adc0 1c23 eb40
000000b0: 924c 94bf 9ba8 75bf 9cc9 ddbd 4e44 9bbe
000000c0: 3ec7 a7be 45f1 0dc0 d194 2440 083e 8bc0
000000d0: 4799 1540 08a8 7dc0 db25 80c0 679d 5940
000000e0: c713 92c0 5a33 06c0 4b04 69bf 2e54 45bf
000000f0: c8c9 83be e3e9 b73f 6295 09c0 f403 08bf
00000100: ca9f 38c0 93c2 03c0 2dbc 8ec0 3a78 d140
00000110: 7259 c6bf 2e3b 95bf 98ca c0bd fe79 a2be
00000120: af94 a0be 6639 9ebf 04d2 e33e edc0 7b3f
00000130: 025b 0d3f 00db 86bf e91e 983f ed57 fa3f
00000140: 0b70 82be 283a 6ebd 135a a5bd dbf9 02be
00000150: 3b35 f23d d28b 103f 1297 3540 b530 f4c0
00000160: f87f e1c0 0493 5ec1 9678 f23f 18dc 2dc1
00000170: 7d0c 263e d230 2c3d 7b48 9cbd c648 113d
00000180: b10a 963e e5b1 383f 7b60 11bf d221 3e3d
00000190: 8ce9 eabe 3cee 1fbf b1d4 44bd df4b 0c40
000001a0: 08a2 e13d c1a0 e63c 1e88 1b3d 9b32 ddba
000001b0: 1fd7 90bf 35d8 a93d 6723 2a3f e463 25bb
000001c0: 7649 933f 94d2 1d3f 81d3 3abe 239e 8cc1
000001d0: fca1 3b41 c247 fb40 c35e ce3f a646 ac3f
000001e0: d489 2fbd c9dd d83f 3745 4b40 490e 44c0
000001f0: f5df 00c0 4370 fdbf 1e7a 9bc0 dd7e d240
00000200: 984d bdbf 94c1 ccbf 9c44 71be 7ca4 24bf
00000210: 3d5f abbc bf25 2e40 d2ff d5bf cd67 3dc0
00000220: 2f8c 58c0 557a 9ac0 2027 92c0 d38a db40
00000230: 8fb9 7bbf df01 a5bf 2646 23be 4783 a4be
00000240: f850 493e 91b8 8c3f 9ac0 c23f e08b b1c0
00000250: bcad 91c0 42de 05c1 2390 943f d040 24c1
00000260: 3877 313f c908 973e 6e9c debd 487f 093e
00000270: 9a08 1b3d bae1 b03f 1027 0440 8910 66c0
00000280: c794 cf3f 427c 403f d23a 783e 5a2e 4fc1
00000290: c781 2d40 5ec9 c13f 772d 523d 5a06 fe3e
000002a0: 0c4b 0a3e 5cda 93bf 8d83 4d40 38bc bac0
000002b0: e4e4 ddc0 74be a9bf d29b 35bd 2fc0 2dc1
000002c0: 9495 583e 9393 703e 6e3f 2d3e 32ea 05bc
000002d0: 9d0b 08bd bcac f33f ff04 0bc0 9ca7 52c0
000002e0: 8c59 80c0 931b 92c0 eeff 8fc0 effc e340
000002f0: d29a 31bf d6ed 90bf 5159 4abe d5c3 b9be
00000300: 2b49 d63d dc3c 623e 5d7a 30be 631b 13be
00000310: 20ce e8bf 1f03 b7bf 5e4e 11bf ee99 9d40
00000320: 43b1 9fbf 0639 dfbe 3ec6 c23e e1a6 64bd
00000330: 9785 c2bd cbd9 b53f 854e 1641 c7fd f23f
00000340: 2b82 80c0 9348 08c1 bac9 ccc0 189c d540
00000350: 8bf4 ebbe 5777 96be 9225 e7bc c73f c3bd
00000360: 4bbe 2bbe 6cf6 b9be c24e 9440 76a4 88c0
00000370: fea0 0e41 e007 b9c0 6589 9ac0 4a14 9840
00000380: 3b32 c0bf 3fed 9ebf 115a b3be bd40 1bbf
00000390: b228 133f 84ae bdbe 2557 ba3c db45 15bf
000003a0: 601e 82be 149a 6a3e fcf8 d3be b489 2e40
000003b0: 666c 473e f3b6 64be c431 e7ba 096c 55be
000003c0: 96a1 abbe 72d9 20be 199c f4be 101c af3a
000003d0: 4ec1 b4bd b22f 44be fd7d 8bbf 4d3c d640
000003e0: 76b8 23c0 cd82 bdbe afd2 f53f 4539 aabf
000003f0: 1f9b 28be 7a06 3740 bb73 e7bf 5bb2 20c0
-0.33916488 -0.055786785 -0.29909852 0.21642974 -1.378593 0.56598806 -0.90271884 6.9217076
-6.705393 -3.188822 -0.5049568 -1.2952223 -0.020980971 2.0553062 2.42739 -3.4018004
-1.238498 -2.0979028 -4.3929305 7.006628 -0.6632862 -0.71678334 -0.11469637 -0.26859185
-0.042928785 -0.5947704 -0.36413565 -2.5313587 -2.8070147 -4.1447883 1.0939885 -9.8328905
0.0683567 0.09578743 0.0024529288 0.014418629 -0.17208345 2.9464362 -3.360862 -0.73484296
-3.5874975 -2.4067857 -5.436643 7.348036 -1.1585867 -0.95960397 -0.108294696 -0.3032555
-0.32769197 -2.217851 2.571583 -4.351322 2.3374803 -3.9633808 -4.004621 3.400232
-4.564914 -2.0968843 -0.91022176 -0.77081573 -0.25739884 1.4368252 -2.1497426 -0.5313103
-2.8847528 -2.0587509 -4.4604707 6.545926 -1.5496047 -1.1658685 -0.09413642 -0.31733698
-0.31363437 -1.2361267 0.44496167 0.98341256 0.5521699 -1.0535583 1.1884433 1.9558083
-0.25476107 -0.05816093 -0.08073821 -0.12790625 0.11826559 0.5646335 2.8373456 -7.6309457
-7.046871 -13.9108925 1.894305 -10.866234 0.16215701 0.042038746 -0.07631012 0.035469793
0.29305032 0.72146446 -0.5678784 0.046418972 -0.45881307 -0.6247289 -0.0480544 2.1921308
0.11017233 0.028152825 0.03797161 -0.0016876044 -1.131565 0.08293191 0.6646027 -0.0025236541
1.1506793 0.6164944 -0.18244745 -17.577215 11.727047 7.8525095 1.6122669 1.345906
-0.042856053 1.6942683 3.1760995 -3.063372 -2.0136693 -1.9799885 -4.858657 6.5779862
-1.4789305 -1.5996575 -0.23561329 -0.64313483 -0.020919437 2.7210538 -1.6718695 -2.9594605
-3.3835561 -4.827433 -4.567276 6.8606963 -0.98330015 -1.2891196 -0.15944728 -0.32131407
0.19659793 1.0993825 1.5215027 -5.5483246 -4.552458 -8.366762 1.1606487 -10.265823
0.6932254 0.2949889 -0.1086968 0.1342746 0.03785 1.3818886 2.0648842 -3.5947592
1.6217278 0.751896 0.24241188 -12.948816 2.711046 1.5139577 0.05131289 0.4961422
0.1350519 -1.1551013 3.2111542 -5.835476 -6.9341908 -1.3261247 -0.044338055 -10.85942
0.2115081 0.23493795 0.16918728 -0.008173512 -0.0332142 1.9037089 -2.17218 -3.29148
-4.010931 -4.565866 -4.4999914 7.1246257 -0.6937686 -1.1322582 -0.19760634 -0.3628222
0.104631744 0.22093529 -0.17234178 -0.14365916 -1.8187904 -1.4297827 -0.56760204 4.9250402
-1.2475971 -0.43598193 0.38041872 -0.05582321 -0.094981365 1.420709 9.39417 1.8983697
-4.0158896 -8.517718 -6.399625 6.6753044 -0.4608501 -0.29387924 -0.028216157 -0.09533649
-0.1677181 -0.36320817 4.634614 -4.270076 8.914305 -5.7822113 -4.829272 4.7524767
-1.5015329 -1.2416152 -0.35029653 -0.6064566 0.5748397 -0.37047207 0.022746632 -0.58309716
-0.254138 0.22910339 -0.41400898 2.7271547 0.19474944 -0.22335415 -0.0017638733 -0.20841993
-0.33521718 -0.15707949 -0.47775343 0.0013359804 -0.088259324 -0.1915882 -1.0897824 6.694861
-2.5581336 -0.37013856 1.920492 -1.3298727 -0.16465424 2.8597703 -1.8082193 -2.510886

fcs.0.bias f4 [64]
00000000: b6b6 e2bd 0d87 8dbd 4eae f0c0 c8ed 78bd
00000010: ab98 acbc 1b1c 1abc 8bcd 46bd cc26 3c3d
00000020: e349 28b8 ed68 e3c0 65dd a8bd 5f7a a1bc
00000030: 4f30 28bd f8e7 abc1 46e8 42be 07c1 9ebd
00000040: 6583 afbe 57e1 a8b9 3831 093a 29f2 c3b8
00000050: 7a70 95be 8ef6 7abd 1136 21c1 c606 0abd
00000060: 35c8 49bc ba41 39c0 c3c5 57c0 92ca 56c1
00000070: 6358 8b3d 697a 8abe 22bb c33a 66e7 9abc
00000080: 1a5a a1be b5f1 fabb 53c8 b83d 1bda b3bc
00000090: b97e 62bd e0c0 f43a 2de2 89c1 6194 ceb6
000000a0: e62a 63c1 c361 04be 4faf 9cbc c539 90bc
000000b0: ede8 a53c a95c 53bd 015f 71c0 d24e 91bc
000000c0: 60a1 d9c0 53d6 5fbe 42e3 c3bf c53a 2bc1
000000d0: e171 d33c 5eae 4fc1 e024 96bc 2c7f c6bd
000000e0: 9588 65bd 5467 b2bd ca9c 3ab9 ef07 ea39
000000f0: 7f0d bcbd 5567 b7c0 c5a5 80be 22da 2fc1
-0.110700056 -0.069105245 -7.5212774 -0.06077364 -0.021068892 -0.009406115 -0.048535865 0.045935437
-4.0123134e-05 -7.1065583 -0.08245353 -0.019711671 -0.041061696 -21.488266 -0.19033918 -0.07751661
-0.34279934 -0.00032211348 0.00052334694 -9.3434304e-05 -0.29187375 -0.06127029 -10.0757 -0.033697866
-0.0123157995 -2.8946366 -3.3714454 -13.424456 0.06803968 -0.27046517 0.0014933089 -0.018909167
-0.31514055 -0.0076582083 0.09022584 -0.021954587 -0.055296633 0.0018673204 -17.235437 -6.156552e-06
-14.197973 -0.12927918 -0.019126562 -0.017605672 0.02025267 -0.05160204 -3.7714236 -0.01773778
-6.800949 -0.21859102 -1.5303729 -10.701848 0.025811138 -12.98007 -0.01832813 -0.09692225
-0.056038458 -0.087111145 -0.00017796751 0.0004463787 -0.09182262 -5.731364 -0.25126472 -10.990755

fcs.1.weight f4 [2, 64]
00000000: c149 c6c0 97b4 8940 15c8 7840 19ea c840
00000010: d016 de40 1299 ac40 cbb7 6ec0 626b fc40
00000020: 11e6 50c0 5239 b8c0 73ee ce40 1636 d840
00000030: edd3 d7c0 f1c4 01c1 f73f cbc0 2ca7 c540
00000040: 849c 95c0 eb21 8740 4de5 d940 a372 3b40
00000050: e79f cd40 af4d d240 477e 61c0 91cd 4e40
00000060: e105 8ec0 c9ad 8540 ecd6 d340 5976 a640
00000070: dcd5 de40 8685 bb40 836a 6c40 79c5 a540
00000080: e79d b1c0 f4a7 c140 bb91 cac0 43a0 4a40
00000090: 9e95 bf40 913b 82c0 e36c 0bc1 4215 4440
000000a0: 2f8e 8840 2486 e240 8688 9c40 01ec 80c0
000000b0: 1643 e540 e648 be40 8272 96c0 9745 c240
000000c0: 6117 8640 232b bf40 578d 7ec0 9edf 8040
000000d0: c009 b640 fe8e aa40 0d5e abc0 3920 60c0
000000e0: be4f b340 c0f2 e140 793c 8340 6c93 7fc0
000000f0: 7a26 a240 aebb afc0 d8bf f5c0 2529 d440
00000100: 69db c640 270c 8dc0 b381 74c0 41c6 c5c0
00000110: 2f23 dec0 a46a afc0 8e17 7740 655d 02c1
00000120: 08b6 5540 b970 bd40 c3af d3c0 95be dac0
00000130: b528 dc40 f603 0341 2fbb c840 d3c8 c6c0
00000140: 6836 9840 f98a 8dc0 fdfb d9c0 db7f 49c0
00000150: e9d3 cac0 6a15 d7c0 868a 6440 98bf 54c0
00000160: b877 8d40 d88e 8ac0 1a33 d8c0 cb82 aac0
00000170: da0a dfc0 d48b bec0 a3f3 73c0 704a a5c0
00000180: 46e0 b140 31ff c2c0 ef3f cc40 c274 54c0
00000190: 017c c0c0 7a04 8240 8960 0b41 bc97 4bc0
000001a0: 932d 89c0 e52e e3c0 8554 9dc0 8ac4 8340
000001b0: 78fa e3c0 37da bec0 83ec 9b40 9ed4 c3c0
000001c0: 440c 86c0 82f0 bec0 ede6 8040 4b94 7fc0
000001d0: 23e4 b5c0 d822 b0c0 127b b040 d6e4 5e40
000001e0: 44fe b8c0 e45f e0c0 5627 84c0 e2bc 8140
000001f0: 9a7d a2c0 c409 af40 86a5 f640 9524 d5c0
-6.196503 4.3032947 3.887212 6.2785764 6.9402847 5.3936853 -3.7299678 7.8881083
-3.2640421 -5.756997 6.4666076 6.7566023 -6.74462 -8.110581 -6.351558 6.1766567
-4.675356 4.2228904 6.809241 2.9288719 6.4257693 6.571983 -3.5233324 3.2312968
-4.4382176 4.177464 6.6199856 5.2019467 6.963606 5.8600492 3.694001 5.1803555
-5.550525 6.051752 -6.3302894 3.1660316 5.987014 -4.0697713 -8.714084 3.0637975
4.2673564 7.0788746 4.8916655 -4.028809 7.164439 5.9463987 -4.701478 6.070995
4.190354 5.9740157 -3.9773767 4.027297 5.68869 5.329955 -5.355231 -3.5019667
5.603484 7.0608826 4.101132 -3.993373 5.067197 -5.49166 -7.6796684 6.6300225
6.2142835 -4.4077334 -3.8204162 -6.180451 -6.941795 -5.4817677 3.8608127 -8.147801
3.3392353 5.92001 -6.6152053 -6.8357644 6.879969 8.188467 6.2728496 -6.2120147
4.7566414 -4.4232144 -6.8120103 -3.1484287 -6.338368 -6.721364 3.5709548 -3.324194
4.420864 -4.329937 -6.756238 -5.328466 -6.9700747 -5.954569 -3.8117454 -5.1653366
5.558627 -6.0936513 6.3828044 -3.3196263 -6.015137 4.0630465 8.711068 -3.1811361
-4.2868133 -7.0994744 -4.9165673 4.1177416 -7.124325 -5.9641376 4.872621 -6.1197042
-4.1889973 -5.966859 4.028189 -3.993426 -5.6840987 -5.5042534 5.515023 3.482717
-5.7810383 -7.0117054 -4.1298018 4.054307 -5.077832 5.469942 7.7077055 -6.6607156

fcs.1.bias f4 [2]
00000000: fae7 4e3f 03fc 4dbf
0.8082272 -0.80462664
